quantization/saved_models/cnet_cifar10.pt (torch, 41623 bytes, 26 tensors)

conv1.weight f4 [6, 3, 3, 3]
000000 7f cb ae ba c1 b0 c3 3d c9 1e 16 be 82 3b 06 be
       -0.0013335793 0.095551975 -0.14660181 -0.13108638
000010 5a 80 8c bd c0 a4 43 3d a3 49 67 bb b7 9e 10 3e
       -0.068604186 0.04776454 -0.0035291694 0.14123045
000020 20 7e 81 bc ab 0e 41 3d 79 7d 5c bd 39 69 0f bd
       -0.015807211 0.04713313 -0.053830598 -0.035012458
000030 7b 40 2e be 78 98 f1 bd 35 60 96 bd 1e 36 d8 3b
       -0.17016785 -0.11796659 -0.07342569 0.006598248
000040 20 37 90 3d 3c e2 da 3d c8 4e f7 bd 86 da 9e bd
       0.07041764 0.10687682 -0.12075573 -0.07756524
000050 b3 7f 84 3d ab 75 17 3e 0a 26 16 bd 3d 7d 08 3e
       0.06469669 0.1479098 -0.03665737 0.13329025
000060 9b 31 eb bc 9f 66 9a 3c c8 27 25 3e 1e 34 29 be
       -0.028710177 0.018847762 0.16128457 -0.16523787
000070 8d a6 e5 bd 9d b4 38 bd 31 32 8e bd 22 97 1d 3e
       -0.11213408 -0.04509412 -0.06943167 0.15389684
000080 77 73 ec bd 0b ed a7 bd d7 db fe bd 36 d3 2a be
       -0.11545461 -0.08199509 -0.12444275 -0.16682133
000090 b4 f1 d4 bd 8f c9 1c 3e f2 c6 a2 3d 0a ce b0 3d
       -0.10397664 0.15311264 0.07948102 0.08633049
0000a0 f2 7a 19 3c e5 05 bb bd 81 de f6 3c 66 4d 2a be
       0.009367691 -0.09131984 0.030135395 -0.16631088
0000b0 0e cb 03 be b8 0f bc bd 53 29 e6 3d b4 e2 d5 3d
       -0.12870428 -0.091826856 0.11238351 0.10443631
0000c0 9a c8 a1 bd a4 99 d2 bb 8d 4e e9 3d 7b 53 35 3e
       -0.0789959 -0.006427007 0.113919355 0.17707627
0000d0 9b c7 90 3d 9d 1f c5 3c 93 96 f4 3d 68 ca d6 bd
       0.07069322 0.024062926 0.11942782 -0.10487825
0000e0 2b f4 07 3d ae 69 0d be 2b d5 fc bd 1d 72 bc bd
       0.03319184 -0.13809845 -0.12345346 -0.09201453
0000f0 07 0f a5 3d 73 b4 92 3d ef 15 d8 bd a4 69 5c 3d
       0.08059507 0.07163324 -0.105510585 0.053811684
000100 c4 42 c8 3d 22 2c b8 bc 4e da de 3b 55 0c 29 3d
       0.097783595 -0.022481982 0.0068009263 0.041271526
000110 09 4f e2 3d bb 22 2f 3e 0e 8f 0c be 7b af 85 bd
       0.11050231 0.17103092 -0.13726446 -0.06527611
000120 f6 5d 8f 3d d4 1f 17 3e fe b8 1e 3e 3a f0 20 3e
       0.070003435 0.14758235 0.15500256 0.15716639
000130 af 32 11 3d c9 9b 1e be 8a 3b 86 3c 4f 37 e4 bd
       0.035448726 -0.15489115 0.016385812 -0.11143362
000140 22 fc 29 be c3 0e 22 3e d2 af 0a 3e fe f1 35 be
       -0.16600087 0.15825944 0.13543633 -0.17768094
000150 e1 8e 08 3d c4 cf f5 bc 6d 1f f0 bc 78 fc a6 bd
       0.033339385 -0.030006297 -0.02931186 -0.08153623
000160 80 48 8c 3d 56 11 d8 bd d3 ba 85 3d 80 7a b8 3d
       0.06849766 -0.105501816 0.065297745 0.0900774
000170 7e 92 02 3e 68 66 88 3d 1e 86 34 be c0 a3 ec bd
       0.12751195 0.066601574 -0.17629287 -0.1155467
000180 7c 25 b6 3d 04 b4 18 3d c9 48 0e be f2 0d d2 bd
       0.08893868 0.03728105 -0.13894953 -0.10256566
000190 d2 96 2b 3e b6 cd f5 3d 07 0f 9f bd 18 a0 37 bd
       0.16756752 0.12002127 -0.07766538 -0.04483041
0001a0 13 c0 2d be 55 d1 51 bb df 5a 09 be 47 b1 0c be
       -0.16967802 -0.003201564 -0.13413571 -0.13739501
0001b0 af cc 20 bc 44 16 db 3c c0 64 95 bd a8 75 d8 3d
       -0.009814425 0.026744016 -0.07294607 0.10569316
0001c0 89 fd dd bd 39 80 25 3e 09 fe f9 3d c4 cf 19 be
       -0.108393736 0.16162194 0.122066565 -0.15020663
0001d0 18 95 35 bd d3 ae 03 3c f0 e4 d4 3c e4 09 2d 3d
       -0.04433164 0.008037287 0.025988072 0.04224576
0001e0 a0 27 8f 3d 0b cf 2e 3c 24 fe b1 bd a1 9d ac 3d
       0.0698998 0.01066948 -0.086910516 0.08428503
0001f0 9a f6 2e be 04 37 d8 bd 0f a3 36 bd fa b1 b1 bd
       -0.17086259 -0.105573684 -0.0445891 -0.086765245
000200 b1 3b 7f bd f5 7e 15 be 9b 31 1b bd 0d f4 1b 3d
       -0.062312786 -0.14599212 -0.037889104 0.03807454
000210 54 a6 ed bd 8a c4 15 bc 8b 91 02 3e ba 00 96 bc
       -0.1160399 -0.009141097 0.12750833 -0.018310893
000220 0c 37 a2 3b fb c2 7b bc 88 a7 13 3d 0e f3 e7 3d
       0.0049504098 -0.015366311 0.036048442 0.11325656
000230 33 c6 2c 3e db a9 e7 3d 61 2b 2d 3e 0f 0f 53 bc
       0.16872482 0.11311694 0.16911079 -0.012882008
000240 ae d9 23 be 94 f0 ac bd a2 63 f8 3d a2 57 97 ba
       -0.16001007 -0.08444324 0.121283785 -0.0011546502
000250 95 51 b5 bd b3 c5 0b be 1e b2 2a be 9e f1 19 be
       -0.08853451 -0.13649635 -0.16669509 -0.15033576
000260 89 fc 13 bd e5 0d c8 3d c7 38 c5 3d a1 e8 2f be
       -0.03612951 0.09768275 0.0962997 -0.17178585
000270 07 8d e3 3d 0a ba 0e be d9 3d 1a bd ce e9 93 bd
       0.11110883 -0.13938156 -0.03765664 -0.07222329
000280 76 87 0c bd 9c 3f 0f bd
       -0.034308873 -0.034972772

conv1.bias f4 [6]
000000 5d ac 23 be e1 7c 1d be 7a 54 e4 bc 2f f6 16 3b
       -0.1598372 -0.15379669 -0.027872313 0.002303492
000010 4a b7 a5 bd bf 6a 89 3d
       -0.080916 0.06709813

conv3.weight f4 [6, 6, 3, 3]
000000 e0 2a e8 bd d9 43 0b bc 01 d8 e2 3d d8 6d 52 bd
       -0.11336303 -0.008500063 0.11076356 -0.051374286
000010 57 ed e8 3d 4d d5 3a 3d 88 c9 e8 bd d9 33 a3 3d
       0.11373394 0.045613576 -0.11366564 0.079688735
000020 1c 20 6e bc 71 4c 66 bd b9 44 ce 3d 1f 72 d0 bd
       -0.014534023 -0.056225244 0.100717016 -0.10178017
000030 ec 6e 5d 3c 0b 06 d8 bc 1c 34 b8 3d 64 02 10 3d
       0.013515215 -0.026370069 0.08994314 0.03515853
000040 e6 e3 77 3d 69 31 36 3d 85 1e f8 bc 99 fd d8 bc
       0.060520075 0.044480715 -0.03028799 -0.026488112
000050 c4 91 d4 bd 6a c4 8b 3d ed cd cc 3d 6e 7e b0 3d
       -0.10379365 0.068245724 0.10000215 0.086178645
000060 41 f3 b5 bd 38 12 b8 3b f5 d5 b5 bd e4 fe 8d bd
       -0.088842876 0.005617406 -0.088787 -0.06933382
000070 a9 4e 96 bd ea 4d 30 3d d0 b6 99 bd a1 15 34 bb
       -0.07339222 0.043043055 -0.07505572 -0.0027478712
000080 5a 9f ad 3b 55 47 a6 3d c5 fc c2 bd 74 15 b1 bd
       0.005298537 0.08119074 -0.09520868 -0.0864667
000090 ad c7 95 bd be 8b b4 3d 1e 72 39 bd 56 93 d9 3d
       -0.07313476 0.08815716 -0.045274846 0.10623805
0000a0 2a 8d 3a 3d bf a6 82 3c a3 c7 75 ba 21 f7 cb bc
       0.04554478 0.015948651 -0.00093757565 -0.024898114
0000b0 7c 74 81 3c 76 9a eb bc c6 fd 67 ba 2b a6 83 3c
       0.015802614 -0.028760176 -0.0008849766 0.016070446
0000c0 80 c4 c9 bd bb 32 87 bd 5b 4a d0 3d 06 56 d1 bd
       -0.098519325 -0.06601473 0.10170432 -0.10221486
0000d0 66 2d 14 bc e9 2b ff 3d 32 5c 3a 3d 5d b4 69 3b
       -0.009044027 0.12459547 0.04549808 0.0035660483
0000e0 24 8a df bd 04 90 7f 3d 0e bb b7 bd a7 71 12 bd
       -0.1091502 0.062393203 -0.08971225 -0.03575292
0000f0 4a 17 2d bd 7b cb 98 bc 7d 93 b4 3a ad c1 d4 3d
       -0.04225854 -0.018651715 0.0013776865 0.10388503
000100 a7 ce 80 3c 9b 0a e7 3d 1d ca 9d 3d eb 13 a3 bd
       0.01572354 0.1128132 0.07704566 -0.079627834
000110 77 61 67 3d 81 57 b6 bd 22 a6 5a bd 79 bc 17 3d
       0.056489434 -0.08903409 -0.053381093 0.037044976
000120 1f 58 2a 3d ed 84 c1 3d 10 13 26 bd e8 6c 53 39
       0.041587945 0.09449182 -0.040545523 0.00020163099
000130 18 cc 84 3d 6b 75 f9 bd a4 7d ba 3d 65 4d d5 bd
       0.0648424 -0.12180599 0.09105995 -0.104151525
000140 92 87 e3 3a dc 6b af bc 93 da 87 bd 60 5f 88 3c
       0.0017359129 -0.021413736 -0.066334866 0.01664704
000150 25 4d d5 3d 57 ce 16 bd 48 24 99 bd 3c cc 3e bd
       0.10415105 -0.036817875 -0.07477623 -0.04658149
000160 f6 a9 ff bd 1d df 68 3d ed c3 77 bd 73 23 ac bd
       -0.12483589 0.056853402 -0.060489584 -0.08405199
000170 92 9a 94 bd ed 4e 94 3d 13 9a 88 3d e2 fa c5 3d
       -0.072560444 0.072416164 0.06670012 0.09666993
000180 74 20 3b 3d b1 49 2c bd 71 2a 10 bd 21 69 18 3d
       0.045685247 -0.042062465 -0.035196725 0.037209634
000190 a2 0a d4 3d 80 44 0c 3d d2 17 74 bd 98 82 72 bd
       0.103535905 0.034245014 -0.05959303 -0.059206575
0001a0 96 e1 f3 bd 79 ea de 3c 69 c1 90 bd c4 fa e5 bd
       -0.119082615 0.027211415 -0.0706814 -0.1122947
0001b0 11 30 e2 3d 87 83 a7 bd 67 c1 6a bc e3 cc 13 3d
       0.11044324 -0.08179384 -0.014328337 0.036084067
0001c0 e7 7b 83 3b 60 91 ad bd 1b 81 d0 bd e8 9a cd 3d
       0.004012573 -0.08474994 -0.10180875 0.10039312
0001d0 d3 03 a8 3c cc ff d5 3d e1 f2 2c bd a0 f5 17 3d
       0.020509636 0.1044918 -0.042223815 0.03709948
0001e0 21 f2 eb bc 66 8a b7 bb e7 19 9d bd d2 79 2e 3d
       -0.02880198 -0.005601215 -0.07670956 0.042596646
0001f0 ad 1b 23 3d 5b 46 2a bb 31 0d e8 bc a5 01 9f bd
       0.039821316 -0.0025981877 -0.028326603 -0.077639855
000200 c7 61 b2 3d a9 05 c0 bd 11 58 53 3d ac 78 2d bd
       0.08710056 -0.093760796 0.05159766 -0.04235141
000210 07 e7 78 bd 06 5b b9 3c 18 fe 85 bd a0 ba ed 3c
       -0.0607672 0.022626411 -0.06542605 0.029019654
000220 9a 9f ca 3c ec 85 bf bd 92 ca ab 3c fc bb 5b 3d
       0.024734307 -0.093517154 0.020970616 0.053646073
000230 fa 34 4c 3d 5d e1 81 bc 3d 76 d3 bd dc 0d 9f bc
       0.04985521 -0.015854532 -0.103252865 -0.019415788
000240 93 2c 33 3d f5 3c 3c bd db d2 43 3d 81 c8 ab 3d
       0.04374368 -0.04595657 0.04780851 0.083878525
000250 01 b0 86 bd a9 ce a2 3a 62 52 55 3d 0d bd 21 3c
       -0.06576539 0.0012421209 0.05208052 0.009871733
000260 c5 5f 2c 3c ad d5 80 3c d4 c8 ca bd 60 2c 22 3c
       0.01052088 0.015726889 -0.09901586 0.009898275
000270 e2 9e b2 3d 94 70 e8 3d db 9b 97 3d 4e 43 8a 3c
       0.08721711 0.113495976 0.07402774 0.016877797
000280 13 ee 70 3d d8 f8 7a bd f9 c1 d5 bd 6c d0 dd bd
       0.058820795 -0.061272472 -0.10437388 -0.10830769
000290 50 aa 00 3e 00 be a3 3d 43 4d b2 bd 03 d7 49 3d
       0.12564969 0.07995224 -0.08706143 0.049277317
0002a0 20 cb c2 3d 87 ec 00 3e 37 8c e1 3d 78 d8 c7 3d
       0.09511399 0.12590228 0.11013072 0.09758085
0002b0 0d 8c ec bc 79 0c 35 bd 8f c9 d3 3d 60 8c 90 3d
       -0.028875375 -0.044201348 0.103411786 0.070580244
0002c0 1f 3a 9b bd 24 e6 e7 3d 51 42 79 3d c2 9d 8c 3d
       -0.07579445 0.11323193 0.06085426 0.068660274
0002d0 de ac a1 bd 8e 02 14 3d 6c da 34 bd 77 8c c9 3d
       -0.078943 0.03613525 -0.044153616 0.09841245
0002e0 26 a9 b9 bc 1d d8 48 3d a3 44 b7 3c 23 7f 5b 3d
       -0.022663664 0.049034227 0.022371596 0.053588044
0002f0 ac 50 2f bd 09 89 7b 3d 2e 2b b4 bd db 08 e9 3c
       -0.042801544 0.061409984 -0.08797298 0.028446605
000300 5e 86 ae bd 78 79 fe bd 5c 25 cf bd 3c a4 cb 3d
       -0.08521722 -0.12425512 -0.101145476 0.099434346
000310 fd 8e 8b 3d 90 02 f2 3d 9b a5 ce 3d c8 5b e6 bd
       0.06814382 0.11816895 0.100901805 -0.11247975
000320 ff 07 b0 bd 20 b8 a6 bc f7 84 a7 bd 17 1e b3 3d
       -0.08595275 -0.02035147 -0.08179658 0.087459736
000330 9b 02 c3 bd a2 b4 7b bd 57 33 f9 bd cb 72 92 bd
       -0.09521981 -0.06145156 -0.121679954 -0.07150801
000340 e0 27 d4 3d 66 32 d3 3d f3 a5 b8 3d 01 2b c7 3d
       0.10359168 0.10312347 0.09016027 0.09724999
000350 f3 5c e5 3d fd 19 04 bd 97 fe 62 3d 21 d0 e5 3d
       0.11199369 -0.032251347 0.055418577 0.11221338
000360 e5 aa 2a 3d 8e ee 00 3e 9c c9 85 3d 3d 5a a0 3d
       0.041666884 0.12591001 0.065325946 0.078297116
000370 10 8f 34 bd 55 8a 77 3d 69 1e 6d 3c bb 68 f6 bc
       -0.044081748 0.060434658 0.014472582 -0.030079236
000380 43 68 91 bd 03 bd 90 bd 48 7c c6 bd f9 2a ad 3d
       -0.070999645 -0.07067301 -0.096916735 0.08455462
000390 fc 61 b7 3d 59 dc 6a bc 38 45 95 bd 6b 5e c7 3d
       0.08954236 -0.014334762 -0.07288593 0.09734806
0003a0 59 f4 a4 3d ee 64 19 3c 71 92 73 bd d8 10 ed 3d
       0.08054418 0.009362442 -0.05946583 0.11575478
0003b0 6a f8 52 3d bf d1 c3 bd 77 e0 f6 3d de e0 c3 3d
       0.051506437 -0.0956149 0.12054532 0.095643744
0003c0 ef 09 3c bd 98 01 91 3d 0f 90 92 bd 25 b2 a1 bc
       -0.04590791 0.07080382 -0.07156383 -0.019738266
0003d0 f7 05 db 3d f6 87 aa 3b c8 6c b6 bd c9 6d 2c bd
       0.10694497 0.005204196 -0.08907467 -0.042096887
0003e0 76 09 0c bd ce 0f c7 bc 67 7c 45 3c 99 8e ee 3d
       -0.03418871 -0.024299528 0.012053586 0.11648292
0003f0 2e f8 dc 3b 56 44 9f bd e3 88 d3 3b 5f 5d 77 3d
       0.0067434525 -0.07776706 0.006455527 0.06039178

conv3.bias f4 [6]
000000 e1 bb 7f 3d 1a b7 b4 bd 49 7d d8 3d 86 5f 60 bc
       0.062435035 -0.08823986 0.10570771 -0.01369465
000010 48 25 d8 bd 79 90 8b bd
       -0.10553986 -0.06814665

conv4.weight f4 [6, 6, 3, 3]
000000 78 3c e4 3d 4f e6 eb 3d 65 ee ee bd fe ed b5 3d
       0.11144346 0.11518537 -0.11666564 0.08883284
000010 c6 45 81 3d 04 af 98 3d 20 5c da 3d 4f 05 8b bd
       0.06312136 0.074552566 0.10662103 -0.06788122
000020 29 e8 22 3d 00 1f 53 3d 87 71 18 bd 4d a5 2c 3d
       0.039772186 0.051543236 -0.037217643 0.04214983
000030 01 6e 14 bd 88 7a 9f 3d 1e 23 0f bd ba 52 40 bd
       -0.03623772 0.07787043 -0.0349456 -0.046953894
000040 3e e0 01 3d 05 fc 36 3d 30 0d 7c bd e5 6a 36 3c
       0.031707995 0.04467394 -0.061536014 0.011133884
000050 56 7d 95 3d a9 51 4d bc 20 01 1d 3d 97 da f8 bc
       0.072992966 -0.012531676 0.03833115 -0.03037767
000060 27 d2 34 3d f8 da ba bd 2b ae 97 bd 79 ee 82 bd
       0.04414573 -0.09123796 -0.07406267 -0.06393141
000070 68 0e ed 3d ad d1 0a bd b2 47 b4 b9 c0 f2 79 bd
       0.115750134 -0.03389137 -0.00034385693 -0.06102252
000080 c9 c0 00 3e e7 ed fb 3d 4f 8a c2 bd 27 1c d1 bd
       0.12573542 0.12301236 -0.094990365 -0.10210448
000090 a7 85 c3 bd 00 3c 1f ba e0 80 03 bd 96 d6 a8 bd
       -0.095469765 -0.00060743093 -0.032105327 -0.08244054
0000a0 73 09 39 bd cd ef c2 3c 6b c6 86 bd 4f a0 e4 3c
       -0.045175027 0.023795987 -0.06580814 0.027908472
0000b0 00 9b ec bc c5 fb 79 bd b8 c0 8d 3c 65 19 d4 3d
       -0.028882504 -0.06103112 0.01730381 0.10356406
0000c0 84 64 ae bd 61 a4 bf 3b cb 3e 3e bd 0b 20 fd 3d
       -0.085152656 0.005848453 -0.046446603 0.12359627
0000d0 15 bb f4 bd ab 48 f7 bd 5e 2d fe 3d 59 33 a3 bd
       -0.119497456 -0.12074407 0.12410997 -0.07968778
0000e0 63 d1 c5 3c 6a 19 32 bc 86 5a d9 bc a3 72 e6 bc
       0.024147695 -0.010870317 -0.026532423 -0.028130835
0000f0 fc e8 a3 3d f6 43 c5 3b 29 24 fb bd 22 48 98 bd
       0.080034226 0.0060200645 -0.122627564 -0.07435633
000100 59 de 2f bd 9a cd 81 3d 21 ed a6 bd 34 39 f3 3d
       -0.042936657 0.063380435 -0.081506975 0.11876145
000110 41 cf e5 bc 2c 45 b9 bc d1 1d ca 3d 68 a5 81 3d
       -0.028052928 -0.022615992 0.09868968 0.06330377
000120 31 c5 da 3d 46 35 95 3d 9c 7f 1c bd 0d 24 ab bd
       0.106821425 0.07285552 -0.038207635 -0.083564855
000130 3c 89 19 bc 9b 7c d5 3d f5 24 2d bd 5d 36 ef bd
       -0.009371098 0.10424157 -0.042271573 -0.11680291
000140 d7 7a 53 3d a7 1a fb 3d ce dd 12 bd 19 96 d5 bd
       0.05163082 0.12260943 -0.03585606 -0.104290195
000150 3b f9 e9 bd 6e 48 01 3d ec 40 1c bc 8c 42 82 bd
       -0.1142449 0.031563215 -0.009536963 -0.06360349
000160 bf 8e d0 3c 63 ea 43 3d 78 26 cd 3d fd 43 c8 3d
       0.025458692 0.04783095 0.10017103 0.09778593
000170 2c 71 9a bc 0e 73 e3 bd 49 16 e9 bd b3 d7 f0 3d
       -0.018852793 -0.11105929 -0.11381204 0.11759891
000180 c2 0d 64 3d d0 e1 60 3d 72 2e df bd f9 dc ee 3d
       0.055677183 0.05490285 -0.108975306 0.11663241
000190 4e 5d f4 3d e5 e3 e8 3d ac 99 d9 bd b2 a8 42 bd
       0.11931859 0.113715924 -0.10625014 -0.04752416
0001a0 1d 68 b1 bd 5d 44 f4 3d 62 ab 5d bd ae 88 6b bd
       -0.08662436 0.11927102 -0.05411852 -0.057503395
0001b0 57 24 87 3d 15 a6 6e bd ed 16 7e bd 08 81 34 bc
       0.06598728 -0.058263857 -0.062033582 -0.011017092
0001c0 a0 59 46 bc 6d ef c8 bd d8 0a d7 3d 7a 92 63 bd
       -0.012106329 -0.09811292 0.10500115 -0.055559613
0001d0 d1 fe 36 3d b4 5b e0 3d 44 16 82 3d a0 14 92 3c
       0.044676606 0.10954991 0.06351903 0.0178321
0001e0 e5 79 db 3d 0f b3 8a 3c 8d ae 6e bd 90 04 f4 3d
       0.10716609 0.016931085 -0.058271933 0.11914933
0001f0 51 34 f4 3c 9f ac fb bd ed de 12 bd 84 b4 af bd
       0.029810103 -0.12288784 -0.03585713 -0.085793525
000200 ec 27 e2 3d 46 65 aa bc 17 20 eb bd 38 b9 01 bc
       0.11042771 -0.020800244 -0.1148073 -0.007917695
000210 7f fe a1 3d 8f 07 06 3d cc 20 23 3d c4 a6 3f 3c
       0.079098694 0.032722052 0.0398262 0.011697475
000220 c7 55 40 3d c3 65 fb bc 07 39 4d bd f4 1a f1 bd
       0.046956804 -0.030688172 -0.050103214 -0.11772719
000230 33 52 c2 bd 0a 97 5f 3d e8 bb 98 bd f9 06 94 3c
       -0.094883345 0.0545874 -0.07457715 0.018069731
000240 4c ab 24 3d fb 1b 12 3c 75 3d a7 bd ad ae f6 3d
       0.040202424 0.008917804 -0.08166019 0.120450355
000250 02 ff 95 bd 60 29 d4 3d fc 32 cd bd fd 31 f8 bc
       -0.073240295 0.10359454 -0.1001949 -0.030297274
000260 b3 50 8c 3d c9 c8 52 bd ce af d8 3d 0a 82 b1 bd
       0.0685133 -0.051461015 0.10580407 -0.08667381
000270 df 9d d8 bd 66 a0 68 bd 04 ca a6 3c a3 81 ed 3d
       -0.105769865 -0.056793593 0.02036 0.11596992
000280 db 49 76 bd 94 7f 38 3d 98 56 01 bd 90 c1 df bc
       -0.060129028 0.045043543 -0.031576723 -0.027313977
000290 5d ab bd 3d cd e7 c7 bd fe 2d 5b 3c 74 93 f2 3d
       0.092612006 -0.09761009 0.013377665 0.11844531
0002a0 c4 c7 8d bc b1 47 c8 3d 7d df 1e bd 45 a3 cf 3d
       -0.01730717 0.09779299 -0.038787354 0.10138563
0002b0 2f 85 f9 bd 84 b4 94 bc da 3a b5 bc 91 31 27 3d
       -0.12183606 -0.018152483 -0.02212279 0.040818755
0002c0 42 66 4a 3d 6d 0e c6 3d d9 b8 99 bc a2 a9 a3 bb
       0.049413927 0.0967072 -0.0187649 -0.004994587
0002d0 25 a5 b0 3d 56 96 0b bd 06 20 e2 3d 94 be ab bd
       0.08625249 -0.03407892 0.11041264 -0.08385959
0002e0 c6 4c 5f bc 96 ac dd bb 73 32 66 3d 31 5a b0 3d
       -0.013629144 -0.0067649586 0.056200456 0.08610953
0002f0 ed 8a a3 bc 4c b4 d5 bd 25 9f 7f 3d 0b 52 1a 3d
       -0.019963706 -0.104347795 0.06240763 0.0376759
000300 fa 3b 4f 3d 8b 1e 9f bd 81 03 a6 3d de 50 f4 3d
       0.050594307 -0.077694975 0.08106137 0.11929487
000310 31 0f 33 3c 58 ef f0 bd 8b 13 b5 3d 58 41 bf bd
       0.010928915 -0.11764401 0.08841618 -0.09338635
000320 ee 2d ed 3c f8 ef 95 3c 19 75 71 bd d9 a1 33 3d
       0.028952565 0.018302903 -0.058949564 0.04385552
000330 64 b7 e6 bd ee ff ea 3c a5 86 a3 bd 70 24 5f bc
       -0.11265448 0.02868649 -0.07984666 -0.013619527
000340 c4 b7 84 3c b3 c1 db 3d cf 24 76 bd 17 40 a5 3d
       0.016200908 0.107303046 -0.060093697 0.08068865
000350 69 12 83 bc 45 03 75 bd cb 9e e0 bd d8 ab ec bd
       -0.01599999 -0.05981757 -0.10967787 -0.11556214
000360 f3 e9 fb 3d e3 a9 00 bd ba 25 ce 3b 8b dd 0b 3d
       0.12300482 -0.031412017 0.0062911185 0.034146827
000370 d0 55 af 3d bb 26 dc 3d 21 33 d1 3d d3 1b bf bd
       0.08561289 0.10749575 0.1021483 -0.09331479
000380 4d 4f a5 bc 10 a3 98 bd e8 60 93 bd 5e bf f4 3c
       -0.020179415 -0.07452977 -0.07196218 0.029876407
000390 29 1f f2 3d 7a a4 ce bd 5b 1c 9c 3d a7 bc 85 bd
       0.118223496 -0.10089965 0.07622596 -0.06530123
0003a0 32 f7 c8 bc 46 c0 cc 3d 29 5c e9 bc 90 e6 3b 3c
       -0.024531934 0.09997611 -0.028486328 0.011468545
0003b0 43 50 b4 bd 3c 93 db 3d 1a 61 85 bc 02 a9 bc bd
       -0.08804371 0.10721442 -0.016281653 -0.09211923
0003c0 1e 0f 17 3d ac 67 b7 bd db ae cc bd 17 6d fb 3b
       0.03687965 -0.08955321 -0.099942885 0.0076729166
0003d0 0c 83 cc 3d 59 fd 11 bd 8f d0 72 3d df a8 dd 3d
       0.09985933 -0.035642 0.05928093 0.10823225
0003e0 1f 16 ab 3d 11 4f 87 bd 48 35 62 bc 12 58 22 bd
       0.08353829 -0.066068776 -0.013806649 -0.03963477
0003f0 d3 6b cf bd 07 69 5a 38 ad 16 c2 3d 10 53 d9 3d
       -0.10127988 5.2073065e-05 0.09476981 0.10611546

conv4.bias f4 [6]
000000 b1 2b 8c 3d 8c 8f 13 bd 4e b7 96 bc ec db ae bc
       0.06844271 -0.03602557 -0.018397953 -0.021345101
000010 d2 1c 4d ba 6c e3 42 bd
       -0.0007824424 -0.047580168

conv5.weight f4 [6, 6, 3, 3]
000000 83 d6 f1 3c 44 83 9b 3b 99 82 a3 3d ef d6 d0 bc
       0.029521232 0.0047458727 0.07983894 -0.025493113
000010 94 ef 4e 3c 62 e8 3f bd cb 04 d8 bd f8 c3 50 3d
       0.012630362 -0.046852477 -0.10547789 0.05096814
000020 8f 06 84 3c 70 9b 4e bd 26 6d 2e bd d3 ea 06 3d
       0.016116409 -0.050441206 -0.04258456 0.03293879
000030 93 90 ba bc f1 8f a8 3d 5b c6 e9 3b 49 df 42 3d
       -0.022774016 0.0823058 0.0071342415 0.047576223
000040 f1 c5 60 3d 9f 2a fd bc 97 35 5f 3d 07 59 be 3d
       0.05487627 -0.030904112 0.054494467 0.09294324
000050 c5 ec bd 3b e8 e9 c9 3c 6b f6 95 3b 21 98 b2 3d
       0.0057960474 0.024647668 0.0045764945 0.087204225
000060 e6 ce 59 bd f5 1d 89 bd 82 cd 60 3d bb 7e e0 bd
       -0.05317583 -0.06695167 0.054883488 -0.10961672
000070 36 56 04 3b 54 41 6d bd f5 40 aa 3d b9 28 f0 bd
       0.0020192987 -0.05792363 0.08313171 -0.11726517
000080 d9 66 9c 3d b4 33 ff 3d ab c5 d0 3c 44 7d 09 bc
       0.07636804 0.124610335 0.02548488 -0.008391682
000090 f9 e8 fd 3d fe 77 5c bd 9b 5c 25 bc a7 e9 61 bd
       0.12397952 -0.05382537 -0.01009288 -0.05515447
0000a0 ea 6d 8e bc 75 3f e0 3c a2 ce 89 3c 0b e1 c2 bc
       -0.017386395 0.027374009 0.016822163 -0.02378895
0000b0 f8 f3 00 be c0 53 d3 3b 40 82 74 bb 0d 38 9b 3c
       -0.12593067 0.0064491928 -0.003730908 0.018947626
0000c0 ef a6 c5 3d 16 ba fa 3d 1e 09 99 bd 54 ac 00 bc
       0.09650981 0.12242524 -0.07472442 -0.007853586
0000d0 93 b4 4e bd 64 bc ed bd 98 b2 bb bd 67 19 f2 3d
       -0.050465178 -0.11608198 -0.091649234 0.11821251
0000e0 23 66 96 3d 7c 8e 8a 3d 37 5a 8f 3d 04 ef cc bd
       0.073437 0.06765458 0.06999629 -0.10006526
0000f0 25 b7 58 3c 47 13 f0 3d e4 f4 8f bd e3 77 e5 3d
       0.013227259 0.11722427 -0.07029131 0.11204507
000100 c7 98 07 3d 21 7a b5 3d b4 00 5d bd 25 d6 6d 3d
       0.033104684 0.08861185 -0.05395575 0.058065552
000110 c0 aa e4 bd 2c 07 03 bc c0 13 2c 3d bc b6 1a 3d
       -0.111653805 -0.007997315 0.042011023 0.037771925
000120 30 da d7 3d 41 79 fd 3d 55 ab ea 3d 0a 2f ad 3d
       0.10539663 0.12376643 0.1145846 0.084562376
000130 51 5a b5 3d a7 21 85 bc e5 2d c8 bd 98 83 3f bd
       0.08855117 -0.016251398 -0.09774379 -0.046756357
000140 9f aa 67 bc 23 64 8b bd ef da 83 3d d2 17 35 3d
       -0.0141398 -0.06806209 0.06438243 0.04421217
000150 35 7b a6 3c 6f 3d f9 3c 26 98 e2 3d ad e7 3b 3d
       0.020322422 0.030424802 0.11064176 0.04587524
000160 39 34 e2 bd 29 3d bb bd 51 61 63 3d 83 9c 8c 3c
       -0.11045117 -0.09142525 0.05551273 0.017164474
000170 f0 98 7b 3d f2 ce 00 be 33 0d ee bd 14 2e 9e 3d
       0.06142515 -0.12578943 -0.11623611 0.077236325
000180 a5 fe a4 3d 20 5e e9 bd 6b d3 43 3d a4 6a c9 bd
       0.08056382 -0.11394906 0.047809046 -0.09834793
000190 6b 58 c3 3d f8 e1 21 3d fb 0d ff 3d 83 55 fe bd
       0.09538349 0.03952214 0.124538384 -0.12418654
0001a0 d4 51 f8 bd 07 66 ae 3d ef 02 e5 3d fe 09 9e 3d
       -0.121249825 0.08515554 0.111822 0.077167496
0001b0 bd 7d ab 3d ee 42 d9 bd b1 b4 ba 3d 40 8a f3 bd
       0.08373592 -0.10608469 0.091164954 -0.118916035
0001c0 f1 80 e6 3c d9 f6 a8 bd 23 e9 4c bd af b2 b6 3c
       0.028137656 -0.082502075 -0.050027024 0.022302
0001d0 da d6 4a bd b0 40 a3 bc 15 7d f4 bd 19 36 f3 bd
       -0.049521305 -0.019928306 -0.1193792 -0.11875553
0001e0 a5 d6 47 3d eb 5d 5a bd ae ee 9c bd 13 90 4b bd
       0.048788685 -0.053312223 -0.07662712 -0.049697947
0001f0 af e3 d2 bd f9 33 ce bd 32 59 9a 3d 7d 19 83 3d
       -0.102973334 -0.10068507 0.07536544 0.06401346
000200 15 70 89 3c f8 e7 8c bd 7c a3 2b 3d e2 69 b9 3b
       0.016777078 -0.06880182 0.041903958 0.005658374
000210 0c 59 b8 bd cc 07 de 3c 4b df ea 3d ef b7 fd bd
       -0.09001359 0.027103327 0.11468371 -0.12388598
000220 12 40 00 be a2 32 84 3c 75 3d c2 3d 4c f5 9c bd
       -0.12524441 0.016137425 0.09484378 -0.07663974
000230 87 22 e3 3c 41 55 b5 3d 08 0f 1f 3d 40 4a df 3c
       0.027726425 0.088541515 0.038832694 0.027257085
000240 28 ae 00 3e b5 0b a8 3d 88 13 91 bd c2 5e 32 3c
       0.12566435 0.08205358 -0.070838034 0.01088685
000250 38 c7 83 3d 79 7c e3 3d ec 51 00 be 0e ae 8b 3d
       0.06434482 0.11107726 -0.1253125 0.06820308
000260 bd c7 15 bd 65 96 fc bd bf 07 e5 3c 14 6e 8c bd
       -0.03656744 -0.12333373 0.027957795 -0.06856933
000270 93 37 92 3c b1 78 a7 bd d8 1c c2 bd b5 18 2f bc
       0.017848765 -0.08177317 -0.09478158 -0.010687043
000280 5e 4d 2d bd 41 dd 96 3d f3 ea 31 3c ca 57 c9 3d
       -0.04231011 0.073664196 0.010859239 0.098311976
000290 3a 5c c1 3c 3f e4 25 bd 5c b7 ae 3d 55 87 e1 3b
       0.023603547 -0.040500876 0.08531067 0.006882588
0002a0 82 a8 c1 3c 60 ec 25 bd f8 fb ec 39 9d 62 c6 bc
       0.023639921 -0.040508628 0.0004520116 -0.024216944
0002b0 9d 70 2f bc ee 2a c9 bd 6a 0d 4b ba 8d 1b d6 bd
       -0.010708001 -0.09822641 -0.00077458343 -0.10454474
0002c0 30 f8 dd bc 06 7e 95 3d 16 5d b3 bd a8 de ad bd
       -0.027095884 0.07299428 -0.08757989 -0.08489734
0002d0 42 f0 fb bc 95 6c 0d bd 3a ab ae 3c 09 4b ab 3c
       -0.030754212 -0.03452738 0.021321882 0.020909803
0002e0 db cd 82 3d da b1 b1 bd 0e a1 11 bc 7f 44 90 3d
       0.0638692 -0.086765006 -0.008888496 0.070443146
0002f0 ef 1d df 3d 4b 87 16 bc dc 40 95 bd e0 4c 14 3d
       0.10894381 -0.00918753 -0.072877616 0.036206126
000300 20 e5 92 3d 07 27 a1 bd 5b af 95 bd 48 06 64 3d
       0.071726084 -0.07868772 -0.07308837 0.055670053
000310 2a 96 10 bc 75 a1 f3 bd 7d ba 94 bd 48 36 51 3d
       -0.008824864 -0.1189603 -0.07262132 0.051077157
000320 8f fa 2e bd e2 0a b2 3d db ea cb 3d 1e 18 96 3c
       -0.04271942 0.08693482 0.099569045 0.018322047
000330 42 2d 23 bc 49 c2 23 bd 6e b1 d0 bb 9f ce bb 3c
       -0.009959521 -0.039980207 -0.0063688075 0.022925673
000340 80 08 c5 bd c5 97 f6 bc 88 8f d6 bd f5 50 9e 3d
       -0.09620762 -0.030101666 -0.10476595 0.07730285
000350 29 45 a4 bd 61 a5 eb 3d d8 fc 04 bd 88 c5 93 bd
       -0.08021004 0.11506153 -0.032467693 -0.072154105
000360 f7 dc 77 3d 76 d1 99 3c f7 9d b2 3d cd 5e 57 3d
       0.060513463 0.018776637 0.08721536 0.052580643
000370 9e 7d f8 bd 2e 26 a3 3d c5 4c c2 bc a7 02 64 bd
       -0.121333346 0.079662666 -0.023718247 -0.055666592
000380 79 cf a3 3d f9 20 bc 3d bf b7 e2 bd 74 98 3a bc
       0.07998557 0.091859765 -0.11070203 -0.011388887
000390 f5 d3 d3 3d 8d cc 47 3d 09 50 d9 3d d9 cb 30 bd
       0.10343162 0.04877906 0.106109686 -0.043163154
0003a0 65 4b 8e bd ae cf dd 3d 5f 09 57 3d f1 9f f7 3d
       -0.06947974 0.108306274 0.05249917 0.12091053
0003b0 c2 7c 57 bd 91 9e a5 bd c5 e0 71 bc be e0 f2 bd
       -0.052609213 -0.08086885 -0.014763062 -0.118592724
0003c0 bb 37 4a 3d 40 42 be 3d 17 b0 f7 3c 36 e5 4b bc
       0.049369555 0.0928998 0.030235333 -0.012444785
0003d0 a9 c8 7f 3d 71 bb a3 bd c4 55 fc 3d 78 3e 00 be
       0.062447224 -0.07994736 0.12321046 -0.1252383
0003e0 6e 19 f7 bd 3f d0 f3 bc e2 b3 d2 3d 10 9e 4e 3c
       -0.12065397 -0.029762385 0.10288216 0.012610927
0003f0 99 20 46 3d b3 13 bd bd b1 23 3c 3d 0c 97 66 bc
       0.04837093 -0.09232273 0.045932475 -0.014074098

conv5.bias f4 [6]
000000 61 d2 d8 bd 0c 56 f3 3a 9e 42 cb 3d a6 e7 dc bd
       -0.105870016 0.0018565073 0.099248156 -0.10786371
000010 69 1e 66 bd e5 8c e2 3d
       -0.056181345 0.1106203

conv6.weight f4 [6, 6, 3, 3]
000000 3f 07 ad bc 23 ba 55 3d 10 25 f8 bd 2f 3d 22 bd
       -0.02112162 0.052179467 -0.12116444 -0.03960913
000010 70 fe 82 bd 1c 77 d9 3d e3 1d 56 3d c1 37 bc bd
       -0.06396186 0.106184214 0.052274596 -0.09190322
000020 30 5a a6 3c ae bd bd ba 2b f7 53 bd bc 4e 93 bd
       0.020306677 -0.0014476085 -0.05174939 -0.07192752
000030 96 31 2b bd 20 52 cb 3d f7 e8 b8 bd 33 bf b7 bd
       -0.041795336 0.099277735 -0.090288095 -0.08972015
000040 cc 29 1f bd 3a 98 0f 3b bc 6e 0c 3d 2d b2 77 3b
       -0.03885822 0.0021910802 0.034285292 0.003779541
000050 c2 60 f8 bc 01 68 9c bd f6 22 b9 bc cc ac 4f bd
       -0.030319575 -0.07637025 -0.022599678 -0.0507019
000060 2c 67 d0 3d 95 16 fb bd b1 88 a4 bd fe dc d1 bd
       0.101759285 -0.122601666 -0.08033884 -0.10247229
000070 fd 90 bc bc ee 02 c9 3d cd 19 e2 3d ac 8e e0 bd
       -0.023018355 0.09815012 0.11040077 -0.109647125
000080 0d d1 b2 bb fd 67 97 3d a5 67 63 3d 1e 49 d3 3d
       -0.0054570497 0.07392881 0.055518765 0.1031668
000090 b7 f5 64 bb 19 50 ad bd d8 a3 aa 3d 5e e8 30 bd
       -0.0034936497 -0.08462543 0.08332032 -0.043190353
0000a0 bf 8f 85 3d 31 45 fe bc bd 4d 5b 3d 27 01 e8 3d
       0.06521558 -0.031038852 0.053540934 0.11328345
0000b0 8a da ef 3d ac bf ea bd 84 a0 aa bd 23 4e 55 bd
       0.11711605 -0.1146234 -0.08331397 -0.05207647
0000c0 44 7e a4 bd 15 80 f7 3d b7 40 36 bc 54 1b ab bd
       -0.08031896 0.120849766 -0.011123828 -0.08354822
0000d0 4d 91 65 bd 17 7b 8e bd c0 7a 52 3d a7 fe e0 bd
       -0.056046773 -0.06957071 0.051386595 -0.10986071
0000e0 c0 82 f0 bd 33 46 fe bd d6 1a 5e 3d 14 16 7f 3d
       -0.117436886 -0.12415733 0.05422481 0.062276915
0000f0 a0 34 a0 bd 85 dc ff 3c 9f 69 be 3d 97 eb 95 3c
       -0.078225374 0.031233082 0.092974894 0.018300815
000100 bb 4e da bc 44 76 18 3c c8 45 5d bc 54 e0 81 3d
       -0.02664887 0.0093055405 -0.013505407 0.06341615
000110 28 26 af bd 40 ce 82 3d 95 62 91 3d a3 48 9c bd
       -0.085521996 0.06386995 0.07098881 -0.07631042
000120 5e a1 d2 3d 07 5a fd 3d 61 61 4b bd cd 7f 10 bd
       0.102846846 0.12370687 -0.049653415 -0.03527813
000130 a6 8c 80 3d bf 14 ca bd be 03 4c 3d a5 b8 f0 3c
       0.062768266 -0.09867238 0.049808256 0.02938492
000140 7a 97 a2 3d fd 0d e0 bd 6b 4c d6 bd 09 b4 67 3d
       0.07939048 -0.10940168 -0.10463794 0.05656818
000150 ac d4 39 3d a7 16 f0 bd c4 d8 8f bd 1b 04 ec bd
       0.045368835 -0.117230706 -0.07023767 -0.115242206
000160 94 cc b8 bd 73 c5 68 bd 0d 76 d5 3d e5 60 cd bc
       -0.09023395 -0.056828927 0.10422907 -0.025070617
000170 f9 26 94 3d b7 f7 f4 3d 17 1c 6b 3d bb ea e6 bd
       0.07233996 0.1196131 0.057399835 -0.1127524
000180 04 ce 81 3d b0 c7 44 3d 09 ed c7 3d a5 72 fe bd
       0.063381225 0.048042 0.09762008 -0.124242105
000190 3f a4 9e 3d f3 23 d3 3d 2c fc ef bd 8e e7 57 3c
       0.07746171 0.10309591 -0.1171802 0.0131777655
0001a0 d7 33 dc 3d 6e 9b bb bd 5d 46 29 3d 4a f6 63 3d
       0.10752075 -0.09160505 0.04132687 0.0556548
0001b0 f7 35 07 3d 3c 3c 00 3e b4 33 d3 3d 95 4e dd 3d
       0.03301045 0.12522978 0.10312596 0.10806004
0001c0 f4 9b 80 bc ef 57 d8 3d 5b 62 f0 bd 21 32 8b bd
       -0.015699364 0.10563647 -0.1173751 -0.06796671
0001d0 1c ae dc bc ea 3f 19 bd bd 43 ee 3d 55 54 73 3d
       -0.02693849 -0.03741447 0.11634014 0.059406597
0001e0 e7 11 a6 3d 4e 75 af 3d 01 b0 c0 bd 56 01 6f bc
       0.08108883 0.08567296 -0.0940857 -0.014587721
0001f0 ba aa 96 3c 21 2e 06 3d 27 a5 84 3d fa 46 4d bd
       0.018391956 0.032758836 0.06476813 -0.050116517
000200 37 8f 1b bd e0 d5 d7 3d 13 75 0a bd 3e 2e b3 bd
       -0.037978377 0.1053884 -0.033803057 -0.08749054
000210 18 e6 ae 3d aa ab ae 3d 59 c4 21 bd 79 46 ce bc
       0.08539981 0.08528836 -0.039493892 -0.025180088
000220 86 55 be bd fd 68 d7 bd 78 00 42 3d d9 62 5c bd
       -0.09293656 -0.10518072 0.04736373 -0.053805206
000230 b4 59 cd 3d af 8a ce bd 79 9e 8e bc a5 39 32 3b
       0.10026875 -0.100850455 -0.01740955 0.0027195003
000240 43 92 84 3d b8 c3 d0 3d d2 ae ae 3d 36 18 63 3d
       0.0647321 0.101935804 0.08529438 0.05544301
000250 d1 ca 6c bd 5d 36 b8 bd 46 c3 e6 bd e6 b9 cc 3b
       -0.05781061 -0.08994744 -0.11267714 0.0062477468
000260 81 2d fa 3d cb fa c3 bc 62 be ad bb cc 72 bb bd
       0.122157104 -0.023923298 -0.0053022364 -0.09152755
000270 94 62 1e 3d d1 88 a3 3d 64 50 fe bd 40 a0 b5 bd
       0.03866823 0.0798508 -0.12417677 -0.08868456
000280 54 10 bf 3d b9 4a f4 3c ec a7 00 bc d6 70 b8 3c
       0.09329286 0.029820787 -0.007852536 0.022514742
000290 0e e0 9c bc cd 4b b4 bd 98 08 f1 bd 6a a7 a9 3d
       -0.019149806 -0.0880352 -0.11769217 0.08283885
0002a0 54 6f 75 bc b1 98 3f bd fd 28 05 bd b0 b0 8c bd
       -0.014980156 -0.046776477 -0.032509793 -0.06869638
0002b0 98 cc 18 bd ed 6c dd bd 7d 08 c1 3d 69 a9 52 3d
       -0.03730449 -0.108117916 0.09425447 0.051431093
0002c0 94 16 82 bd cd 14 30 bd 24 73 67 3d cc 09 3f bd
       -0.06351963 -0.042988587 0.05650629 -0.046640202
0002d0 06 0a 08 3d 4c 0c 0e 3d 2d 60 a2 bd c2 3b 01 3d
       0.033212684 0.034679696 -0.079285 0.03155113
0002e0 69 86 fc 3b 8a 49 e1 3d e8 a8 3a bd 82 9e 04 bd
       0.0077064526 0.110003546 -0.045571238 -0.032377727
0002f0 70 3f de 3d e5 a3 d2 bd 19 17 15 3c 5d 88 f8 3d
       0.108519435 -0.10285167 0.009099745 0.12135384
000300 7b 4f 67 bd 0b 4a f7 3d 0e e3 e4 3d 7d fa ef 3d
       -0.056472283 0.120746695 0.1117612 0.11717699
000310 bd e9 44 bc fb 58 e9 3d fe c8 60 bd e1 97 30 bd
       -0.012018618 0.11393925 -0.05487918 -0.043113593
000320 c6 20 43 3d 71 f6 d9 3c 36 33 8e 3d da 21 f5 3d
       0.047638677 0.02660677 0.069433615 0.11969347
000330 d9 78 a1 bd 43 e6 88 3d 9f 99 2c 3d ba 15 88 3d
       -0.07884378 0.06684544 0.042138692 0.06644769
000340 91 9f 74 3d fa fa 40 bd ba de cb bd 12 75 ce 3d
       0.059722487 -0.04711435 -0.09954591 0.10080923
000350 34 17 93 bd ab e9 a4 3d 3e bb f5 bd 6d 80 b2 bc
       -0.0718216 0.08052381 -0.11998604 -0.021789754
000360 1d f9 ae 3a 15 86 b2 3c 9e cd 26 3c c2 8f 22 3d
       0.0013349388 0.02179245 0.010180859 0.03968788
000370 a5 c4 65 bc 78 b0 fc 3c ad 42 ff 3d c0 e7 a6 bd
       -0.0140239345 0.030845866 0.12463889 -0.081496716
000380 4f 54 e1 bb c8 ed 44 bd 9b 54 e2 3d 26 d0 dc 3d
       -0.0068765054 -0.04807833 0.110512935 0.10781889
000390 95 16 61 bb 6b d3 32 bd 79 60 9f bd 4e 92 b8 3d
       -0.0034345735 -0.043658655 -0.077820726 0.090122804
0003a0 f6 1a 0e bc ee ef f2 3d f6 18 93 3d 42 c8 e1 3d
       -0.00867342 0.11862169 0.07182495 0.11024524
0003b0 3d 04 cc 3d fe 9f a7 bd e1 00 17 3d 9b eb 55 bd
       0.09961746 -0.08184813 0.036866073 -0.052226644
0003c0 01 6d 81 3d 2d 89 39 bc d1 a4 32 3c 07 66 b2 bd
       0.06319619 -0.011324209 0.010903553 -0.087108664
0003d0 b4 88 e6 bd 95 45 42 3d d0 c5 ef 3c 82 3f 33 3c
       -0.11256543 0.04742964 0.029269129 0.010940434
0003e0 45 32 af 3d a1 6c 57 bd f8 21 37 3d 3f 11 8e bd
       0.0855451 -0.05259383 0.04471013 -0.06936883
0003f0 56 c9 d5 3c 52 8e eb bc b2 a5 b4 3d 02 92 e1 3d
       0.026096981 -0.028754387 0.088206664 0.11014177

conv6.bias f4 [6]
000000 08 56 ef 3a 8d de 9f bd 65 e3 fb 3d c7 eb ce 3d
       0.0018259892 -0.0780612 0.122992314 0.10103565
000010 a4 5a 5f 3d 37 e8 8c bd
       0.0545298 -0.06880229

conv7.weight f4 [6, 6, 3, 3]
000000 9a 34 cb 3d 7e d1 3b 3c 3c 90 aa 3d 33 51 57 3d
       0.09922142 0.011463521 0.08328292 0.052567672
000010 dc f8 88 3d ac 57 e2 bd e3 06 8f bd 97 b5 9a 3d
       0.06688091 -0.11051878 -0.069837354 0.07554167
000020 6c f5 d6 bc a8 68 e0 bd b5 93 ea 3d f6 80 32 bb
       -0.026240073 -0.109574616 0.11453954 -0.0027237511
000030 eb 14 d0 3d ac 9d c9 bd 8a 9e 31 3d 3c 52 42 bd
       0.1016024 -0.09844527 0.043364085 -0.047441706
000040 ac 18 59 bd 29 33 d7 bc e9 f4 3e bd 25 58 8d 3d
       -0.053002045 -0.026269512 -0.046620283 0.06901578
000050 6c 09 c4 bc 71 94 c3 3d 58 6f eb 3c e2 6c 9f bc
       -0.023930274 0.09549797 0.028739616 -0.019461099
000060 88 fd 94 bd 17 32 ec bd 36 7f 16 bd ff dd ee bd
       -0.0727492 -0.115329914 -0.03674241 -0.11663436
000070 3b 29 bf bc 72 eb 06 3b ab fc 04 bc a8 6a 7d bd
       -0.02333509 0.0020587114 -0.008116881 -0.061869293
000080 37 08 b3 3d 2e 45 91 3d c3 35 fe bc 1b d5 4b bd
       0.08741801 0.07093273 -0.031031495 -0.04976378
000090 2c 2b a2 3d 89 6b e0 3d a9 2f ec bd 8e ed de bc
       0.07918391 0.10958011 -0.11532528 -0.027212884
0000a0 99 81 3f bc eb c8 3a bd 31 36 dc 3d 61 68 98 bc
       -0.011688613 -0.045601767 0.10752524 -0.01860446
0000b0 46 b3 da 3d 68 39 23 3a bf d6 5f bc 0c 76 96 bd
       0.10678725 0.0006226511 -0.013662039 -0.073467344
0000c0 c2 89 2b bd 8a 3c 26 3d 0a 33 64 3d 43 d8 92 bb
       -0.041879423 0.04058508 0.055712737 -0.004481347
0000d0 70 c8 f5 3d a1 88 b2 bd fc cc 45 3d a0 53 e8 3d
       0.12001121 -0.08717466 0.04829119 0.11344075
0000e0 ef 68 b3 bc 61 c9 cc 3d 34 11 08 3b 98 29 c1 bd
       -0.021900622 0.099993475 0.0020762207 -0.094317615
0000f0 99 83 8d bd 20 06 40 3d b3 40 5f bd 10 28 f8 3c
       -0.06909866 0.04688084 -0.05450506 0.03029254
000100 bb e2 fd 3d 3a 3d 2f 3d 34 21 41 bc 45 f3 00 3d
       0.12396761 0.042783 -0.011787701 0.031482
000110 61 9d 94 bd ae bd d8 bd 15 e6 c1 bd b2 71 d8 bd
       -0.0725658 -0.105830535 -0.09467713 -0.10568561
000120 a4 bd d3 3c 19 f9 c8 3c 92 3d 5b bd d9 4f fc bd
       0.025847264 0.024532842 -0.053525515 -0.12319917
000130 03 bb 8b 3d e4 5c 92 bd f2 41 ac bc e0 48 d8 bd
       0.06822779 -0.07146624 -0.021027539 -0.10560775
000140 2c 86 91 bd a0 35 57 3d 3b 56 f0 bd ae 17 93 bd
       -0.071056694 0.052541375 -0.11735197 -0.07182251
000150 e2 63 c1 3d dd 49 84 bd b7 b1 56 bd c4 d9 10 bd
       0.09442879 -0.06459401 -0.052415576 -0.035363927
000160 c4 85 5c 3d d9 34 a9 bd 10 e7 4e 3c 32 b1 52 3d
       0.053838506 -0.08262033 0.012628332 0.051438518
000170 33 ce 15 bc 9f 90 ba 3c 61 c6 c4 bd 05 3c 69 3d
       -0.0091434 0.022774039 -0.0960815 0.056942005
000180 da cd 40 3d cc 6b 81 bc 11 4a d5 bd 58 58 4e 3d
       0.047071315 -0.015798472 -0.10414518 0.05037722
000190 38 52 a8 3d cd 77 b4 bc 15 29 73 3d 90 38 3f 3d
       0.08218807 -0.022029782 0.05936535 0.0466848
0001a0 48 57 4e bd 12 41 0f bc 9e 62 00 3e 3f e0 1b 3a
       -0.050376207 -0.008743541 0.1253762 0.0005946196
0001b0 ed 5a cd bd 43 7e 16 bc ac 53 80 3d 6b 66 28 bd
       -0.10027108 -0.009185377 0.06265959 -0.0411133
0001c0 28 15 87 bd c8 7d d4 3d 02 75 88 3d 27 4b af bc
       -0.06595832 0.10375553 0.066629425 -0.02139814
0001d0 14 da d2 3b e1 3f 5a bc c1 8b ef 3c 52 ad 92 3b
       0.0064346883 -0.013320894 0.029241445 0.004476228
0001e0 bf 17 9c bd f5 29 bf 3c ae e3 57 3b e7 6a 05 3c
       -0.07621717 0.023335436 0.0032942104 0.008143163
0001f0 e0 99 44 bd 0d 2f 04 3d 77 96 d0 bd 71 36 1a 3d
       -0.04799831 0.032271434 -0.10184949 0.037649576
000200 d6 c7 8b 3d 2d 1a 63 bc 97 5f c8 bd 60 da ef b9
       0.06825225 -0.013861221 -0.09783857 -0.00045748334
000210 49 8f 3b 39 53 eb de bd a3 71 b6 bd d9 95 ee 3d
       0.00017887088 -0.10884728 -0.08908393 0.11649675
000220 d8 e5 c0 3d a7 f4 8e 3d f8 b1 b2 3d b7 99 46 3d
       0.09418839 0.069802575 0.08725351 0.048486438
000230 94 2b 91 3d 11 d8 aa 3d 96 08 f1 bc 35 29 83 bc
       0.0708839 0.08341993 -0.02942304 -0.01601086
000240 a5 ed b7 3d c3 33 3e b8 a7 d7 a7 bd 0a 03 c8 bd
       0.08980874 -4.5347737e-05 -0.08195429 -0.09766205
000250 7a 43 90 3d c0 a9 d5 3d 3b 53 c8 3d a6 b5 ab 3c
       0.0704412 0.10432768 0.097815 0.02096064
000260 6a 0e b2 3d 75 d4 ec bd 67 d7 b9 bd 5b 34 f8 bd
       0.086941555 -0.115639605 -0.09074288 -0.12119361
000270 15 d3 cf 3d 2c 61 95 ba 1f 8d 6d bd 99 90 2e 3d
       0.101476826 -0.0011396757 -0.05799591 0.042618368
000280 c0 1d 41 bd d2 6e a5 bd c4 fa 46 3d 57 eb bc 3c
       -0.047147512 -0.08077778 0.048578992 0.023061438
000290 82 b8 b8 bd 63 e6 a9 bd 20 e3 71 3d 0f 23 c4 3d
       -0.09019567 -0.08295896 0.059054494 0.095769994
0002a0 64 fd 27 3c 28 90 81 bd be 1c 79 3d 16 f3 b3 3c
       0.010253284 -0.06326324 0.060818426 0.021966498
0002b0 d1 d3 e1 bd 46 29 a7 bd b0 d5 e1 3c 71 9c 9f 3d
       -0.11026729 -0.08162169 0.027567714 0.07793511
0002c0 f9 bc 25 bd c1 73 79 3d f8 bf 9f bd 93 d6 f6 3d
       -0.04046342 0.060901407 -0.07800287 0.120526455
0002d0 77 cc b7 3d db 42 c1 3c 69 84 65 3d af 9c 33 3d
       0.089745454 0.02359145 0.05603448 0.043850597
0002e0 c3 36 98 bd 06 f9 8f ba 8b 91 09 3d ab e3 e8 bc
       -0.0743232 -0.0010984249 0.033586066 -0.028428873
0002f0 60 5b f7 3d 9e f2 46 bd 65 5d e6 bd da 9a 75 bd
       0.12077975 -0.04857122 -0.11248282 -0.05996213
000300 8e 65 ef bd 96 8f d4 3d 0a 97 67 bd 17 7c b5 bd
       -0.11689292 0.10378949 -0.056540526 -0.08861559
000310 13 12 5f bc a2 ce ad bd a5 be 86 bd 06 81 83 3d
       -0.013615149 -0.08486678 -0.06579331 0.06421094
000320 65 aa c1 bd c1 4a 73 3d e6 1a bc 3d 07 24 94 b9
       -0.09456328 0.059397463 0.09184818 -0.00028255602
000330 70 13 65 3d c7 7d 90 bd c2 26 c9 3d a6 94 fa 3d
       0.05592674 -0.0705524 0.098218456 0.12235384
000340 d2 30 f5 3c 9f 0f eb 3d 98 17 00 be 1e 95 62 bc
       0.029930506 0.11477589 -0.12509 -0.013829498
000350 63 02 cd 3c 44 34 e0 bd e2 0c 7b 3d 69 9d 44 bd
       0.025025552 -0.10947469 0.061291583 -0.04800168
000360 0a 97 3a bd b1 a8 cc bd 24 e8 52 3d 7c b0 bb bd
       -0.0455542 -0.09993113 0.051490918 -0.09164521
000370 89 f3 da bc 2a 2d 65 3d d5 52 c2 3d 40 50 e9 3c
       -0.026727455 0.055951275 0.09488455 0.028480649
000380 59 73 40 bd 69 65 60 bd 04 c8 90 3d 88 6f bf 3c
       -0.046985004 -0.054784212 0.070694 0.023368612
000390 1b 24 d9 3d 4d 47 42 3d 34 cc cf 3d 27 db cf bd
       0.1060259 0.04743128 0.101463705 -0.10149222
0003a0 f7 5e cf 3d a2 07 6d bd d4 18 0a bd b3 9b 45 3a
       0.10125535 -0.057868607 -0.033715084 0.00075381546
0003b0 fc 7d c1 bc ff 17 cc 3c 18 db e5 3d 99 1e 9a bd
       -0.023619644 0.024913786 0.112234294 -0.07525367
0003c0 a2 67 1f 3d 2f 50 cf bd cf 01 a2 3c f2 7f d4 3d
       0.03891719 -0.10122716 0.019776253 0.10375966
0003d0 f3 ed ad 3d 8a e5 dc 3d 17 a2 8b 3d f0 ba 2a bc
       0.08492651 0.107859686 0.068180256 -0.010420546
0003e0 e5 b2 06 3d a5 91 57 bd 8a f3 da 3d d7 27 81 3d
       0.03288545 -0.05262913 0.10690983 0.06306427
0003f0 ed cb bc bd 29 09 df 3d df f6 f4 ba 8f 75 b7 bb
       -0.09218583 0.10890419 -0.0018689296 -0.005598731

conv7.bias f4 [6]
000000 d4 5d 81 3d 0b 62 b6 3d c3 42 01 3d 86 9e 8c 3d
       0.063167244 0.08905419 0.03155781 0.068661734
000010 21 e8 cb 3d af 42 cb 3c
       0.099563845 0.02481207

conv8.weight f4 [6, 6, 3, 3]
000000 f6 69 2f 3d 84 b2 c9 bd 9e 60 0a bd 99 1c 3b 3c
       0.04282566 -0.09848502 -0.033783548 0.011420392
000010 c6 05 7a 3c e9 43 36 bd 66 b6 ff bd ac 29 06 bd
       0.015260166 -0.044498358 -0.124859616 -0.032754585
000020 9e 81 45 3d 58 1c de 3d 08 ef e8 bd 65 4e 76 3d
       0.048219316 0.1084525 -0.113737166 0.060133357
000030 63 c2 f4 bd e4 ac f6 bd ad 89 a1 bd 1e 48 88 bc
       -0.11951139 -0.12044695 -0.07887588 -0.01663595
000040 18 16 10 3d e9 2b c4 bd ce bb c6 3d 72 43 e9 3d
       0.03517732 -0.09578688 0.0970379 0.11389817
000050 1f f0 fd 3b 2b f7 d1 3d 4a 8d 69 bd 70 15 4c bd
       0.007749572 0.10252222 -0.05701951 -0.049825132
000060 02 25 85 bc a1 7b 61 3c 95 f0 b3 bd 1b 8c ce bd
       -0.016252998 0.013762386 -0.08786122 -0.10085317
000070 ec cb 4b 3d 51 bf 14 3d a4 57 fc 3d f3 55 52 bd
       0.049755022 0.036315266 0.123214036 -0.0513515
000080 27 2f 36 3d a0 2e 50 bd 0e ac 7e 3d 95 9d e4 bb
       0.04447856 -0.050825715 0.062175803 -0.006976793
000090 33 38 bf 3d fd 4e 8f 3d e9 b3 d6 3d 25 8f 84 3d
       0.09336891 0.06997488 0.10483534 0.06472615
0000a0 69 13 9b 3b fe 4a de 3d 23 83 97 bd 2c 4b f3 3d
       0.0047325385 0.108541474 -0.07398059 0.11879572
0000b0 5b 10 fc 3d cd 68 f6 3d e1 fb 70 bd c7 ac 88 bd
       0.12307807 0.12031708 -0.05883396 -0.0667358
0000c0 46 90 02 3c 41 a6 20 3d d2 64 81 3d 1b d1 51 3d
       0.007968968 0.039221052 0.06318058 0.05122481
0000d0 d0 a3 db 3d 4a 40 01 bd 4f 40 29 bd 8e ed 2c 3d
       0.10724604 -0.03155545 -0.041321095 0.042218737
0000e0 4a c3 0f 3d be 77 96 bd 49 99 47 3c a7 d8 c3 bd
       0.03509835 -0.07347058 0.012182542 -0.095628075
0000f0 f9 58 17 bd 87 79 4a bd b6 1c e2 3d 7a 32 e8 bd
       -0.036950085 -0.049432304 0.110406324 -0.11337753
000100 68 4c 98 bd 4e 6f fc bd 7d 1c 02 3d fd 89 c6 bd
       -0.07436448 -0.12325917 0.03176545 -0.09694288
000110 ae e9 26 3d 49 2c b3 bd 73 3c a5 bd 64 c7 83 bd
       0.040750198 -0.08748681 -0.080681704 -0.06434515
000120 e8 d6 9a 3c ce 05 ed 3d 4a 9f f1 3d 16 e7 1b bc
       0.018901303 0.11573373 0.1179796 -0.009515544
000130 9f a8 fc bd 4a 70 2a bd f4 9c 44 bd 04 75 db bc
       -0.123368494 -0.041610993 -0.048001245 -0.026789196
000140 07 1e 45 3d d5 ce 81 3d 0e bc 64 3d ea 5f 13 3d
       0.04812434 0.06338278 0.055843405 0.035980143
000150 37 d9 50 bd 66 20 af ba 2f 50 83 3c c1 c1 83 bd
       -0.050988402 -0.0013361096 0.016029445 -0.0643344
000160 9d 99 38 bc 09 cc 80 bc 3b b6 f3 bd 49 de ae 3d
       -0.011267093 -0.015722292 -0.11899992 0.08538491
000170 ff a1 50 bc 25 fc de bd b4 14 cc 3d 6d cb 8a bd
       -0.012733935 -0.108879365 0.09964886 -0.06777082
000180 33 a6 36 3d 37 cf ff 3d 76 0e bf 3b ba 6c 14 3d
       0.044592094 0.12490695 0.0058305813 0.036236502
000190 c3 fa 4c 3d 3d f4 c2 3d c7 49 1e bd db 26 91 bd
       0.050043833 0.09519241 -0.03864458 -0.07087489
0001a0 35 7d 21 bc 5a ba c9 3d 23 6e 31 3c 7a 39 b3 3d
       -0.009856512 0.09849997 0.010829481 0.08751197
0001b0 69 7a 75 ba 6c 49 1e 3d b5 82 8f 3b 3f 12 60 3b
       -0.0009364249 0.03864424 0.004379595 0.0034190563
0001c0 ac 77 f5 bd 98 81 e1 bd 9b 8b 2b 3c 57 55 7f 3d
       -0.11985716 -0.11011046 0.010470296 0.062337246
0001d0 d4 46 ad 3d ee 12 b3 3b ed 75 59 3d 21 c4 57 3d
       0.08460775 0.005464903 0.05309098 0.052677277
0001e0 62 ac de bd ed b7 e2 bd 95 ff c7 bd 04 ea 0d 3b
       -0.10872723 -0.11070237 -0.09765545 0.0021654377
0001f0 b8 1a a3 bd cd 17 25 bd be 5e 9a bc 40 48 49 3d
       -0.079640806 -0.0403059 -0.018844005 0.04914117
000200 b4 3a ef 3c 9e 4a ef 3d 7f aa e8 3d 25 8f a4 bd
       0.029202797 0.11684154 0.113606445 -0.08035115
000210 07 08 d0 b9 49 62 aa 3c 05 30 e1 3d f0 e2 1f bd
       -0.00039678832 0.02079882 0.10995487 -0.039034784
000220 68 bf 4a bd f8 65 a3 bd 3c 12 be 3d 27 28 12 bd
       -0.049498945 -0.07978433 0.09280822 -0.035682824
000230 23 37 41 bd b8 77 ae 3d 85 5a ed 3d 7a ec ad bb
       -0.047171723 0.08518928 0.11589531 -0.005307731
000240 17 d4 b5 bd ea 2b d2 3d 36 70 30 bd a8 bc 6d bd
       -0.088783436 0.10262282 -0.043075763 -0.058041245
000250 d2 57 b5 bd 9e 1c 78 bd e3 03 ca bd 0a e4 94 bd
       -0.08854641 -0.060574166 -0.098640226 -0.072700575
000260 a4 fa ea bd b8 f5 cf bc ae 6d 4f 3d 6b d0 c3 bd
       -0.11473587 -0.025385723 0.050641708 -0.09561237
000270 69 70 38 b9 fe 3d 3e bd 91 89 79 3d e0 69 df 3d
       -0.00017589483 -0.04644584 0.06092221 0.10908866
000280 e7 c6 88 bc 1e d3 81 bd 8d 32 c6 bd b2 8c 97 bd
       -0.016696407 -0.063390955 -0.096776105 -0.073998824
000290 59 f3 14 3d ad bc ec 3c 82 e9 8a 3d 22 50 99 bc
       0.036364887 0.028898561 0.06782819 -0.018714968
0002a0 ba 8a 84 3d a1 cf e5 bd a9 ae 0a 3d dd 69 fa 3d
       0.064717725 -0.11221243 0.033857975 0.12227223
0002b0 36 4a ff bd 49 e8 85 bd 37 21 a5 3d 9f 51 a1 bc
       -0.124653265 -0.065384455 0.08062976 -0.01969224
0002c0 36 7f 89 bd 4d 5d 9d 3d 2f 54 0a 3c fe a5 a1 3b
       -0.06713717 0.07683811 0.0084429225 0.004933118
0002d0 d9 b1 1c bd fd 58 c2 3d 23 15 8f 3d 15 d6 b8 3c
       -0.038255546 0.094896294 0.069864534 0.02256302
0002e0 7d 76 9d 3c fa 61 85 3d 2a b4 a0 3d e1 9e 53 bd
       0.019221539 0.06512828 0.078468636 -0.05166519
0002f0 a1 16 62 bc 3e 7d 62 3d d3 fd 79 bd 8c 31 f1 3d
       -0.01379934 0.05529522 -0.06103308 0.117770284
000300 90 b1 b0 bd cf 0e 6e 3d 66 49 b9 bd ed a2 25 3d
       -0.08627617 0.05811959 -0.09047203 0.04043858
000310 43 2a b4 3d 68 c3 78 3c 02 d4 4e bc 39 08 a4 3d
       0.08797123 0.015183307 -0.012623789 0.08009381
000320 7e 37 b9 bd 36 07 ae bd f2 d8 db bd 72 c7 9e bd
       -0.090437874 -0.08497469 -0.107347384 -0.07752885
000330 ff 3b 56 3b 18 ee 69 bd f7 dd e5 3c 46 45 8b 3b
       0.003268957 -0.05711183 0.028059943 0.0042502014
000340 b2 ad d6 3d 2d b2 5f bd a3 21 0d bd ce 9a aa 3d
       0.104823485 -0.05461328 -0.034455907 0.08330308
000350 3f 72 02 bd 15 f5 f6 3d 27 e7 4c bd 65 cd b4 ba
       -0.031847235 0.120584644 -0.05002513 -0.0013794122
000360 ac 76 f4 bc bc af 70 3d 8f ac 45 3d 75 5d 89 bd
       -0.029841743 0.058761343 0.048260268 -0.06707279
000370 8b f8 a9 3d e5 1f 03 bc c2 75 02 bd 9d 8a 26 bb
       0.08299359 -0.00800321 -0.031850584 -0.002541221
000380 60 84 b3 3d e1 07 fd 3d 7f 06 7b 3d 91 8b b4 3c
       0.08765483 0.123550184 0.061285492 0.022039207
000390 5d 58 a8 3d d6 bb 57 bd e6 cd 86 bd ad fb 14 bd
       0.08219979 -0.05266937 -0.06582241 -0.03637283
0003a0 81 f3 a6 bd 53 d1 5d 3d 0e 02 44 3c b4 81 30 bd
       -0.081519134 0.054154705 0.0119633805 -0.043092445
0003b0 17 7f 51 bc 77 b7 23 bb bb 2b dd 3d d2 42 e6 3d
       -0.012786648 -0.002498118 0.107993565 0.11243214
0003c0 e6 94 c6 bd 4f 12 3d 3d 32 36 47 3d 1c 42 45 3d
       -0.09696369 0.04616004 0.04863567 0.04815875
0003d0 92 ab 8c bc 18 05 01 3d a4 d0 01 3d e9 0e fb 3d
       -0.017171655 0.031499 0.031693116 0.12258703
0003e0 3d 39 f7 bd b6 c5 43 bd 71 8c ad bd 9c 3e 7a bd
       -0.12071464 -0.047795974 -0.08474053 -0.061094865
0003f0 8d 91 ca 3c 9f 50 9d 3d 0c 10 c3 bd d9 c4 a7 3d
       0.024727607 0.07681393 -0.09524545 0.081918426

conv8.bias f4 [6]
000000 9d 65 df bd b4 a7 ad bd 96 50 80 bd 26 fe d0 bb
       -0.10908053 -0.084792525 -0.062653705 -0.006377953
000010 03 32 b9 3c 56 66 17 bd
       0.022606855 -0.03696283
