quantization/saved_models/snet_cifar10.pt (torch, 22743 bytes, 6 tensors)

conv1.weight f4 [6, 3, 3, 3]
0	0x3e50bcc0	0.20384502
1	0xbea2de3f	-0.31810185
2	0xbe6596c1	-0.2242079
3	0xbd71b0d3	-0.059006523
4	0x3e1a03c1	0.15040495
5	0xbd83b24b	-0.06430491
6	0x3d35907c	0.044327244
7	0x3efb267a	0.49052793
8	0xbe8e0993	-0.2774168
9	0x3aa7be60	0.0012797825
10	0xbd8c929b	-0.068639
11	0xbdcebcb9	-0.1009459
12	0xbed7c817	-0.42144844
13	0xbda5aa18	-0.080890834
14	0x3e5d2e07	0.2159959
15	0xbd9efe01	-0.07763291
16	0x3e8e681e	0.2781381
17	0x3ec0324e	0.3753838
18	0xbeaf03b9	-0.34182528
19	0x3e747787	0.23873721
20	0x3ebcd9e6	0.36884993
21	0x3e4fef65	0.20306166
22	0x3e71b366	0.23603591
23	0x3eda71af	0.4266486
24	0x3d8ab9a9	0.06773693
25	0xbeecb4e2	-0.46231753
26	0xbd09a403	-0.03360368
27	0x3ec885a3	0.39164457
28	0xbf6d33c2	-0.926571
29	0xbf027358	-0.5095725
30	0xbf73fcc9	-0.95307595
31	0x3fc9bfe5	1.5761687
32	0xbf17ab1b	-0.5924546
33	0x3f69e30f	0.9136209
34	0xbf2655ca	-0.64974654
35	0x3efd9903	0.495308
36	0x3f106fcc	0.5642059
37	0x3e3081e9	0.17237057
38	0x3ecd9106	0.40149707
39	0xbfb2d6de	-1.3971822
40	0x40095f33	2.1464355
41	0x3e275c61	0.16343834
42	0xbe91e7f9	-0.28497294
43	0xbfe4d5fd	-1.7877804
44	0x3f19c336	0.60063493
45	0x3f60ca96	0.8780912
46	0xbf9e5bc6	-1.2371757
47	0xbed8659b	-0.4226502
48	0xbf6c57e3	-0.92321604
49	0x3ff2b9ac	1.8962913
50	0xbf5a156c	-0.8518894
51	0x3f564644	0.83700967
52	0xbf3523da	-0.7075783
53	0x3eda79b5	0.4267098
54	0x3f83aa2b	1.0286306
55	0xbe856fab	-0.26061758
56	0x3eca009f	0.394536
57	0xbe359e65	-0.17736204
58	0xbf329eaf	-0.6977338
59	0xbedab223	-0.42714033
60	0xbd84f0f7	-0.06491273
61	0xbc45c482	-0.012070777
62	0xbf47e3f8	-0.7808223
63	0x3ef89aba	0.48555547
64	0x3f4fbd45	0.8114818
65	0x3d71403e	0.058899157
66	0xbf03ed61	-0.51534086
67	0xbe563651	-0.20919158
68	0xbf6de96b	-0.9293429
69	0xbeb4d18c	-0.35316122
70	0x3f345644	0.7044413
71	0xbebf85ed	-0.37406865
72	0xbf680d26	-0.9064506
73	0x3ee23b6b	0.44185957
74	0x3d3e4220	0.04644978
75	0x3d3c6a57	0.04599985
76	0x3eb47d1a	0.35251695
77	0x3e1a05e5	0.15041311
78	0x3da82b33	0.082113646
79	0x3f132bd3	0.57488745
80	0x3ef24181	0.473156
81	0xbd9fb7f1	-0.07798756
82	0xbda136a9	-0.07871754
83	0x3f5ac2fa	0.8545376
84	0xbef2d40a	-0.47427398
85	0x3db5fe92	0.08886446
86	0xbf0c874e	-0.5489396
87	0xbeae5a69	-0.34053352
88	0x3ed96762	0.42461687
89	0x3e262a23	0.16227011
90	0x3edd2155	0.43189493
91	0x3db3dc1f	0.08782219
92	0xbf8c8029	-1.0976611
93	0x3e651c18	0.22373998
94	0x3f6614ca	0.8987547
95	0xbf199395	-0.5999082
96	0x3cada269	0.021195607
97	0x3f6db91a	0.9286057
98	0xbf8b4ddb	-1.0883135
99	0xbe3af15a	-0.18256131
100	0x3e8f8db8	0.2803781
101	0xbf06c491	-0.52643687
102	0x3d7cb72c	0.061698124
103	0x3f6c634a	0.92339003
104	0xbf07aae3	-0.5299513
105	0xbf31d2e0	-0.69462395
106	0x3f804dcf	1.0023745
107	0xbe8c4bca	-0.27401572
108	0xbf1065f0	-0.56405544
109	0xbe8259de	-0.25459188
110	0xbee466e3	-0.44609746
111	0xbed2cccb	-0.4117187
112	0x3e7e1a61	0.2481475
113	0xbea5e458	-0.32400775
114	0x3d0d06a9	0.03443018
115	0x3f82da0c	1.0222793
116	0x3fcad513	1.5846275
117	0x3f8855e4	1.0651212
118	0xbdafc449	-0.0858236
119	0x3f269948	0.6507764
120	0xbef05b9f	-0.469449
121	0x3e32e464	0.17469937
122	0x3e9039ba	0.28169042
123	0xbf5ade71	-0.8549567
124	0xbff50610	-1.9142475
125	0xbf47d5fd	-0.78060895
126	0x3ebafa18	0.3651893
127	0xbe3f92b6	-0.1870831
128	0x3ed5cdec	0.41758668
129	0x3e5dbf9f	0.21655129
130	0x3ea9207f	0.33032605
131	0xbf3d4107	-0.7392735
132	0x3fed3433	1.8531555
133	0xbeac3852	-0.3363672
134	0xbfab2e70	-1.3373547
135	0xbf1f368f	-0.62192625
136	0x3ed2a7cc	0.41143644
137	0x3f2462c2	0.6421319
138	0x3ea7d789	0.32781628
139	0x3ea96b71	0.33089784
140	0xbfcf3368	-1.6187563
141	0x3f88f560	1.0699883
142	0xbf0ac48f	-0.54206175
143	0xbd5a29b2	-0.05326242
144	0x3e5331e5	0.20624502
145	0x3f6e1806	0.93005407
146	0xbf220c1f	-0.63299745
147	0x3ef861e6	0.4851219
148	0x3df0ade9	0.11751921
149	0xbef19d6d	-0.4719042
150	0xbf28a75c	-0.6588037
151	0xbf92a685	-1.1457068
152	0x3f22877b	0.63487977
153	0xbebc8d3a	-0.36826497
154	0x3f11a308	0.5688939
155	0xbea7a570	-0.32743406
156	0x3da4704e	0.08029233
157	0xbbfa18d8	-0.007632356
158	0xbf36aeb6	-0.7136034
159	0x3d8717c4	0.0659633
160	0xbf0bc719	-0.54600674
161	0x3fa15162	1.2602961

conv1.bias f4 [6]
0	0x3e7d7ac7	0.24753867
1	0xbe410d2e	-0.18852684
2	0xbedd075f	-0.43169686
3	0xbc9a73a0	-0.018853962
4	0xbfc8a6c1	-1.5675889
5	0xbf302fc7	-0.688229

conv2.weight f4 [12, 6, 3, 3]
0	0xbded3e28	-0.11584121
1	0x3de4363c	0.11143157
2	0xbdbd48f4	-0.0924243
3	0xbd9f5ec0	-0.07781744
4	0xbe787bdf	-0.24266003
5	0x3e0e68dc	0.13907188
6	0x3dfa147c	0.12210938
7	0xbefaae31	-0.48961022
8	0xbe90ddf9	-0.28294352
9	0xba8afae1	-0.0010603332
10	0x3d1f45c8	0.038884908
11	0x3e42aa5a	0.19010296
12	0x3d5d620a	0.054048575
13	0x3e4d5034	0.20050126
14	0x3e169bd7	0.14707886
15	0x3d6fb33d	0.058520544
16	0x3e18b6f8	0.14913547
17	0x3e807b7b	0.25094208
18	0xbd91ad71	-0.071131594
19	0xbe49fbae	-0.19724914
20	0x3d3ae0ee	0.045624666
21	0x3e0c911f	0.13727234
22	0xbeb70895	-0.35748735
23	0xbed2081c	-0.41021812
24	0x3e877acf	0.26460883
25	0xbe2f7d0c	-0.17137545
26	0xbedfb882	-0.43695456
27	0x3c6b296e	0.014353139
28	0xbd1a49eb	-0.03766815
29	0xbd9750c0	-0.07388449
30	0x3db0ee35	0.086391844
31	0xbe11bf27	-0.14233075
32	0x3e296343	0.16541772
33	0xbda36f88	-0.07980257
34	0x3e8332d4	0.25624716
35	0x3bf93d20	0.0076061636
36	0x3e2900f5	0.16504271
37	0xbe181b1b	-0.1485409
38	0xbeeb4c47	-0.45956632
39	0x3dfd7b82	0.12377073
40	0xbea1cd48	-0.3160193
41	0xbf3a7c88	-0.7284627
42	0x3c21443e	0.00984293
43	0xbe8494fa	-0.2589491
44	0xbea34466	-0.3188812
45	0xbdca1225	-0.09866742
46	0xbdaf1a77	-0.0854997
47	0xbe3ba10e	-0.18323156
48	0xbe5a714c	-0.21332282
49	0x3e0a0622	0.13478902
50	0xbca333ab	-0.019922098
51	0xbe9e84d2	-0.3096071
52	0xbdede107	-0.11615186
53	0xbdcab38f	-0.09897529
54	0xbb77e81a	-0.0037827552
55	0xbbb30dfc	-0.0054643136
56	0xbbd3b9bc	-0.0064613502
57	0xbb183c55	-0.002322932
58	0xbba2b54a	-0.004965459
59	0xbb9e8b88	-0.0048384108
60	0xbb0774f1	-0.0020669068
61	0xbb4aff90	-0.003097508
62	0xba13d175	-0.00056388165
63	0x3929e5d2	0.0001620271
64	0xbb0355c6	-0.0020040139
65	0x39afca1f	0.00033529193
66	0xba244987	-0.000626706
67	0xbb6a6fdb	-0.0035772237
68	0xb9059562	-0.00012739518
69	0xbb1b632e	-0.0023710239
70	0xbaf50c21	-0.0018695631
71	0xb9e70b8d	-0.0004406836
72	0xbb9d882c	-0.0048074927
73	0xbb983de5	-0.0046460503
74	0xbb36a34c	-0.0027868329
75	0xbb370bd9	-0.0027930646
76	0xbb1652f2	-0.0022937623
77	0xbae31669	-0.0017325404
78	0xbb8c79cb	-0.00428698
79	0xbb8b4d0e	-0.004251129
80	0xbb41399b	-0.0029483798
81	0xbbd7864d	-0.006577289
82	0xbc08b722	-0.0083444435
83	0xbc0635d8	-0.008191548
84	0xbbddfbc9	-0.0067744
85	0xbbf5d561	-0.0075022434
86	0xbbfef7fa	-0.007781026
87	0xbc0a7473	-0.008450615
88	0xbc0aa3b6	-0.008461883
89	0xbc047905	-0.008085494
90	0xbba20cb8	-0.004945364
91	0xbbaebe65	-0.0053327554
92	0xbbac2e2e	-0.0052545285
93	0xbb63f48c	-0.0034783212
94	0xbb6445bb	-0.0034831602
95	0xbb3a5948	-0.0028434563
96	0xbb9b699d	-0.0047428147
97	0xbbb9da1f	-0.005671754
98	0xbb981f60	-0.004642412
99	0xbc102ce8	-0.008799769
100	0xbc06a200	-0.008217335
101	0xbbf607e7	-0.0075082663
102	0xbc106c3c	-0.008814868
103	0xbc0ebe82	-0.008712413
104	0xbc012060	-0.007881254
105	0xbc2036e4	-0.009778712
106	0xbc1f3c10	-0.00971891
107	0xbc1c13e6	-0.0095262285
108	0x3f30b6f7	0.6902918
109	0xbec313d3	-0.38101062
110	0xbeef754c	-0.46769178
111	0x3e4bc29d	0.19898458
112	0xbf332e0d	-0.6999214
113	0x3f064f89	0.5246511
114	0xbdee5e2e	-0.11639057
115	0x3f09c62a	0.53818
116	0xbd596465	-0.05307426
117	0xbdca5d85	-0.09881119
118	0x3b24690e	0.0025087032
119	0xbdb86be5	-0.09004954
120	0xbdd5bd85	-0.104365386
121	0x3c6c6632	0.014428662
122	0xbe8e52d0	-0.27797556
123	0x3bd886c5	0.0066078627
124	0x3cf1e6b5	0.029528955
125	0xbe99bcb0	-0.3002677
126	0x3e5e634c	0.21717566
127	0xbec998d5	-0.39374414
128	0x3dea3c3f	0.11437272
129	0x3e01d1e9	0.1267773
130	0xbe9d894a	-0.30768806
131	0x3ea5015e	0.32227606
132	0xbd3b4ee2	-0.045729525
133	0x3d96c16a	0.073611096
134	0x3c46cabc	0.012133297
135	0xbe7a2fae	-0.24432251
136	0xbe9545ae	-0.29154724
137	0xbe9c5fac	-0.30541742
138	0xbe335c1b	-0.17515604
139	0xbe8adf13	-0.27123317
140	0xbeb44340	-0.35207558
141	0xbd284346	-0.041079782
142	0xbebfe1f7	-0.37477085
143	0xbe61fb8a	-0.22068611
144	0x3ddd38e3	0.10801866
145	0xbe1cdf34	-0.1531952
146	0xbe7b5544	-0.24544245
147	0x3de660bd	0.1124892
148	0xbee60f1b	-0.449334
149	0xbeae6b91	-0.34066442
150	0x3d5446e2	0.05182541
151	0xbec9c2d4	-0.39406455
152	0xbebc0815	-0.36724916
153	0xbe31f052	-0.17376831
154	0x3eb55835	0.3541886
155	0x3ea25e42	0.31712538
156	0x3ebbf230	0.36708212
157	0x3e9cbf9b	0.30614933
158	0xbef58044	-0.4794942
159	0x3df459c7	0.11931186
160	0xbef92171	-0.48658326
161	0x3eeae279	0.4587591
162	0x3eb4c140	0.35303688
163	0x3e5e2eaf	0.21697496
164	0xbe74bdfe	-0.23900601
165	0xbe2b1eb0	-0.16710925
166	0xbe626a62	-0.22110894
167	0xbf656883	-0.896126
168	0x3d135d14	0.035977438
169	0x3eae6f41	0.34069255
170	0x3f2210d8	0.6330695
171	0x3eac6d4b	0.33677134
172	0xbed912e3	-0.42397222
173	0xbed13a94	-0.40865004
174	0x3eb81092	0.35950142
175	0xbe3cdbf9	-0.18443288
176	0xbf5832a5	-0.8445228
177	0x3e1b89e0	0.15189314
178	0x3e99c414	0.30032408
179	0x3e81a303	0.2531968
180	0xbc6d84b2	-0.014496969
181	0xbc245478	-0.010029905
182	0x3e5053e2	0.20344499
183	0x3d961d31	0.073297866
184	0xbde0d813	-0.10978713
185	0xbe4b406f	-0.19848798
186	0xbd3b9b63	-0.045802485
187	0x3cbc5d4a	0.022993702
188	0x3e5d8951	0.21634413
189	0xbe81a254	-0.2531916
190	0xbf095c33	-0.5365631
191	0xbedbfa30	-0.42964315
192	0x3d12afa3	0.03581203
193	0xbea5feb1	-0.32420877
194	0xbf0deff8	-0.5544429
195	0x3e65dc16	0.22447237
196	0x3e87dc95	0.26535478
197	0x3df216b4	0.118207365
198	0x3e6fda12	0.23423031
199	0xbea98fb8	-0.3311746
200	0xbdc5420c	-0.09631738
201	0x3db56ba9	0.08858425
202	0xbe579e33	-0.21056442
203	0xbdcec45a	-0.10096045
204	0x3e17cc83	0.14824109
205	0xbdebd38c	-0.11514959
206	0xbd808682	-0.06275655
207	0xbdc97c87	-0.09838205
208	0xbf02802c	-0.50976825
209	0xbe4fad81	-0.2028103
210	0x3cca42d8	0.024690077
211	0xbdc4e57b	-0.096140824
212	0x3e8b1336	0.27163094
213	0xbda74cd3	-0.0816895
214	0xbdda0e62	-0.106472746
215	0x3c2bc893	0.010484832
216	0x3e34fbbc	0.17674154
217	0xbe815490	-0.2525983
218	0x3e378bcb	0.1792442
219	0x3f2d0e7d	0.6760023
220	0x3d6f68aa	0.058449425
221	0xbf5e5c3c	-0.8685949
222	0x3d9f85b4	0.07789174
223	0x3f1b6e9d	0.6071566
224	0xbe31d260	-0.17365408
225	0x3db0d48e	0.086342916
226	0xbdce31d5	-0.100680985
227	0xbe8116af	-0.2521262
228	0xbe1637e5	-0.1466976
229	0xbe3cfbe6	-0.18455467
230	0xbe218e87	-0.15777026
231	0xbf18ec5b	-0.5973565
232	0xbe17fc6b	-0.14842384
233	0xbd36bb2b	-0.04461209
234	0xbef488d7	-0.4776065
235	0xbe4c6075	-0.1995867
236	0x3e8d02eb	0.2754129
237	0xbd06a1b3	-0.032869052
238	0xbea2c45f	-0.31790444
239	0xbd103385	-0.035205383
240	0x3ebaa56e	0.36454338
241	0xbeb4b0e1	-0.35291198
242	0xbf3c29f5	-0.7350152
243	0x3eab550d	0.33463326
244	0x3e381b35	0.17979129
245	0xbdcbb529	-0.09946663
246	0xbec18a9c	-0.37801063
247	0x3e8619ed	0.26191655
248	0x3e9e4e3f	0.30919072
249	0x3d178548	0.03699234
250	0xbe96458f	-0.29349944
251	0x3b841b42	0.0040315697
252	0xbc0e7755	-0.008695443
253	0xbeb719c3	-0.35761842
254	0x3e30cbd6	0.17265257
255	0xbe74552d	-0.23860617

conv2.bias f4 [12]
0	0x3f8a3cfa	1.0799859
1	0xbb89c675	-0.004204566
2	0x3f289623	0.6585409
3	0x3e097d15	0.13426621
4	0x3ea4996a	0.32148296
5	0x3ec1ea37	0.37874004
6	0xbb9fedd0	-0.0048806444
7	0x3e15e742	0.14638999
8	0xbf7d6c0a	-0.9899298
9	0xbddd1023	-0.107940935
10	0x3f8e3549	1.1110011
11	0x3e9916a0	0.29900074

fc1.weight f4 [10, 432]
0	0x3d4e6780	0.050391674
1	0x3d13e6b0	0.036108673
2	0x3b96a8a6	0.004597741
3	0xbcfcb9cb	-0.030850312
4	0xbd9a631d	-0.075384356
5	0xbe7db4c4	-0.24775988
6	0xbc4fcc39	-0.012682968
7	0xbd187582	-0.03722144
8	0xbd39a8f4	-0.045327142
9	0xbda6e433	-0.08148994
10	0xbdfc71ba	-0.12326379
11	0xbe27f102	-0.16400531
12	0xbd498c70	-0.049206197
13	0xbd99e509	-0.07514388
14	0xbd9a931b	-0.075475894
15	0xbdbce6d3	-0.09223714
16	0xbde02520	-0.10944581
17	0xbdf030f6	-0.117280886
18	0xbd871b7d	-0.0659704
19	0xbde63967	-0.112414174
20	0xbdb953f7	-0.09049218
21	0xbd4041a4	-0.0469376
22	0xbd545c3e	-0.05184578
23	0xbc6d184e	-0.014471127
24	0xbd312e24	-0.043256894
25	0xbd575e29	-0.052580032
26	0xbd190734	-0.037360385
27	0x3d0f1e16	0.0349408
28	0x3d0d6d1c	0.034527883
29	0x3c6d4aae	0.014483137
30	0xbe5bd820	-0.21469164
31	0xbdde6c80	-0.108605385
32	0xbc34fad7	-0.011046133
33	0x3d8e9a37	0.06963008
34	0x3d6dcebc	0.058058485
35	0x3d6966ab	0.056982677
36	0x387bc736	6.0028593e-05
37	0x3a7d62dd	0.0009665916
38	0x3a9fbbc9	0.0012186702
39	0x3a2e313a	0.00066449086
40	0x3abb6ea8	0.0014299946
41	0x3b19a2d2	0.0023442996
42	0xbb54cabe	-0.0032469477
43	0xb9168dd4	-0.0001435795
44	0x3ae40e10	0.001739921
45	0x3b8b1160	0.0042440146
46	0x3b86bd37	0.0041119116
47	0x3a977be9	0.0011557314
48	0xbb012d9d	-0.0019711026
49	0xb94335e2	-0.00018616722
50	0x3b3a2574	0.0028403671
51	0x3b4d81c8	0.0031357873
52	0x3b3b593b	0.002858712
53	0x3a0dd3e0	0.0005410295
54	0xbacfa72f	-0.0015842671
55	0xba4614c3	-0.00075561943
56	0xba2d643d	-0.0006614363
57	0xba212756	-0.0006147524
58	0xb96d5640	-0.00022634212
59	0x396c2753	0.00022521363
60	0x3aaa0067	0.0012970091
61	0xba9d6bdf	-0.0012010298
62	0xbab697e9	-0.0013930771
63	0x3b0c3cf0	0.0021398626
64	0xbaed7cc2	-0.0018118846
65	0x3b0a4074	0.0021095546
66	0x3aa8827e	0.0012856273
67	0x3af8a531	0.0018970129
68	0x3a37b561	0.00070079236
69	0x3aed85f4	0.0018121586
70	0x3b158a45	0.002281801
71	0x3b1b772c	0.0023722155
72	0xbe320133	-0.1738327
73	0xbd8ca665	-0.06867675
74	0x3bb85338	0.005625155
75	0x3da7d5fd	0.08195112
76	0x3dcaab21	0.098959215
77	0x3dd6237b	0.10455986
78	0xbdacbff6	-0.08435051
79	0xbb7cb2b7	-0.003855867
80	0x3d7933f0	0.060840547
81	0x3da1f388	0.07907778
82	0x3dc209ca	0.09474523
83	0x3e07f673	0.13277607
84	0xbd83b35f	-0.06430697
85	0x3ce32770	0.027728766
86	0x3d20d94d	0.039269734
87	0x3d688bff	0.056774136
88	0x3d607406	0.05479815
89	0x3de9ab88	0.1140967
90	0x3c898e85	0.016791591
91	0x3d4456db	0.047934394
92	0x3d80971d	0.062788226
93	0x3d6cce86	0.057814144
94	0x3cab649f	0.020922003
95	0x3dcb327e	0.0992174
96	0x3e0637d0	0.13107228
97	0x3da76fe3	0.081756376
98	0x3d29bca5	0.04143967
99	0x3d1bceef	0.038039144
100	0xbc9180eb	-0.017761668
101	0x3da268f5	0.07930175
102	0x3e91a447	0.28445646
103	0x3e533608	0.2062608
104	0x3e17e86d	0.14834757
105	0x3da6ad52	0.08138527
106	0x3c88e314	0.016709842
107	0x3d9a65ca	0.07538946
108	0x3e122e31	0.14275433
109	0x3e1b2e2e	0.15154335
110	0x3deb192d	0.11479411
111	0x3d945c2d	0.07244144
112	0x3d7addbb	0.061246615
113	0x3e1c7122	0.15277532
114	0x3e4ba611	0.19887568
115	0x3e3fb2c4	0.18720537
116	0x3e0ad20f	0.13556693
117	0x3dbd2db7	0.09237235
118	0x3da07824	0.07835415
119	0x3ddc77b1	0.10765017
120	0x3e581443	0.21101479
121	0x3e6c3ee2	0.23070863
122	0x3e37291b	0.17886774
123	0x3e14e675	0.14541037
124	0x3dcfcb21	0.10146166
125	0x3da836ce	0.08213578
126	0x3e40aa48	0.18814957
127	0x3e48f447	0.19624434
128	0x3e1cde56	0.1531919
129	0x3dfb42e0	0.12268615
130	0x3dd45e22	0.10369517
131	0x3dae40f5	0.08508483
132	0x3ddec5b2	0.10877551
133	0x3dca4cd1	0.09877933
134	0x3dad1ac8	0.08452374
135	0x3d8e8247	0.06958442
136	0x3d959665	0.07304076
137	0x3daab3ad	0.08335052
138	0xbc90d2f6	-0.017678719
139	0x3c1116b6	0.008855512
140	0x3d1976f0	0.037466943
141	0x3d2c0b97	0.04200324
142	0x3d43e480	0.047825336
143	0x3dbd903a	0.09256025
144	0xbc53c381	-0.01292503
145	0x3cb437eb	0.02199932
146	0xbc91bd29	-0.017790394
147	0xbdb622d4	-0.08893362
148	0xbde374c9	-0.111062594
149	0xbe38d8de	-0.18051478
150	0x3d274eb2	0.040846534
151	0x3cc75aec	0.024335347
152	0xbd0ee136	-0.034882747
153	0xbdb47a46	-0.08812384
154	0xbdc28b02	-0.0949917
155	0xbde696af	-0.11259209
156	0x3c4494f0	0.0119984
157	0x3c6b2579	0.014352196
158	0xbd1021ac	-0.035188362
159	0xbd84faad	-0.06493125
160	0xbd81fd46	-0.06347136
161	0xbc851651	-0.016245993
162	0xbcdf55f0	-0.027262658
163	0xbc7dc65b	-0.015489186
164	0xbccb3f6a	-0.024810512
165	0xbd329227	-0.043596413
166	0xbd078ca0	-0.033093095
167	0x3c285231	0.010273502
168	0xbcfa6867	-0.030567361
169	0xbd57a197	-0.05264434
170	0xbd128ab5	-0.035776813
171	0xbc7e6bdf	-0.015528648
172	0x3b83bcab	0.0040202937
173	0x3d137593	0.0360008
174	0xbc31bc2e	-0.010848088
175	0x3c9a3b80	0.0188272
176	0x3c8fb781	0.017543556
177	0x3d1e0e46	0.03858783
178	0x3d8d9ec1	0.069150455
179	0x3caaa04d	0.02082839
180	0x3d575ddf	0.052579757
181	0x3d1bcade	0.038035266
182	0x3cf6ac1e	0.030111369
183	0x3d176a1b	0.036966424
184	0x3b0b1035	0.0021219377
185	0x3b14587c	0.0022635749
186	0x3d03f101	0.03221226
187	0x3cd0f513	0.025507485
188	0x3c236f67	0.009975291
189	0x3c69305c	0.014232721
190	0x3c8c43c5	0.017122159
191	0xbcc7e64e	-0.02440181
192	0x3bf2929f	0.0074027325
193	0xbd11c7f1	-0.03559107
194	0xbd287fba	-0.041137435
195	0xbca75ec3	-0.020430928
196	0xbd6f5a18	-0.05843553
197	0xbda7e5cd	-0.08198128
198	0xbc9ad386	-0.01889969
199	0xbd961fbf	-0.07330274
200	0xbd88742c	-0.06662783
201	0xbd6e1241	-0.058122877
202	0xbd66773e	-0.056266062
203	0xbda6fc10	-0.08153546
204	0xbc221a61	-0.0098939845
205	0xbd2304a3	-0.039799344
206	0xbd6398bf	-0.055565592
207	0xbd85396b	-0.06505092
208	0xbd2bbd42	-0.041928537
209	0x3c33e430	0.010979697
210	0xbc22f794	-0.009946723
211	0xbd62af62	-0.05534304
212	0xbd1e7cb1	-0.038693134
213	0xbd0ff391	-0.035144392
214	0xbcbfa928	-0.02339609
215	0x3d01d191	0.031694
216	0x39e5f06c	0.00043857412
217	0x3a839ce1	0.001004126
218	0x3a777d9e	0.00094410207
219	0x3a80ba4e	0.0009821148
220	0x3a759347	0.00093679543
221	0x3b81956d	0.0039545805
222	0x3a172b88	0.00057666795
223	0x39b00e1b	0.00033579845
224	0x3b2e2e9b	0.0026578072
225	0x3b247928	0.0025096629
226	0x3af9b9a8	0.0019052522
227	0x3ac425fa	0.0014964931
228	0x3aec0caa	0.0018009145
229	0x3a637898	0.00086773327
230	0x3ab5fbe7	0.0013884277
231	0x3af75968	0.001887125
232	0x3af39c2b	0.001858597
233	0x3b39c9da	0.0028349073
234	0x3b402ff5	0.002932546
235	0x3ab2d49b	0.0013643684
236	0x38143713	3.533724e-05
237	0x3afa33e5	0.0019088952
238	0x3b85a95a	0.004079026
239	0x3ac66558	0.0015136404
240	0x3b36a4dd	0.0027869262
241	0x3b173341	0.0023071321
242	0x3b19ad98	0.0023449417
243	0x36509a55	3.1084248e-06
244	0x3a92a45b	0.0011187898
245	0x3b2b6cf5	0.0026157473
246	0x3b0697d8	0.0020537283
247	0xbaaabf35	-0.0013026955
248	0xba3c72b3	-0.00071887224
249	0x3a183f4f	0.00058077736
250	0x3a8eaa6b	0.0010884529
251	0xbaedb53b	-0.0018135676
252	0xbe9100e9	-0.28321007
253	0xbe3b7172	-0.18304995
254	0xbdfc4bbd	-0.123191334
255	0xbde91350	-0.11380637

fc1.bias f4 [10]
0	0x3efc7657	0.49309036
1	0x3c66bac4	0.014082614
2	0xbf5c3909	-0.8602453
3	0x3e590d71	0.21196534
4	0x3f041759	0.51598126
5	0xbf653907	-0.8954014
6	0xbdd98bfb	-0.10622402
7	0xbfe75ed3	-1.8075813
8	0x401de3d9	2.4670317
9	0xbcf66539	-0.030077564
