quantization/saved_models/snet_quantized_cifar10.pt (torch, 11625 bytes, 6 tensors)

cpu f8 [6]
0.003847277956083417 0.016834788024425507 0.008067690767347813 0.00860910676419735 0.01501370593905449 0.012696127407252789
00000000: 0000 00a0 5384 6f3f 0000 0080 233d 913f
00000010: 0000 0020 cb85 803f 0000 00c0 a6a1 813f
00000020: 0000 0080 81bf 8e3f 0000 0060 6d00 8a3f

model_fp32.conv1.bias f4 [6]
0.24753867 -0.18852684 -0.43169686 -0.018853962 -1.5675889 -0.688229
00000000: c77a 7d3e 2e0d 41be 5f07 ddbe a073 9abc
00000010: c1a6 c8bf c72f 30bf

cpu f8 [12]
0.005713433027267456 7.669578189961612e-05 0.005489579867571592 0.0070284390822052956 0.006812508683651686 0.005464337766170502 8.101932326098904e-05 0.0036396589130163193
0.013830878771841526 0.005547557957470417 0.006659190636128187 0.0068562645465135574
00000000: 0000 0000 f866 773f 0000 0080 f71a 143f
00000010: 0000 00e0 3d7c 763f 0000 0040 dac9 7c3f
00000020: 0000 00e0 6ee7 7b3f 0000 0000 c661 763f
00000030: 0000 0060 1d3d 153f 0000 0000 ebd0 6d3f
00000040: 0000 0020 5d53 8c3f 0000 0040 09b9 763f
00000050: 0000 00e0 aa46 7b3f 0000 0080 5015 7c3f

model_fp32.conv2.bias f4 [12]
1.0799859 -0.004204566 0.6585409 0.13426621 0.32148296 0.37874004 -0.0048806444 0.14638999
-0.9899298 -0.107940935 1.1110011 0.29900074
00000000: fa3c 8a3f 75c6 89bb 2396 283f 157d 093e
00000010: 6a99 a43e 37ea c13e d0ed 9fbb 42e7 153e
00000020: 0a6c 7dbf 2310 ddbd 4935 8e3f a016 993e

cpu f8 [10]
0.0022765242028981447 0.004087311215698719 0.0021343929693102837 0.0022608975414186716 0.002014918951317668 0.0019872908014804125 0.0023490535095334053 0.002636766294017434
0.0033478091936558485 0.0036842392291873693
00000000: 0000 00a0 37a6 623f 0000 0040 dbbd 703f
00000010: 0000 0080 257c 613f 0000 0020 7285 623f
00000020: 0000 0060 9781 603f 0000 00a0 a647 603f
00000030: 0000 0080 523e 633f 0000 0020 b399 653f
00000040: 0000 0060 dd6c 6b3f 0000 00e0 682e 6e3f

cpu f4 [10]
0.49309036 0.014082614 -0.8602453 0.21196534 0.51598126 -0.8954014 -0.10622402 -1.8075813
2.4670317 -0.030077564
00000000: 5776 fc3e c4ba 663c 0939 5cbf 710d 593e
00000010: 5917 043f 0739 65bf fb8b d9bd d35e e7bf
00000020: d9e3 1d40 3965 f6bc
