quantization/saved_models/snet_cifar10.pt (torch, 22743 bytes, 6 tensors)

conv1.weight f4 [6, 3, 3, 3]
-0.4100412 -0.46461436 -0.8094945 -0.08003592 -0.13868643 -0.21190813 0.8544786 0.8399836
0.557944 0.10046654 0.055679567 0.13882159 -0.3062384 -0.11603242 -0.14227244 -0.19140887
-0.10662552 -0.15977803 -0.012534489 0.4521489 0.75791574 0.35905817 0.69418997 0.8613946
-0.40550902 -0.11210788 0.01814348 0.117603734 -0.060501453 -0.067958735 0.17027022 0.3149898
0.026071426 0.012697168 0.084297515 -0.004123263 0.10447254 0.14417993 0.073018365 0.10710024
-0.004361054 -0.030522602 -0.19247523 -0.22840096 -0.13047636 -0.09289438 -0.09342571 0.03488522
-0.19842522 -0.1912021 0.15082137 0.05458492 0.06461635 0.20678605 0.5128158 0.38836604
0.64141124 -0.6418983 -0.58090705 -0.7064028 -0.58664215 -0.13813369 -0.43121088 0.26468784
0.36485878 0.42317602 -0.38761613 -0.27694762 -0.40957287 -0.18241532 -0.082977936 -0.39100724
0.18669832 0.21892641 0.34190223 0.38168728 0.34511527 -0.22491303 0.75952566 0.92657274
0.26524755 0.2864485 0.30228263 -0.6157614 0.45143777 0.22010148 -0.2887705 -0.40535092
0.20986168 0.6360622 0.33776933 0.15041733 -0.6849186 0.6517078 0.20203048 -0.5606395
-0.06427122 0.29680648 0.20786896 0.1009574 0.4298336 -0.457775 0.095825486 0.3229241
-0.33383176 -0.79117715 -0.2225514 -0.0384573 -0.03656075 0.28750128 0.13135216 -0.13837081
0.011587386 0.2194552 0.032663703 0.042243898 0.18013488 0.12286231 0.3178776 0.21171875
-0.22597408 0.01412417 -0.14575769 -0.33923936 -0.37180853 -0.24983399 0.2975559 0.10382243
0.007062749 -0.24164121 -0.14076959 -0.13785087 -0.42534605 -0.38156813 -0.24007088 0.040025037
0.45687938 0.016909352 -0.013196512 0.7366221 0.18664253 -0.043199908 0.31324354 -0.4845455
-0.13481459 -0.047977746 -0.581514 -0.04623322 0.21901985 -0.61484456 -0.17592712 -0.11820858
-0.6126604 0.4270857 -0.0033873704 -0.7675447 0.38544825 0.13458717 -0.40600136 0.28461868
0.2005551 -0.027626453
00000000: ecf0 d1be efe1 edbe 083b 4fbf dfe9 a3bd
00000010: d103 0ebe 72fe 58be 1cbf 5a3f 2a09 573f
00000020: 6bd5 0e3f 67c1 cd3d 4210 643d 3f27 0e3e
00000030: 48cb 9cbe 68a2 edbd deaf 11be b000 44be
00000040: 7b5e dabd da9c 23be 755d 4dbc 1080 e73e
00000050: c406 423f 79d6 b73e 6fb6 313f 5b84 5c3f
00000060: e19e cfbe d198 e5bd a3a1 943c 3ada f03d
00000070: 5fd0 77bd f32d 8bbd 515b 2e3e 5846 a13e
00000080: be93 d53c c807 503c 2da4 ac3d 701c 87bb
00000090: b3f5 d53d e7a3 133e a78a 953d 5f57 db3d
000000a0: 2ce7 8ebb 890a fabc 3a18 45be f1e1 69be
000000b0: 989b 05be 693f bebd fb55 bfbd cee3 0e3d
000000c0: fb2f 4bbe 7cca 43be eb70 1a3e 7094 5f3d
000000d0: 9455 843d b9bf 533e e547 033f ead7 c63e
000000e0: 8733 243f 7253 24bf 53b6 14bf d0d6 34bf
000000f0: 2e2e 16bf eb72 0dbe acc7 dcbe 2a85 873e
00000100: c5ce ba3e 87aa d83e 9f75 c6be 14cc 8dbe
00000110: 89b3 d1be 15cb 3abe 56f0 a9bd 1a32 c8be
00000120: d82d 3f3e 3f2e 603e cf0d af3e 846c c33e
00000130: f3b2 b03e 9a4f 66be 4670 423f df33 6d3f
00000140: 87ce 873e 61a9 923e cac4 9a3e 8aa2 1dbf
00000150: da22 e73e 4862 613e bad9 93be 288a cfbe
00000160: fbe5 563e f9d4 223f 1af0 ac3e 0007 1a3e
00000170: d356 2fbf 53d6 263f 14e1 4e3e 1286 0fbf
00000180: a1a0 83bd 05f7 973e 9adb 543e c1c2 ce3d
00000190: 2613 dc3e 7c61 eabe 2740 c43d 4f56 a53e
000001a0: ffeb aabe 968a 4abf 84e4 63be 6785 1dbd
000001b0: bac0 15bd 5e33 933e 2e81 063e 14b1 0dbe
000001c0: 05d9 3d3c ddb8 603e 60ca 053d f007 2d3d
000001d0: 4775 383e 3c9f fb3d dac0 a23e cdcc 583e
000001e0: c065 67be 1069 673c 8141 15be c8b0 adbe
000001f0: b05d bebe 7bd4 7fbe 3f59 983e dba0 d43d
00000200: a26e e73b cb70 77be e725 10be c728 0dbe
00000210: f5c6 d9be e65c c3be 24d5 75be 4bf1 233d
00000220: 18ec e93e 7b85 8a3c 2f36 58bc 4493 3c3f
00000230: 381f 3f3e 63f2 30bd 7561 a03e 5916 f8be
00000240: d60c 0abe 5084 44bd 1ade 14bf 0b5f 3dbd
00000250: bd46 603e 7466 1dbf 3d26 34be 5717 f2bd
00000260: 50d7 1cbf faaa da3e a5fe 5dbb cf7d 44bf
00000270: 7959 c53e 38d1 093e 69df cfbe 8ab9 913e
00000280: 515e 4d3e df50 e2bc

conv1.bias f4 [6]
-1.4567791 -2.1553257 -2.0951865 -1.7669191 -2.3199568 -2.2903745
00000000: bd77 babf dbf0 09c0 8917 06c0 682a e2bf
00000010: 2c7a 14c0 7f95 12c0

conv2.weight f4 [12, 6, 3, 3]
-0.7418867 -0.4466071 -0.15312113 -0.2841796 -0.26861522 -0.26720023 0.1665744 -0.040086806
-0.22769092 -0.32589144 -0.14195251 -0.19196716 -0.13865313 -0.18593575 0.039599966 -0.23132089
-0.25186348 -0.23136647 0.03146923 -0.22019874 -0.38351786 -0.3236345 0.4956642 -0.34335497
-0.63916945 -0.4959279 0.5519086 -0.6061483 0.10684695 0.07051906 0.057383202 -0.47704545
-0.18834928 0.2747289 0.20176947 -0.5167429 0.066316366 0.31277165 0.12723054 -0.04908282
-0.003648969 0.40373644 -0.2127819 -0.2849783 -0.08937058 0.2312813 0.22321303 -0.43756083
0.038586065 0.12057993 0.61962414 -0.5970423 -0.27322033 -0.026960203 -0.21715392 -0.31388867
-0.37101457 -0.13340665 -0.28525734 -0.27777082 -0.11863665 -0.17783657 -0.032176103 0.043454636
-0.11516329 0.040221393 -0.035378177 -0.20543362 -0.003259224 -0.13608815 -0.10732816 -0.025297238
-0.27552244 -0.26676187 -0.15992844 -0.15970324 -0.1311368 -0.098344155 -0.24535379 -0.24333856
-0.16866253 -0.37755165 -0.47911102 -0.47053474 -0.38913107 -0.4306148 -0.4465472 -0.4850825
-0.48570624 -0.46454027 -0.28406423 -0.3063164 -0.3014865 -0.19965817 -0.19993289 -0.1630972
-0.2721761 -0.32555085 -0.26655775 -0.5054747 -0.47199464 -0.4308892 -0.5064141 -0.49997705
-0.45272145 -0.5618977 -0.55817163 -0.54654735 -0.25033352 -0.37845 -0.21854149 -0.24376793
-0.26817182 -0.2949138 -0.32242003 0.021358252 0.008452414 -0.055689674 -0.24295641 -0.15498383
-0.1274626 -0.117829986 -0.24106929 -0.20283362 -0.23880292 -0.3199574 -0.13029864 -0.31099883
-0.37873936 -0.21963143 0.014858333 -0.11755575 0.030307947 -0.15295923 -0.37700903 -0.5184698
-0.5970878 -0.40766823 -0.3507362 -0.20903417 -0.21402 -0.44724196 -0.6505585 -0.43786216
-0.027743632 -0.118972465 0.054436292 0.18589295 -0.11309136 -0.110229395 0.0614486 -0.08204257
-0.12829815 -0.04438637 -0.2021881 -0.024202017 -0.13935627 0.18932797 0.11770294 -0.50863934
-0.8161506 -0.6984768 -0.27764198 -0.22277036 -0.09106792 -0.55804735 -0.5931918 -0.53092694
0.5291413 0.21546832 0.33183601 0.023213556 -0.13100241 -0.10002486 0.049375553 -0.012288204
-0.17921445 0.09014506 -0.01363575 0.061855193 -0.32455814 0.08832281 0.036734458 -0.059632823
-0.33878523 -0.18241805 -0.12091152 -0.2507912 -0.1689437 -0.056048006 -0.34109995 -0.1925169
-0.58295405 -0.6008647 -0.3946312 -0.22739008 0.089954056 -0.04548658 -0.04903115 -0.30129838
-0.36806762 -0.11487285 -0.17467022 -0.09366222 0.0071408157 0.052961007 -0.000788843 -0.025731111
0.04555933 -0.10387708 0.17169422 -0.097508654 -0.1314427 -0.23260686 0.29182836 0.013718375
-0.028844712 0.020338796 -0.03694278 0.06504662 -0.07897171 0.029188262 -0.06815274 -0.12406351
-0.1707772 -0.19685555 -0.26249498 -0.045898102 -0.096577056 -0.24352615 -0.24723475 -0.029149717
-0.067233354 -0.0691053 -0.10701468 0.02375388 -0.03935318 -0.2284918 -0.062947854 -0.078080155
-0.14404203 -0.05139639 -0.13494731 -0.090982415 -0.0028627694 -0.117683664 -0.19060345 -0.19047162
-0.21340887 -0.11020403 -0.099092446 -0.05199891 -0.08838924 -0.12554123 -0.053133473 -0.035776168
00000000: 49ec 3dbf b0a9 e4be c9cb 1cbe fd7f 91be
00000010: ef87 89be 78ce 88be 7b92 2a3e 1032 24bd
00000020: cf27 69be 3edb a6be 005c 11be 0a93 44be
00000030: 16fb 0dbe f165 3ebe 9333 223d 62df 6cbe
00000040: 40f4 80be 55eb 6cbe e1e5 003d c77b 61be
00000050: 745c c4be 6cb3 a5be b3c7 fd3e 39cc afbe
00000060: 9ca0 23bf 43ea fdbe e249 0d3f 892c 1bbf
00000070: 93d2 da3d 4c6c 903d a60a 6b3d 4d3f f4be
00000080: a2de 40be 44a9 8c3e a89c 4e3e 4349 04bf
00000090: e0d0 873d 9b23 a03e b948 023e 110b 49bd
000000a0: 8b23 6fbb 8bb6 ce3e 80e3 59be ade8 91be
000000b0: ec07 b7bd 01d5 6c3e f591 643e f907 e0be
000000c0: 6c0c 1e3d 9cf2 f63d b09f 1e3f c4d7 18bf
000000d0: 89e3 8bbe a5db dcbc 995d 5ebe 04b6 a0be
000000e0: 9ff5 bdbe c19b 08be 400d 92be fa37 8ebe
000000f0: c6f7 f2bd ca1a 36be 17cb 03bd 7dfd 313d
00000100: bbda ebbd 30bf 243d b5e8 10bd 315d 52be
00000110: b498 55bb b15a 0bbe dece dbbd 273c cfbc
00000120: 4711 8dbe 0395 88be 48c4 23be 3f89 23be
00000130: ba48 06be a968 c9bd 063e 7bbe be2d 79be
00000140: dfb5 2cbe 734e c1be 0a4e f5be eee9 f0be
00000150: 303c c7be 8b79 dcbe d6a1 e4be bc5c f8be
00000160: 7dae f8be 39d8 edbe de70 91be 81d5 9cbe
00000170: 705c 9abe 3173 4cbe 35bb 4cbe f402 27be
00000180: aa5a 8bbe 9aae a6be 427a 88be ca66 01bf
00000190: 48a9 f1be 829d dcbe 5ba4 01bf fefc ffbe
000001a0: 1bcb e7be 87d8 0fbf 56e4 0ebf 87ea 0bbf
000001b0: b72b 80be 33c4 c1be 57c9 5fbe 4d9e 79be
000001c0: d14d 89be f1fe 96be 3d14 a5be 80f7 ae3c
000001d0: fe7b 0a3c db1a 64bd 91c9 78be 15b4 1ebe
000001e0: 8e85 02be d950 f1bd deda 76be 9eb3 4fbe
000001f0: c188 74be 75d1 a3be 026d 05be 3d3b 9fbe
00000200: 20ea c1be 10e7 60be 5e70 733c 12c1 f0bd
00000210: 5f48 f83c 58a1 1cbe 5407 c1be 70ba 04bf
00000220: bfda 18bf e4b9 d0be b293 b3be 0e0d 56be
00000230: 0f28 5bbe e6fc e4be 008b 26bf 782f e0be
00000240: 9d46 e3bc d6a7 f3bd 97f8 5e3d b95a 3e3e
00000250: 719c e7bd f3bf e1bd 87b1 7b3d ef05 a8bd
00000260: 9760 03be 7bce 35bd 660a 4fbe 4f43 c6bc
00000270: 69b3 0ebe 31df 413e 3d0e f13d 3036 02bf
00000280: 3fef 50bf 60cf 32bf 1727 8ebe ea1d 64be
00000290: d181 babd 31dc 0ebf 6bdb 17bf d4ea 07bf
000002a0: ce75 073f baa3 5c3e 69e6 a93e 5b2a be3c
000002b0: 7f25 06be d5d9 ccbd 053e 4a3d 7754 49bc
000002c0: fe83 37be f99d b83d 7b68 5fbc df5b 7d3d
000002d0: 7c2c a6be 97e2 b43d df76 163d 8c41 74bd
000002e0: 4275 adbe cccb 3abe 76a0 f7bd b467 80be
000002f0: 94ff 2cbe 9892 65bd a7a4 aebe 2623 45be
00000300: 7a3c 15bf 45d2 19bf 1a0d cabe f2d8 68be
00000310: d539 b83d 2350 3abd e3d4 48bd c843 9abe
00000320: 5c73 bcbe 7542 ebbd c0dc 32be fad1 bfbd
00000330: 81fd e93b a4ed 583d 5cca 4eba 0dca d2bc
00000340: 6c9c 3a3d 82bd d4bd 9cd0 2f3e 9eb2 c7bd
00000350: ea98 06be 7e30 6ebe 876a 953e 09c3 603c
00000360: bf4b ecbc 8c9d a63c 5051 17bd 2a37 853d
00000370: ebbb a1bd 391c ef3c aa93 8bbd 0215 febd
00000380: 38e0 2ebe 8094 49be be65 86be a6ff 3bbd
00000390: 31ca c5bd eb5e 79be 1b2b 7dbe 63cb eebc
000003a0: a4b1 89bd 1487 8dbd 832a dbbd 7f97 c23c
000003b0: cd30 21bd c1f9 69be ceea 80bd 7de8 9fbd
000003c0: c17f 13be 0585 52bd a12f 0abe fd54 babd
000003d0: 4d9d 3bbb 2204 f1bd 8d2d 43be fe0a 43be
000003e0: db87 5abe a7b2 e1bd fbf0 cabd cffc 54bd
000003f0: 6b05 b5bd e18d 00be 7ca2 59bd 088a 12bd

conv2.bias f4 [12]
-0.06414456 -0.22848278 -0.3352456 -0.3551229 -0.04420891 -0.037143156 -0.28044483 -0.10261058
-0.5078431 -0.28068674 0.44297484 -0.18965933
00000000: 395e 83bd 64f7 69be 50a5 abbe abd2 b5be
00000010: 6714 35bd 6c23 18bd 7796 8fbe 7f25 d2bd
00000020: 0102 02bf 2cb6 8fbe 99cd e23e 0e36 42be

fc1.weight f4 [10, 432]
0.029030737 -0.09997745 -0.02680315 -0.19900012 -0.28279248 -0.30951846 -0.008419751 0.008042689
-0.04474516 -0.12160759 0.00075778237 -0.21649215 0.08620286 0.14848885 0.13752867 0.088722564
0.07465997 -0.005769547 0.08227324 0.005401358 0.12267132 0.17583291 0.22765352 0.008402868
-0.1272287 -0.03227378 0.11725435 -0.017247923 0.12058703 0.03523597 -0.33398175 -0.24879447
0.056705866 0.09042405 0.018012237 -0.039323565 0.0035161895 0.055515103 0.07007162 0.038220953
0.08204516 0.13446924 -0.18639888 -0.008282617 0.09995614 0.24367152 0.23616092 0.0662796
-0.11341758 -0.010713212 0.16307132 0.18023783 0.16409212 0.0311065 -0.091333434 -0.043343116
-0.0378738 -0.03521925 -0.012930017 0.012977203 0.074507676 -0.068825915 -0.07996663 0.122801624
-0.104035854 0.121083066 0.074087925 0.10906875 0.040407777 0.10423993 0.13118453 0.13622102
-0.00046707134 -0.18933561 -0.094825715 0.023462122 0.011234427 -0.05379524 -0.14603958 -0.18144071
-0.11694445 -0.060638294 0.039211914 -0.097637035 -0.047028877 -0.056282405 -0.030087292 -0.070376106
0.03821754 0.031519838 -0.01931892 0.09294324 0.14268622 -0.026153812 0.010359865 -0.025121275
0.04312208 -0.052198615 0.068801664 -0.08017715 -0.04804598 -0.06936859 -0.03488462 0.059271615
-0.039329745 0.03912697 -0.08092581 -0.15377563 -0.008602871 0.044444777 0.007191711 -0.05378506
-0.06100756 -0.05852831 -0.0069542914 0.102305435 0.11918696 0.019635485 -0.05907253 0.021494647
0.0032847559 0.23126228 0.14131576 0.124329105 0.08900348 0.14219783 0.06545743 0.23259115
0.2335379 0.24262917 0.2874262 0.121373825 -0.0031520633 0.19736052 0.21353829 0.11899855
0.024268055 0.017773742 -0.10404812 -0.06921909 -0.017217083 0.05260225 0.036346138 -0.071539305
0.05122417 0.035846714 -0.029746909 0.03163769 0.0533542 0.05049458 -0.031394955 0.02182143
-0.01899002 -0.06774361 0.022347605 -0.012337566 0.05406975 -0.009830488 0.015099502 0.0035208964
0.018514395 0.09721187 0.06419355 0.058907274 0.023447806 0.0027646832 0.109421626 0.088330016
0.08078915 0.036079735 0.016401531 -0.013486847 0.026084656 0.030139532 0.0684112 0.027161837
0.06232546 0.074683286 0.016943341 0.025430461 -0.30864424 -0.3238335 -0.3093665 -0.21872182
-0.108176835 -0.10252928 -0.022690436 -0.1258955 -0.13461475 -0.013742426 -0.106692456 0.008984995
-0.10272661 -0.13101864 -0.07607117 -0.018244816 -0.045241967 0.02780278 -0.11935116 -0.09567951
-0.15321648 -0.04726551 -0.020424956 0.114508346 -0.12831208 -0.16440392 -0.059829775 -0.030336872
0.021972362 -0.12752204 -0.037992634 -0.08283285 -0.028536035 -0.0107763605 -0.18416603 -0.23490043
0.025178801 0.05770082 0.054198716 0.056408785 0.053780876 0.22729112 0.03311588 0.019295048
0.15264995 0.14415145 0.109417036 0.08594134 0.10345638 0.04982731 0.07972785 0.108332686
0.106717885 0.16272451 0.16848 0.07837295 0.0020300595 0.10963562 0.23432584 0.0869073
0.16002132 0.13248953 0.13461936 0.00017855642 0.06428624 0.15012734 0.117962256 -0.07477126
-0.041275565 0.03334743 0.06246901 -0.10418122 -0.28231746 -0.3041479 -0.23704961 -0.29055485
00000000: ded1 ed3c fac0 ccbd 4892 dbbc b0c6 4bbe
00000010: 2dca 90be 3479 9ebe fff2 09bc 7cc5 033c
00000020: b346 37bd 660d f9bd eaa5 463a 1eb0 5dbe
00000030: 208b b03d 760d 183e 51d4 0c3e 2db4 b53d
00000040: 54e7 983d 780e bdbb df7e a83d e0fd b03b
00000050: 1a3b fb3d 8b0d 343e 011e 693e 2fac 093c
00000060: 3e48 02be 8331 04bd 0c23 f03d 844b 8dbc
00000070: 55f6 f63d 9853 103d a8ff aabe fac3 7ebe
00000080: 6944 683d 3f30 b93d 668e 933c bf11 21bd
00000090: df6f 663b ce63 633d b681 8f3d 938d 1c3d
000000a0: 4b07 a83d 4eb2 093e 59df 3ebe d0b3 07bc
000000b0: ceb5 cc3d 0785 793e 2bd4 713e 99bd 873d
000000c0: 7a47 e8bd 7886 2fbc 2bfc 263e 4490 383e
000000d0: c407 283e 0fd3 fe3c 060d bbbd 8d88 31bd
000000e0: 8f21 1bbd 0f42 10bd 6cd8 53bc 569e 543c
000000f0: 7b97 983d 9af4 8cbd 8bc5 a3bd 6b7f fb3d
00000100: c010 d5bd 66fa f73d 69bb 973d 705f df3d
00000110: a082 253d bf7b d53d 3d55 063e 867d 0b3e
00000120: 41e1 f4b9 32e1 41be fc33 c2bd a333 c03c
00000130: 9a10 383c 6658 5cbd 668b 15be 98cb 39be
00000140: 9280 efbd dc5f 78bd ac9c 203d edf5 c7bd
00000150: 5aa1 40bd 6188 66bd a079 f6bc 5921 90bd
00000160: ff89 1c3d f21a 013d b642 9ebc 0759 be3d
00000170: 561c 123e 8540 d6bc 6cbc 293c 22cb cdbc
00000180: c7a0 303d 37ce 55bd e3e7 8c3d eb33 a4bd
00000190: ddcb 44bd 1f11 8ebd 2de3 0ebd cbc6 723d
000001a0: 3a18 21bd 9a43 203d 6ebc a5bd 5c77 1dbe
000001b0: 0ef3 0cbc ba0b 363d 72a8 eb3b b94d 5cbd
000001c0: 10e3 79bd 62bb 6fbd d3e0 e3bb 8385 d13d
000001d0: 4b18 f43d 99da a03c 0af6 71bd 8b15 b03c
000001e0: 0f45 573b 05d0 6c3e 14b5 103e 42a0 fe3d
000001f0: 7547 b63d 4f9c 113e 8c0e 863d 602c 6e3e
00000200: 8f24 6f3e c873 783e 8729 933e d792 f83d
00000210: d992 4ebb e018 4a3e c8a9 5a3e 83b5 f33d
00000220: cdcd c63c 3d9a 913c 2e17 d5bd bdc2 8dbd
00000230: d70a 8dbc 7575 573d b0df 143d 3383 92bd
00000240: 6fd0 513d 01d4 123d caaf f3bc 8696 013d
00000250: ef89 5a3d 68d3 4e3d ff97 00bd dbc2 b23c
00000260: f590 9bbc 29bd 8abd 5312 b73c 8123 4abc
00000270: 3e78 5d3d 0e10 21bc e763 773c d7be 663b
00000280: 80ab 973c 0417 c73d e877 833d c148 713d
00000290: 9d15 c03c b02f 353b 7218 e03d 5ee6 b43d
000002a0: c874 a53d 58c8 133d 815c 863c f0f7 5cbc
000002b0: 7daf d53c 2ee7 f63c 2c1b 8c3d 8082 de3c
000002c0: fb48 7f3d 8df3 983d c3cc 8a3c 8b53 d03c
000002d0: 9e06 9ebe 81cd a5be 4965 9ebe 9df8 5fbe
000002e0: d18b ddbd dffa d1bd 4be1 b9bc c0ea 00be
000002f0: 73d8 09be ea27 61bc 9381 dabd cd35 133c
00000300: 5462 d2bd c029 06be 34cb 9bbd 2776 95bc
00000310: a44f 39bd a8c2 e33c 626e f4bd 9ef3 c3bd
00000320: c8e4 1cbe 7b99 41bd 3d52 a7bc 5a83 ea3d
00000330: 3e64 03be 8059 28be 1110 75bd 0885 f8bc
00000340: 62ff b33c 2395 02be 2a9e 1bbd 45a4 a9bd
00000350: 67c4 e9bc 558f 30bc 0596 3cbe bd89 70be
00000360: c643 ce3c b257 6c3d 79ff 5d3d e60c 673d
00000370: 5649 5c3d 01bf 683e 84a4 073d a610 9e3c
00000380: 4550 1c3e 709c 133e 0a16 e03d 0302 b03d
00000390: f0e0 d33d b917 4c3d 5b48 a33d 87dd dd3d
000003a0: e88e da3d 41a1 263e 0586 2c3e ff81 a03d
000003b0: bf0a 053b a488 e03d 1df3 6f3e 74fc b13d
000003c0: a1dc 233e 56ab 073e a8d9 093e e03a 3b39
000003d0: 81a8 833d fbba 193e 3296 f13d ad21 99bd
000003e0: 9110 29bd 5197 083d 81df 7f3d f75c d5bd
000003f0: ea8b 90be 46b9 9bbe 22bd 72be 9bc3 94be

fc1.bias f4 [10]
1.2167822 -0.6266749 0.3082861 0.21004133 -0.17841907 0.14205213 -0.5391916 -0.7822956
1.0832049 -0.6838659
00000000: 85bf 9b3f c46d 20bf add7 9d3e 1315 573e
00000010: 7db3 36be 1d76 113e 7608 0abf 8644 48bf
00000020: 75a6 8a3f d611 2fbf
