distillation/snet.pth (torch, 22879 bytes, 6 tensors)

conv1.weight f4 [6, 3, 3, 3]
0	0x3dcd6b86	0.10030274
1	0x3e031d65	0.12804182
2	0xbdc344d4	-0.09534612
3	0x3e203bb3	0.15647773
4	0x3c338030	0.010955855
5	0xbe2baf11	-0.16766001
6	0x3d517254	0.051134422
7	0xbd550cfc	-0.052014336
8	0xbc837af0	-0.016049832
9	0x3e3517c5	0.17684849
10	0x3e07dfed	0.13269015
11	0x3d80810e	0.06274615
12	0xbdfc00e4	-0.123048574
13	0xbe411138	-0.18854225
14	0xbe0ffbc9	-0.14060892
15	0x3e12dd01	0.14342119
16	0xbd94fcf6	-0.07274811
17	0xbd9f5e94	-0.07781711
18	0xbc64c0a0	-0.013961941
19	0x3df899b6	0.12138693
20	0xbda7375c	-0.08164856
21	0xbcfd3808	-0.030910507
22	0x3e0287c7	0.12747107
23	0xbc36ac80	-0.011149526
24	0xbe06363f	-0.1310663
25	0x3dd5a63e	0.10432099
26	0x3db4131e	0.08792709
27	0x3da3793e	0.079821095
28	0xbe285e96	-0.16442332
29	0xbe2e47d6	-0.1701959
30	0x3b950740	0.0045479834
31	0xbb687680	-0.0035471022
32	0xbc2df440	-0.010617316
33	0x3d92271e	0.07136367
34	0xbdeb0dec	-0.11477265
35	0xbe025bc1	-0.12730314
36	0x3de851ee	0.11343752
37	0x3d680cb8	0.056652755
38	0x3dced17a	0.10098548
39	0x3ddd7d3a	0.10814901
40	0x3dd82882	0.10554601
41	0xbe06e786	-0.13174257
42	0xbe03499a	-0.12821046
43	0xbe01638e	-0.12635633
44	0xb87ab000	-5.9768558e-05
45	0x3c52eff0	0.012874588
46	0xbe1f62f6	-0.15565094
47	0xbcaea5c0	-0.02131927
48	0x3deda43e	0.11603592
49	0xbd9fb811	-0.0779878
50	0x3dc05a02	0.09392168
51	0xbd685c1c	-0.056728467
52	0xbdd0149f	-0.10160183
53	0xbe14c9fc	-0.14530176
54	0x3dbfa18e	0.09356986
55	0x3cdabb08	0.026700512
56	0x3e1d27a1	0.15347148
57	0xbdd12397	-0.10211866
58	0xbe1ff152	-0.156194
59	0x3e17a027	0.14807187
60	0xbe0ba284	-0.13636214
61	0x3dc035be	0.093852505
62	0xbd049c14	-0.03237541
63	0x3e26b007	0.16278087
64	0xbd91386d	-0.070908405
65	0xbd1b60d4	-0.03793414
66	0xbe25b1d1	-0.16181113
67	0xbcbc5270	-0.022988528
68	0x3d298fa4	0.041396752
69	0x3d933292	0.0718738
70	0xbd43d310	-0.047808707
71	0x3df27012	0.11837782
72	0xbe2b228c	-0.16712397
73	0x3e149a8f	0.14512084
74	0xbdace7df	-0.084426634
75	0xbdc2310f	-0.094820134
76	0x3dacfd96	0.08446805
77	0x3e2ef06d	0.17083903
78	0x3e07b65d	0.1325316
79	0x3daedfda	0.0853879
80	0x3df95522	0.12174441
81	0xbdb4f2fa	-0.088354066
82	0xbe0e8367	-0.13917314
83	0xbdc90f11	-0.09817327
84	0xbdd93102	-0.106050506
85	0xbdef2fa4	-0.116790086
86	0x3e1937cb	0.1496269
87	0xbe0d5fa1	-0.13806011
88	0x3daec876	0.08534329
89	0x3d908456	0.07056491
90	0xbdd4243a	-0.10358472
91	0x3d601718	0.054709524
92	0xbe178444	-0.14796549
93	0x3da6cf4a	0.08145006
94	0xbe2c2b1d	-0.16813321
95	0xbd764f48	-0.060134202
96	0xbd3c32a0	-0.045946717
97	0xbbae34e0	-0.005316362
98	0x3dd040d2	0.101686135
99	0xbd444f54	-0.047927216
100	0x3d948fd2	0.07253994
101	0xbe0eaab6	-0.13932309
102	0x3e316457	0.17323433
103	0xbdc1433a	-0.094366506
104	0xbe438820	-0.19094896
105	0x3dd795a6	0.1052659
106	0x3da287f2	0.07936086
107	0xbe0c0f2e	-0.13677666
108	0xbe36b83f	-0.17843722
109	0xbd9882a0	-0.0744679
110	0xbdae2cb4	-0.0850462
111	0x3e03fdbb	0.12889759
112	0x3d2ab800	0.041679382
113	0xbe12969a	-0.14315262
114	0xbdfbfb9c	-0.1230385
115	0xbe01897f	-0.12650107
116	0x3e19768f	0.14986633
117	0x3d2160bc	0.039398894
118	0xbddb7828	-0.10716277
119	0xbdcd4dcc	-0.10024604
120	0x3d544648	0.051824838
121	0xbe1ae128	-0.15124953
122	0xbd7598ac	-0.059960052
123	0x3e0edd35	0.13951571
124	0x3ad71a00	0.0016410947
125	0xbd7b2834	-0.061317638
126	0x3e32527d	0.1741428
127	0x3ddc2c36	0.1075062
128	0xbe205a21	-0.15659381
129	0xbe22aa8c	-0.15885371
130	0x3e005ab3	0.12534599
131	0x3c551020	0.013004333
132	0x3e31c099	0.17358626
133	0x3e02b18f	0.12763046
134	0x3dc19246	0.094517276
135	0x3d8658f2	0.06559934
136	0x3d8eefe2	0.06979348
137	0xbdcc3d96	-0.09972684
138	0xbe343c5b	-0.17601149
139	0x3e3cb477	0.18428217
140	0xbcad5e98	-0.02116327
141	0x3d85a86e	0.06526266
142	0x3e02f5dd	0.12789102
143	0x3e43b6cf	0.19112705
144	0xbd0dc77c	-0.03461407
145	0x3c5af7b0	0.013364717
146	0xbe0ba3ec	-0.1363675
147	0x3d738e1c	0.059461698
148	0x3e0f6a63	0.14005427
149	0xbdc135e6	-0.094341084
150	0x3d0c33e0	0.03422916
151	0xbe256ecc	-0.16155547
152	0x3d076498	0.033054918
153	0xbe16f68e	-0.1474249
154	0xbdd06051	-0.10174621
155	0xbe2cfd9e	-0.16893622
156	0xbd0a3be4	-0.033748522
157	0xbd194650	-0.03742057
158	0xbe3dab3e	-0.18522355
159	0xbcddbce0	-0.027067602
160	0xbd775440	-0.06038308
161	0xbe2d35a8	-0.16915

conv1.bias f4 [6]
0	0xbe28889b	-0.16458361
1	0x3de5a036	0.112121984
2	0xbdbd4a0e	-0.092426404
3	0x3e34b06d	0.17645426
4	0x3ddef94e	0.10887395
5	0xbe19a187	-0.15003024

conv2.weight f4 [12, 6, 3, 3]
0	0xbda544b8	-0.08069748
1	0xbe03a58b	-0.12856118
2	0x3d6b6518	0.057469457
3	0xbdb1b368	-0.08676797
4	0xbd91a845	-0.07112173
5	0x3be989a0	0.007127002
6	0x3d85d9b0	0.06535661
7	0x3d625228	0.05525413
8	0xbd78d9ac	-0.060754463
9	0x3dfc5f2c	0.1232284
10	0x3dd70fa2	0.105010286
11	0xbdbcd212	-0.09219755
12	0x3df82b78	0.12117666
13	0xbd70e87e	-0.05881547
14	0xbd4f5c5c	-0.05062519
15	0xbdb24f1e	-0.08706497
16	0xbada7e80	-0.001666978
17	0xbc9974c8	-0.018732443
18	0xbdf89afe	-0.121389374
19	0xbdb60a28	-0.08888656
20	0x3d71070c	0.05884461
21	0x3cee77b0	0.029109806
22	0x3d47f990	0.048821986
23	0x3e07ca06	0.1326066
24	0xbce8382c	-0.028347097
25	0xbc934a74	-0.017979838
26	0xbe0585b8	-0.13039291
27	0xbdade91e	-0.08491729
28	0x3d32d030	0.043655574
29	0xbcaf3f5c	-0.021392517
30	0xbceafc34	-0.028684713
31	0xbdc60cd3	-0.09670415
32	0x3d8c9d74	0.06865969
33	0xbcf76458	-0.030199215
34	0xbd06541e	-0.032795064
35	0xbd989574	-0.07450381
36	0x3d089298	0.033342928
37	0xbd4dcac6	-0.050242208
38	0xbdf17e5c	-0.11791679
39	0xbdf976e7	-0.12180882
40	0x3d9e4568	0.07728082
41	0xbb71d940	-0.0036903173
42	0x3dee3c44	0.116325885
43	0xbb063b40	-0.0020482093
44	0xbdb66db8	-0.08907646
45	0xbde23900	-0.11046028
46	0xbdd486cb	-0.10377272
47	0xbcfd8f8c	-0.030952238
48	0x3dd8fae6	0.1059473
49	0xbcd99218	-0.02655892
50	0xbd33b842	-0.043876894
51	0x3caa7520	0.020807803
52	0x3d2ed114	0.04267986
53	0xbc318c00	-0.010836601
54	0x3cbe6ed0	0.023246199
55	0xbd9e64d2	-0.07734074
56	0xbd172d72	-0.036908574
57	0xbd3c8cf8	-0.046032876
58	0xbdb0dd27	-0.086359315
59	0xbe0125ec	-0.12612122
60	0xbcca83cc	-0.024721049
61	0x3dc138d6	0.09434669
62	0xbdcf229e	-0.101140246
63	0xbd8edadc	-0.06975338
64	0xbde80662	-0.113293424
65	0xbdf37b30	-0.118887305
66	0xbd2fcfc6	-0.042922758
67	0xba30fb00	-0.0006751269
68	0x3d10742c	0.03526704
69	0xbda3c06f	-0.07995688
70	0xbd3a26a4	-0.045447007
71	0x3c851c90	0.016248971
72	0x3d7b7f90	0.06140095
73	0x3d889af4	0.0667018
74	0xbdb70e41	-0.089382656
75	0xbcf23a18	-0.029568717
76	0xbc83656c	-0.016039573
77	0xbdbf5aaf	-0.093434684
78	0x3d03f16c	0.03221266
79	0xbc1ea300	-0.009682417
80	0xbd877581	-0.06614209
81	0x3cf756e8	0.030192807
82	0x3e057ec2	0.13036636
83	0x3e044e18	0.12920415
84	0x3d926aa2	0.07149245
85	0xbdff825e	-0.124760374
86	0xbda78ad9	-0.0818078
87	0xbe09081f	-0.13382004
88	0xbdc0034c	-0.09375629
89	0x3e09d074	0.13458425
90	0xbcb98434	-0.022646047
91	0xbde22797	-0.110427074
92	0xbdb098f8	-0.086229265
93	0x3d7c732c	0.061633274
94	0xbdbe8020	-0.09301782
95	0x3d90cf86	0.07070832
96	0x3b8322a0	0.0040019304
97	0xbdae0232	-0.084965125
98	0xbdd8952c	-0.10575327
99	0x3b2572c0	0.0025245398
100	0xbde47c4e	-0.11156522
101	0xbd92b1a6	-0.0716279
102	0xbdb9f650	-0.090801835
103	0xbe01fea0	-0.12694788
104	0x3c58d250	0.013233736
105	0x3dd105ea	0.10206206
106	0xbdf1c6c1	-0.118054874
107	0xbc94308c	-0.018089555
108	0x3d188f34	0.037245944
109	0x3b2a8640	0.002601996
110	0x3d99da5c	0.07512352
111	0x3d8635d2	0.06553234
112	0xbdb775f2	-0.08958043
113	0x3d5f0c34	0.054454997
114	0x3db39f4e	0.08770619
115	0x3d6b0ab8	0.05738327
116	0x3df7b728	0.12095481
117	0x3ddda660	0.10822749
118	0x3c178e50	0.009250239
119	0x3de33bbc	0.11095378
120	0x3da6962c	0.08134112
121	0xbdaba070	-0.083802104
122	0x3cc26688	0.023730531
123	0x3a8ec580	0.00108926
124	0x3ddb9488	0.107216895
125	0xbb2d9a80	-0.0026489794
126	0x3e030f46	0.12798795
127	0x3c694e10	0.014239803
128	0xbddb68aa	-0.107133225
129	0xbdd1ac3c	-0.10237929
130	0x3d5bc230	0.05365199
131	0xbd05cf32	-0.0326683
132	0xbdde6158	-0.108584106
133	0xbe08cada	-0.13358632
134	0x3d5c8340	0.053836107
135	0xbdb566d0	-0.088575006
136	0xbdc6fca1	-0.09716154
137	0x3b0bf940	0.0021358281
138	0x3d25e864	0.040504828
139	0x3de3df48	0.11126572
140	0x3d860102	0.06543161
141	0xbd71c350	-0.059024155
142	0x3da4a8de	0.08040021
143	0x3e036aa4	0.12833649
144	0x3dc45bf6	0.09587853
145	0xbd87780e	-0.066146955
146	0xbdc2a1ca	-0.09503515
147	0x3d8054fc	0.062662095
148	0xbdaef4da	-0.085427955
149	0xbdad482b	-0.084610306
150	0xbd875919	-0.06608791
151	0x3d18e680	0.037329197
152	0xbd62b356	-0.05534681
153	0xbcba3a84	-0.02273298
154	0x3d25be08	0.04046443
155	0x3d59f4d8	0.053212017
156	0x3d9f677e	0.077834114
157	0xbd0773e2	-0.0330695
158	0x3d9c000a	0.07617195
159	0xbc4bd0d8	-0.012439929
160	0xbd3b3900	-0.045708656
161	0xbde10e48	-0.10989052
162	0xbc205340	-0.009785473
163	0xbc8cdc94	-0.017195024
164	0xbd402a58	-0.046915382
165	0x3c469e60	0.0121227205
166	0xbe033b0d	-0.12815495
167	0x3dd2359a	0.1026413
168	0xbdffc97f	-0.12489604
169	0xbc07cc60	-0.008288473
170	0x3d323c54	0.043514565
171	0xbd906a93	-0.070515774
172	0xbcec2380	-0.028825521
173	0x3c94f6b0	0.018184036
174	0x3e09e6b4	0.13466913
175	0xbdeff62d	-0.11716876
176	0xbdf02fa1	-0.117278345
177	0x3d1efd20	0.038815618
178	0x3df3d65c	0.1190612
179	0xbdf05204	-0.11734393
180	0xbd89bbdd	-0.06725285
181	0xbd9f2b52	-0.077719346
182	0xbcc2d908	-0.02378513
183	0xbd79d288	-0.060991794
184	0xbdf66133	-0.12030258
185	0x3de158a0	0.11003232
186	0xbdbe388a	-0.09288128
187	0xbda83fa2	-0.08215262
188	0x3da03846	0.07823233
189	0x3da4073a	0.08009191
190	0xbd4bbadc	-0.04973875
191	0xbdebdf88	-0.115172446
192	0x3cba6268	0.022752002
193	0x3dff6a28	0.124714196
194	0x3cb84498	0.022493646
195	0x3da57d9e	0.080806
196	0xbdb45e86	-0.088070914
197	0xbd55ef60	-0.05223024
198	0xbd986e62	-0.07442929
199	0x3db346e6	0.08753757
200	0xbdc195c2	-0.09452392
201	0x3c28c4a0	0.010300785
202	0x3d9a0d2e	0.07522045
203	0xbde4e693	-0.11176791
204	0xbde0f863	-0.10984876
205	0x3db5479a	0.088515475
206	0xbba9fea0	-0.0051878244
207	0xbdaffdfa	-0.08593364
208	0x3da9df94	0.08294597
209	0xbd995908	-0.074876845
210	0xbd5ebc0e	-0.05437856
211	0xbd392d38	-0.04520914
212	0xbd4fb00c	-0.050705
213	0x3e08a648	0.13344681
214	0x3e020cec	0.12700242
215	0xbd5b80b2	-0.05358953
216	0xbde5ec0f	-0.11226665
217	0xbdb1a5a8	-0.086741745
218	0xbc38ad88	-0.011271842
219	0x3c3520c0	0.0110551715
220	0x3d6ac314	0.057314947
221	0x3c0ec810	0.008714691
222	0xbb216a00	-0.0024629831
223	0xbd958fa0	-0.07302785
224	0xbd719fe0	-0.05899036
225	0x3d9f083e	0.07765244
226	0xbda19e23	-0.0789149
227	0xbcc60228	-0.02417095
228	0x3d7d4a28	0.0618383
229	0xbdfc1477	-0.12308591
230	0xbd0c373c	-0.034232363
231	0x3dd07c08	0.10179907
232	0x3ca72668	0.020404056
233	0xbd5ca2de	-0.05386626
234	0xbd66055c	-0.056157455
235	0xbd271518	-0.0407916
236	0xbde6c95b	-0.11268874
237	0xbe08b74a	-0.13351169
238	0xbd23d1fc	-0.03999518
239	0x3d9151a2	0.07095648
240	0xbe082381	-0.13294794
241	0xbda6bc26	-0.08141355
242	0x3dc6efbe	0.09713696
243	0x3b4c8fc0	0.0031213611
244	0xbd6ea14e	-0.0582593
245	0x3c5e1540	0.013554871
246	0xbdbd9684	-0.09257224
247	0xbca561e8	-0.020188287
248	0x3d8197fa	0.06327815
249	0x3dd62eac	0.10458121
250	0xbdb690c4	-0.089143306
251	0x3d26d874	0.04073377
252	0x3dd3f844	0.10350087
253	0xbcc497a0	-0.023998082
254	0xbdf100fc	-0.11767766
255	0x3d959f3a	0.07305761

conv2.bias f4 [12]
0	0x3df6a9b0	0.12044084
1	0xbba21c20	-0.0049472004
2	0xbd19da08	-0.037561446
3	0xbdf0aef6	-0.11752121
4	0xbd8b4c91	-0.06801713
5	0xbcf53788	-0.029933706
6	0x3d89c02c	0.06726107
7	0xbcdd6d94	-0.02702979
8	0xbde76adc	-0.11299679
9	0x3d46a224	0.048494473
10	0xbcc034fc	-0.023462765
11	0x3e090546	0.13380918

fc1.weight f4 [10, 432]
0	0xbcc24208	-0.023713127
1	0xbce9eaaa	-0.02855428
2	0xbd09226d	-0.033480097
3	0x3bca2988	0.0061695017
4	0xbcd39ffa	-0.025833119
5	0x3c1a098c	0.00940169
6	0x3cfc72c6	0.030816447
7	0x3c5c4ce4	0.0134460665
8	0x3cfecade	0.031102594
9	0xbd3ef4e6	-0.046620272
10	0x3c829d6a	0.015944201
11	0xbd3241d8	-0.043519825
12	0x3d2d38b5	0.04229041
13	0x3c94ca86	0.018162977
14	0xbcbfddfe	-0.023421284
15	0xbc312ed8	-0.010814391
16	0x3d1e8c77	0.038708176
17	0xbc1f3348	-0.009716816
18	0x3d286b5b	0.041118007
19	0xbd32c23b	-0.043642264
20	0x3d1b0ccb	0.037853997
21	0x3d22f597	0.039784994
22	0xbd3d69ef	-0.046243604
23	0xbc9ae975	-0.01891015
24	0x3b375e80	0.002797991
25	0x3ce7da66	0.028302383
26	0xbc8c4c78	-0.017126307
27	0x3c664a90	0.014055863
28	0x3d43a0b5	0.047760684
29	0x3c895e0a	0.016768474
30	0x3c83cd32	0.016089056
31	0x3d1b4359	0.037906025
32	0xbd41e9dd	-0.04734217
33	0xbc12583c	-0.0089321695
34	0x3d31e6f9	0.043433163
35	0xbd1dfb88	-0.038569957
36	0xbc948f82	-0.018134836
37	0xbccfef87	-0.02538277
38	0x3d25ab59	0.040446613
39	0xbbe8b200	-0.0071012974
40	0x3c59f5e4	0.013303254
41	0xbc9946c8	-0.018710509
42	0x3d2ae86b	0.041725557
43	0x3cbf7516	0.02337126
44	0x3c8146b2	0.01578078
45	0x3cef4c92	0.029211316
46	0x3cafc0ba	0.021454204
47	0xbc1cb450	-0.009564474
48	0xbd24812b	-0.040162247
49	0x3d3dcb1b	0.046336275
50	0xbd06e0a5	-0.03292908
51	0x3d3d183b	0.046165686
52	0xbc6efdd4	-0.0145868845
53	0x3c224e04	0.009906296
54	0xbcc039e9	-0.023465114
55	0x3cb2d012	0.021827731
56	0xbcca5bdc	-0.024702005
57	0xbc4adbf0	-0.012381539
58	0xbbc157e8	-0.005900372
59	0xbcd5be40	-0.026091695
60	0x3d20683d	0.03916191
61	0xbb379470	-0.002801206
62	0xbcd7652c	-0.02629336
63	0x3c638ce4	0.013888571
64	0x3b60b400	0.0034286976
65	0x3d42c6d1	0.047552887
66	0xbacc0c80	-0.001556769
67	0xbc0a850c	-0.008454572
68	0x3d0f4aa1	0.03498328
69	0xbbae63f0	-0.005321972
70	0x3ca14b1e	0.019689139
71	0x3d17312d	0.036912132
72	0xbd15c6b1	-0.03656644
73	0x3cc8b14e	0.024498608
74	0xbcbe4792	-0.023227487
75	0xbd15549b	-0.03645764
76	0x3d2bd6f9	0.04195306
77	0xbd1d168a	-0.038351573
78	0xbb8ec7d8	-0.0043573193
79	0xbc9892f9	-0.01862477
80	0xbd0d84e1	-0.03455055
81	0xbd0bd9bd	-0.0341432
82	0x37ddf000	2.6457012e-05
83	0x3d42e64b	0.047582906
84	0x3d1e8339	0.038699362
85	0xbcb11582	-0.021616701
86	0x3cb7605e	0.022384819
87	0x3d3de995	0.04636534
88	0x3c202108	0.0097735
89	0x3d0b4141	0.033997778
90	0xbd34709e	-0.044052713
91	0xbd28d752	-0.04122097
92	0x3c676e30	0.014125392
93	0xbb140180	-0.0022583902
94	0x3b548e60	0.0032433495
95	0x3c6592f8	0.014012091
96	0x3cce552e	0.025187101
97	0xbd10bd9a	-0.03533707
98	0x3c224ad8	0.009905539
99	0x3cc6d72a	0.02427252
100	0x3c545658	0.012960039
101	0xbc3db954	-0.01157983
102	0xbd2a51d6	-0.04158195
103	0x3b3f8c30	0.0029227845
104	0xbcae744b	-0.021295687
105	0x3c8a56be	0.016887065
106	0x3be2baa0	0.00691922
107	0x3d36760f	0.044546183
108	0x3ce236d6	0.027614038
109	0xbcd5e7c0	-0.026111484
110	0xbcb16f52	-0.021659527
111	0xbc4d3e5c	-0.012527075
112	0xbd15a24c	-0.03653173
113	0xbca73b64	-0.020414062
114	0x3d3b88b9	0.045784686
115	0xbba83500	-0.005133271
116	0x3bd8a890	0.006611891
117	0x3d1269c3	0.035745393
118	0x3d13786b	0.03600351
119	0x3cae05e6	0.021243047
120	0xbd11397a	-0.035455205
121	0xbd387de0	-0.04504192
122	0x3bea5738	0.0071515106
123	0xbc2c998c	-0.010534655
124	0x3d1c7529	0.03819767
125	0x3cf9511e	0.030434188
126	0xbc00a968	-0.00785289
127	0x3c97f486	0.018549215
128	0x3cc176ae	0.023616161
129	0x3d401de7	0.046903517
130	0xba99b800	-0.001172781
131	0xbc0ca9d8	-0.008585416
132	0x3bcbefd0	0.0062236562
133	0xbc7ce1d0	-0.015434697
134	0x3d257747	0.040396955
135	0xbbca1f48	-0.00616828
136	0xbc2ff350	-0.010739163
137	0x3d10eafd	0.035380352
138	0x3d113649	0.03545216
139	0xbbd005c8	-0.0063483454
140	0xbcb63493	-0.022241866
141	0x3ab656a0	0.0013911314
142	0x3bfbf658	0.0076892786
143	0xbd35485c	-0.04425846
144	0xbc51ffec	-0.012817364
145	0x3c82e9a2	0.015980545
146	0x3cf76b0e	0.030202415
147	0xbd2c7698	-0.042105287
148	0xbcec5bd6	-0.028852385
149	0x3ca0ca66	0.019627761
150	0xbcd4eb07	-0.025990976
151	0x3d09436f	0.033511575
152	0xbc109258	-0.008823954
153	0x3c68526c	0.014179807
154	0xbd3d593e	-0.046227686
155	0x3caf6c5e	0.021413978
156	0x3ca406c6	0.020022761
157	0xba61b6c0	-0.0008610301
158	0x3d1765f1	0.036962453
159	0xbcadd190	-0.021218091
160	0x3b907250	0.0044081584
161	0x3d041f55	0.032256443
162	0x3b87e750	0.0041474476
163	0x3bd524d0	0.0065046325
164	0x3b712a80	0.0036799014
165	0xbb7ba990	-0.0038400628
166	0xbb509f20	-0.0031833127
167	0xbd44787f	-0.047966477
168	0x3c60f1b0	0.013729498
169	0xbd202b40	-0.039103746
170	0x3c9dee1a	0.019278575
171	0x3d0d2877	0.03446242
172	0x3d4059e9	0.046960745
173	0xbc1f4d0c	-0.009722959
174	0xbc372fbc	-0.011180814
175	0xbc42fe34	-0.011901427
176	0x3bbd51d0	0.005777575
177	0xbd06a7b1	-0.032874767
178	0xbd0cdd38	-0.03439066
179	0x3c2e8a90	0.010653153
180	0xbd424146	-0.04742553
181	0x3d2deb9f	0.042461034
182	0x3c01a1d4	0.007912118
183	0xbc17c080	-0.009262204
184	0x3889d800	6.572902e-05
185	0x3c6829ec	0.014170151
186	0x3ce4f36a	0.0279481
187	0xbd371508	-0.04469779
188	0x3c260238	0.010132365
189	0x3d179d67	0.037015345
190	0xbc027d0c	-0.007964384
191	0x3b66ff60	0.003524743
192	0xbc30959c	-0.010777857
193	0x3d075561	0.033040408
194	0x3c2e0b20	0.01062277
195	0x3cd321d2	0.025772963
196	0xbd3d8f13	-0.046279024
197	0x3b62f430	0.003463041
198	0x3c6b7d68	0.014373161
199	0x3cfb888e	0.030704763
200	0xbcc7d7bb	-0.02439486
201	0x3cd7bea6	0.026336025
202	0x3d2fbb2b	0.042903107
203	0xbc2e2cfc	-0.010630842
204	0x3d318327	0.043337967
205	0xbd003bed	-0.03130715
206	0xbc60a2b4	-0.013710666
207	0x3bc01418	0.0058617704
208	0xbcf0c5ad	-0.029391134
209	0x3d41b549	0.047292028
210	0xbd0ed155	-0.034867603
211	0x3d28e451	0.041233364
212	0x3d0fca7b	0.03510521
213	0x3d2aea65	0.041727442
214	0xbd2cb06a	-0.04216043
215	0xbd3a1b9e	-0.045436494
216	0xbcdfc0e8	-0.027313665
217	0x3c6dba7c	0.014509793
218	0x3d0f8bf1	0.035045568
219	0x3c2f7c70	0.010710821
220	0xbc164cd0	-0.009173587
221	0xbd173eba	-0.036925055
222	0x3d129901	0.035790447
223	0x3c0ff4a0	0.0087863505
224	0xbd29c114	-0.0414439
225	0xbd13d5e0	-0.03609264
226	0xbc81c8be	-0.015842792
227	0xbc4e4f80	-0.012592196
228	0xbd28a0d7	-0.041169014
229	0xbb2a8560	-0.002601944
230	0xbd0c1c55	-0.034206707
231	0x3c2d3fec	0.010574322
232	0xbb5b4b40	-0.00334616
233	0x3cbd8f02	0.02313948
234	0x3bd7c828	0.00658514
235	0xbd17da7f	-0.03707361
236	0xbca19f54	-0.019729294
237	0xbd179696	-0.037008844
238	0x3c5c891c	0.013460424
239	0x3cf35672	0.029704306
240	0x3d231257	0.039812412
241	0xbbcbfed0	-0.0062254444
242	0xbccaf6e7	-0.024775935
243	0xbd03716e	-0.032090597
244	0x3d4462b3	0.04794569
245	0x3bc93700	0.0061405897
246	0x3c2c439c	0.010514166
247	0x3d185627	0.037191536
248	0xbc92c576	-0.017916422
249	0xbd1f0146	-0.038819574
250	0x3cc24356	0.023713749
251	0xbd331d52	-0.043729134
252	0x3b654b80	0.0034987628
253	0xbc4044b8	-0.011735134
254	0xbc722734	-0.014779855
255	0xbaf9f9c0	-0.0019071624

fc1.bias f4 [10]
0	0xbcf72e59	-0.030173467
1	0x3c96f706	0.018428337
2	0x3c5952a0	0.013264328
3	0xbb274a80	-0.0025526583
4	0xbcecfe5c	-0.028929882
5	0xbcefc228	-0.029267386
6	0x39609400	0.00021417439
7	0x3cfd09c2	0.030888442
8	0xbd384ad5	-0.04499324
9	0x3c68da30	0.014212176
