distillation/snet2.onnx (onnx, 751203 bytes, 10 tensors)

1 f4 [64, 3, 7, 7]
00000000: 126a 86bd a02a 08bb 4634 71bd a7c6 92bd
00000010: 3cc3 633d b018 5abc 10ba fd3b 20b6 833d
00000020: 0867 15bc 1c02 85bd 8574 38bd 0009 7cbb
00000030: a8c4 393d c8b3 c93c 20fe 0c3d 95d8 8cbd
00000040: 787c 88bc 30b0 803d 2025 903b 01db 55bd
00000050: f6bd e7bc 4eea 903d 0058 4cb8 8325 8fbd
00000060: 987e 983d 26ef 0d3d d04c 293d 2a9b 123d
00000070: 3e5e 873d c0a4 d5bb 3c81 733d c02e 53bd
00000080: fe30 a03d 6089 023b 1433 7c3d 3ca3 8e3c
00000090: e07a 31bc 93b5 4abd 70bf aa3b 45da 86bd
000000a0: 0644 9e3d 20bd dabc 3cb3 f63c 5e93 9bbd
000000b0: fa7f 0d3d cb5a 27bd 903b 713d 5883 053c
000000c0: 99e2 a8bd cefd 833d a8be 643d 8013 ebbb
000000d0: c87f 913d 3a90 883d 883e 3d3d 9f93 4cbd
000000e0: 5448 83bd 4031 01bc c81c 44bc cca8 fabc
000000f0: aad3 29bd b0fe 453d 5c4a 0d3d ae95 273d
00000100: a0f6 3c3d ee87 f9bc c724 16bd 88b3 683d
00000110: ec33 3e3d b8c3 223d 1082 8e3c 721b 94bd
00000120: c09d ae3b 4407 dcbc 1804 7c3c dcf8 333d
00000130: 0000 e938 7a35 1c3d c08f 263c 978a 50bd
00000140: 9401 8dbd 78de 16bc 1f25 86bd 3eb0 90bd
00000150: cc2a c1bc a2ea 86bd 500d fe3c 60d6 0c3c
00000160: b88c 57bc 8c5f a2bc 10ad 813b a3b8 05bd
00000170: 5ebf 1b3d de2c a4bd d082 d0bb 9623 73bd
00000180: 869d 003d 2c66 d43c 8418 313d aa5f a63d
00000190: 088c 45bd deee 47bd 01c9 8cbd b655 88bd
000001a0: c82c e0bc a4d6 7abd b4cc 8ebd 8062 d13b
000001b0: a142 8abd 04fe 363d c03c 0bbb b094 9cbc
000001c0: 7c60 083d 3c0c a33c 908b 113c f8f1 65bc
000001d0: c81d 8dbd f72a 11bd 304a 8dbd 6ce7 2f3d
000001e0: 3848 5a3c 15c7 47bd 7981 a7bd c19a 1abd
000001f0: 54bf 88bc ec4b 9a3d 40df 2bbb 32da 34bd
00000200: 24ba a73d 78bc 943d ce12 63bd d022 88bd
00000210: d043 7b3d 6865 453c 0a0b 8b3d 208e 823c
00000220: 0ea4 a4bd 5b22 65bd 60f0 4d3b 28c3 88bc
00000230: d283 3bbd da0b 0b3d b509 90bd c6b4 76bd
00000240: 74d6 7e3d 34c5 27bd 608d 05bc c888 2b3c
00000250: b3a3 4ebd 885b 3ebc 228c 35bd 4e7b cebc
00000260: 8e3b 43bd a446 6e3d de90 963d c043 caba
00000270: b428 87bd f064 313c fcd3 5f3d 8c0d cd3c
00000280: b61e 8ebd 509e a13d 853e 7dbd 1059 a23d
00000290: f685 53bd e070 643c d4cb 89bc 0046 393d
000002a0: 0cb1 023d f648 4ebd 40e7 41bb 1826 6bbc
000002b0: 4052 a63b aaea 963d 02a5 133d ae35 893d
000002c0: 6b84 5abd 3ecb 973d 5ac9 89bd 0c63 793d
000002d0: 4567 0ebd 4647 35bd e054 91bd 08d2 41bc
000002e0: 400a 823c 6c60 e2bc e614 2cbd 6f5d 3dbd
000002f0: 13a8 89bd a3ed 37bd 84fc f73c 00d5 cbbc
00000300: 086e 533d a083 9b3c f473 4d3d d405 8ebd
00000310: 0695 bcbc 2b58 a2bd ce40 47bd e329 34bd
00000320: f016 6e3d c055 82bb e832 f2bc 0c9b d33c
00000330: 805f f1bb a02a 663d a86d 683d 3fd5 1ebd
00000340: d0db 1e3c 606a d53c 7221 843d 28f5 3bbc
00000350: 72e5 03bd c0bd 903d bf88 93bd d69c a83d
00000360: a896 51bd 20f3 ecbb a8e5 7a3d 7c44 11bd
00000370: b866 863c a4dc c4bc 8887 99bc 5a67 863d
00000380: 7fb5 35bd 382d 7cbc c1ea 16bd 609f 243d
00000390: c08b 833a 532d 4bbd 2484 b2bc 04a6 dfbc
000003a0: ac54 5d3d 8018 6b3b 5484 9fbd 1c54 8f3d
000003b0: 5902 9ebd 53e4 81bd 76ca 8d3d 1091 3d3c
000003c0: 7a95 293d 905f 5f3c 2c7f e83c 7a79 6cbd
000003d0: 40bf e4ba 2f27 02bd 1445 92bc 78b6 66bc
000003e0: 65a9 a5bd d798 2ebd 68a7 323c b8b3 8d3c
000003f0: 2cd1 89bd e869 203c 70ed 963b b83e a93c
-0.065632 -0.002077736 -0.058887742 -0.07166796 0.055606112 -0.01331155 0.0077431276 0.06431222
-0.009118803 -0.06494543 -0.045032997 -0.0038457513 0.04535356 0.02462186 0.03442204 -0.06877247
-0.016660914 0.06283605 0.004398957 -0.05221081 -0.028288823 0.0707594 -4.8719347e-05 -0.06989577
0.07446021 0.034651898 0.04133302 0.035792507 0.06609772 -0.006519884 0.05944942 -0.051558256
0.078218445 0.0019918308 0.06157215 0.01741182 -0.010832518 -0.04948957 0.0052108094 -0.065846
0.07727818 -0.02670151 0.030114762 -0.075964674 0.034545876 -0.04085807 0.058894694 0.008148991
-0.08246345 0.06444894 0.055845886 -0.0071739554 0.071044505 0.06668134 0.046202213 -0.04994547
-0.0641028 -0.007885277 -0.011969753 -0.030598067 -0.041461624 0.048338592 0.034494743 0.04091423
0.046133637 -0.030460324 -0.036656167 0.05681184 0.046436235 0.039737433 0.017396003 -0.07231797
0.005328864 -0.026858933 0.015381835 0.043938503 0.00011110306 0.038136937 0.010166109 -0.05091342
-0.06885067 -0.009208314 -0.06550049 -0.070648655 -0.023579977 -0.065877214 0.031012207 0.008596033
-0.013156109 -0.01982095 0.0039573982 -0.032646786 0.0380243 -0.0801637 -0.0063632503 -0.05936011
0.031400226 0.025927626 0.04323627 0.08123715 -0.048229247 -0.048811786 -0.06874276 -0.06656973
-0.027365103 -0.061239854 -0.06972638 0.006389916 -0.0675099 0.044675842 -0.0021245927 -0.019113868
0.03329514 0.019903295 0.008883372 -0.014034741 -0.06890446 -0.035441365 -0.06898916 0.04294531
0.013322882 -0.048773844 -0.08178992 -0.03774524 -0.016692795 0.07534012 -0.0026225597 -0.0441534
0.081898004 0.0726251 -0.055437855 -0.06647265 0.061343968 0.012048103 0.06789215 0.015936911
-0.080391034 -0.055940967 0.0031423792 -0.01669462 -0.04578001 0.03394685 -0.070331015 -0.060230993
0.062216237 -0.040959552 -0.008151382 0.010469623 -0.050449084 -0.011618502 -0.044323094 -0.02520528
-0.047664218 0.058172837 0.0735185 -0.0015431568 -0.065995604 0.010827288 0.054645523 0.025030874
-0.069394514 0.07891524 -0.0618272 0.079271436 -0.051641427 0.013942927 -0.016820826 0.045232773
0.031907126 -0.05036255 -0.0029587299 -0.014352344 0.005075723 0.07368977 0.036046036 0.06699692
-0.05334894 0.07411812 -0.06727858 0.060885474 -0.034766454 -0.044257425 -0.07096267 -0.0118298605
0.015874028 -0.027633868 -0.042012118 -0.046231683 -0.06721511 -0.044904362 0.030271776 -0.02488184
0.051618606 0.018983662 0.05015941 -0.069347054 -0.023020279 -0.07926973 -0.048645787 -0.04398526
0.058127344 -0.0039775074 -0.02956529 0.025830768 -0.007366121 0.056192994 0.0567452 -0.038777586
0.009695962 0.0260517 0.06451692 -0.011472024 -0.032201238 0.07067442 -0.072038166 0.08233039
-0.051169068 -0.007231131 0.061254174 -0.035465702 0.016406402 -0.02403099 -0.018741384 0.065626815
-0.04436254 -0.01539164 -0.036844973 0.040191054 0.0010036156 -0.04960377 -0.021791525 -0.027300842
0.054035828 0.0035872757 -0.077889115 0.069984645 -0.077152915 -0.063423775 0.06923382 0.01157023
0.041402318 0.013633624 0.028380953 -0.057733037 -0.0017452016 -0.03177565 -0.017855205 -0.01408159
-0.0808895 -0.04262623 0.010904171 0.01729761 -0.067293495 0.009790875 0.0046059415 0.02065979

10 f4 [10]
00000000: 4284 c63c f62a dd3c 00b4 75b9 9c90 06bc
00000010: 0ce8 663c ca00 9dbc e523 273d a06b cb3a
00000020: 02f1 ac3c 4abf e93c
0.024232987 0.026998024 -0.00023432076 -0.0082131885 0.01409341 -0.019165415 0.040805716 0.0015519746
0.021111015 0.028533597

2 f4 [64]
00000000: 8f2e 48bd b026 14bc 0c7a 133d 946c 043d
00000010: f6d0 a8bc f42d 643d 08b2 82bc ce69 923d
00000020: 6d7a a7bd 9508 33bd f6eb 58bd d88f 74bd
00000030: 8014 453b 20fe 733d 840d 7b3d 8174 74bd
00000040: 1766 9abd 4cda 763d aaed d7bc f2ed a53d
00000050: 4970 2fbd fca4 ffbc 10f0 3b3d 00ac cc3b
00000060: 440f 973c a268 82bd 7a79 43bd 881a 783d
00000070: 404e 2a3d 004a 843a 3a36 893d 03ab 30bd
00000080: 7876 46bc 7e16 a6bd 5e04 40bd d4da f33c
00000090: 4858 91bd 4048 7abb 2374 43bd 5eeb cfbc
000000a0: 4832 4f3d 50a5 99bc 8039 c7bb 98f3 b8bc
000000b0: 34f5 e73c 5c4a 83bc b095 813c 435e 1fbd
000000c0: d5d8 9cbd e8c3 293d 7cfd fa3c ccc1 3cbd
000000d0: ecb0 1abd 702b 343d f83d f0bc 484f 093d
000000e0: 1065 8cbd 5555 4dbd 486b 2d3d f495 4e3d
000000f0: 30a3 5f3d eb33 5dbd d899 343d 3cbe 613d
-0.048872527 -0.009042427 0.036005065 0.03233011 -0.020607453 0.055707887 -0.015954033 0.07149087
-0.08177648 -0.043709356 -0.052959405 -0.059707493 0.0030072033 0.059568524 0.061292186 -0.05968142
-0.07539003 0.060266778 -0.026358444 0.08102025 -0.042831693 -0.0312066 0.04588324 0.00624609
0.018439896 -0.063676134 -0.04772327 0.060572177 0.04157853 0.0010092854 0.06699796 -0.04313184
-0.012113206 -0.08109759 -0.046879165 0.029767431 -0.070969164 -0.0038190037 -0.04771818 -0.025380787
0.05058506 -0.018755585 -0.0060798526 -0.022577092 0.028315164 -0.016026668 0.015818447 -0.038908254
-0.07658545 0.041446596 0.030638449 -0.046083257 -0.037766382 0.043986738 -0.029326424 0.033522874
-0.06855214 -0.050130207 0.04233864 0.050435975 0.054598987 -0.05400459 0.04409203 0.055113062

3 f4 [128, 64, 1, 1]
00000000: 2005 c03d 309b 25bd ec2d 313d 66b1 d53d
00000010: 560b abbd d027 02bd e242 ff3d 80c3 4abc
00000020: 1047 593d d058 b1bc 809c 1d3b 7882 6ebd
00000030: 6058 bf3d 1a13 973d f436 e03d bad8 9b3d
00000040: 9005 eb3c 4063 33bc e04e 8f3b 8a5d a3bd
00000050: 7828 cebd 8051 80bb f4f8 d73d a032 f83d
00000060: fe61 bcbd 8039 e8bd 52fc c33d c03c babb
00000070: 78c7 d2bd f82c 053d 1629 d03d c8c8 76bd
00000080: 5880 0e3d 7086 a8bc 60f2 903b 80c8 afbc
00000090: d0b3 c73d 0854 eb3c f477 94bd 6c39 12bd
000000a0: e063 f33d 149b 28bd 8078 b8bc 0087 0ebd
000000b0: c27a c03d fa33 92bd 8884 ec3c 12c6 ab3d
000000c0: f82d c6bd 9aff a23d 7856 ccbd f0e5 4a3d
000000d0: e080 6cbd 50e8 bf3d a661 bfbd 8849 443d
000000e0: 78b5 813c bc7f c0bd 4044 5fbd 7871 a03d
000000f0: e8e4 94bc da99 d93d a89f 69bd 64ee 47bd
00000100: c8d5 f2bd 6851 aabd 6041 7c3c c081 2cbb
00000110: 66da a4bd b227 97bd 4cfc b93d 4475 7d3d
00000120: ba49 b4bd a61b e63d 80eb d03a a86d da3c
00000130: 567d b83d e427 3abd 1017 aabd 688e 993d
00000140: 5267 cebd 4050 7b3c f076 e6bc 70f9 80bd
00000150: 54b8 543d be0f 943d 1a71 e3bd b89a d33d
00000160: 3ea1 96bd 3ece d9bd ecb6 723d ac2f 213d
00000170: 1443 053d 7033 2ebc 3c7a 283d 024e db3d
00000180: 94f8 a7bd 4033 5ebc dc2a 6bbd c00d ddbc
00000190: cad4 d9bd 9090 c43c a423 cebd 80fd 07bd
000001a0: ead3 8d3d c001 183c c402 103d 309b 753d
000001b0: b870 4e3d e450 ff3d 66fc c9bd fcad 12bd
000001c0: 46a8 d1bd ca63 e23d a031 cd3c 9e54 f9bd
000001d0: 3461 edbd 3c4d 38bd 4caa 173d 9429 323d
000001e0: 140e b2bd acb9 78bd 88ea 41bd a00b fe3b
000001f0: 3002 30bc 4479 a43d 00bb 5f3a 0afb 94bd
00000200: b06f 49bc f8fa 05bd 2000 4dbd 388e a83c
00000210: 8491 633d f042 7fbd 2e45 c93d e615 80bd
00000220: 209a c33c 1a7a cc3d 541f 2fbd d235 8ebd
00000230: 52ae f2bd fe49 b23d 3e4d a0bd 70e7 283c
00000240: f66a a5bd 44b5 833d 4c98 1b3d 56ef 913d
00000250: 20a2 29bc 583b f83d aa22 adbd 38f1 6b3d
00000260: eaf3 8b3d 30ed f7bd 8670 d0bd eada ee3d
00000270: 7433 123d 6085 9d3d 4040 633c 58e9 b6bc
00000280: 8012 393c b8ac 183d c6c5 aebd 14ea 763d
00000290: c08d 873b 8a65 f1bd f45d 453d 7209 ec3d
000002a0: d8ab 7bbd dae8 bc3d 40ea 89bd b626 dbbd
000002b0: 4832 40bd 7491 a23d 00f9 7e3c 94cb 32bd
000002c0: ced6 cbbd 268d a43d 389c e1bc a0ad bf3b
000002d0: 9c42 eabd a2e9 98bd 3417 483d 5629 c63d
000002e0: 74c9 59bd aad0 9cbd 18c8 ff3c 0c5d fc3d
000002f0: 4652 cabd 8ca5 a33d 602d 24bc 2c68 02bd
00000300: 380e 62bd 54ca 453d f23a e63d 5057 a3bd
00000310: 7837 4b3d 761f a73d 0a23 d1bd ac0b 6c3d
00000320: 8a81 e2bd b4c4 e83d 4ccf edbd 3afd d2bd
00000330: 3293 e53d 7a54 d53d 1a81 8e3d 7efc b9bd
00000340: 8c05 1d3d ec99 75bd 2ce0 a13d ba1e f83d
00000350: c4bd 4bbd b04b d63d 56a1 9a3d 028c dbbd
00000360: 48f2 93bc b0d7 17bd 6c7a 223d c817 8ebc
00000370: 40c7 923d 32c6 ffbd 447c 7ebd e848 84bc
00000380: 4e69 b93d c81c b83d 86b6 eb3d a411 c4bd
00000390: 8017 bbbb d02a 81bc a020 863d 8046 dd3b
000003a0: 107f 1abc b0f9 e8bd 2c01 953d 6034 7ebc
000003b0: 7450 9a3d c80d 9bbd a02f fa3c 2a44 8dbd
000003c0: 3cb0 113d 08b3 22bd 38e2 873c d2ec 8c3d
000003d0: 64c2 b6bd 78ce ea3d ecf5 683d 48e4 173d
000003e0: d4ed d93d 8cc9 c8bd a0aa cbbb 808f 97ba
000003f0: 66df 993d e072 1ebc 5cb7 45bd fcb1 cd3d
0.093759775 -0.0404312 0.043256685 0.10434227 -0.083517715 -0.03177625 0.12463929 -0.012375712
0.053046286 -0.021648794 0.002404958 -0.058229893 0.09343028 0.0737669 0.109479815 0.07609697
0.028689176 -0.010948956 0.0043734163 -0.079768255 -0.100663126 -0.0039159656 0.10545531 0.12119031
-0.09198378 -0.11339092 0.09569611 -0.0056835115 -0.10291952 0.03251359 0.101640865 -0.060250074
0.034790367 -0.020571917 0.0044234246 -0.02145791 0.097510934 0.028726593 -0.07249442 -0.035699293
0.11884284 -0.04116352 -0.022518396 -0.034796715 0.09398414 -0.0713882 0.02887179 0.08387388
-0.096767366 0.079589084 -0.0997743 0.04953569 -0.057740092 0.09370482 -0.09344797 0.047921687
0.015833601 -0.093993634 -0.054508448 0.078341424 -0.018175557 0.10625048 -0.057037026 -0.04881133
-0.11857182 -0.08316308 0.015396446 -0.0026322454 -0.08049469 -0.07380618 0.09081325 0.06187941
-0.08803125 0.11235742 0.0015939325 0.026663616 0.09008281 -0.0454482 -0.0830518 0.07497865
-0.100783005 0.015338957 -0.028132886 -0.062975764 0.0519336 0.07229565 -0.11105557 0.10332245
-0.07354973 -0.10635041 0.05925648 0.039352104 0.032534674 -0.010632381 0.041132197 0.10708238
-0.082017094 -0.013562024 -0.05741392 -0.026984096 -0.106362894 0.023994714 -0.10065392 -0.03320074
0.06925185 0.009277761 0.035158888 0.05996245 0.050400466 0.124666005 -0.09862594 -0.035810456
-0.10237174 0.110541895 0.025048077 -0.121743426 -0.11590806 -0.04499553 0.037027642 0.043496683
-0.086940914 -0.060723945 -0.047342807 0.0077528507 -0.010742709 0.08030942 0.000853464 -0.072744444
-0.012294695 -0.032710046 -0.050048947 0.020575628 0.055558696 -0.062319696 0.09827648 -0.06254177
0.023877203 0.099842265 -0.042754486 -0.06943859 -0.11849655 0.08705519 -0.07827233 0.010309085
-0.08077042 0.06431058 0.03798704 0.07125728 -0.010353595 0.12120694 -0.08453877 0.05760309
0.06833632 -0.12105787 -0.10177712 0.11662848 0.0356936 0.07691455 0.013870299 -0.022328064
0.011295915 0.037274092 -0.08533816 0.060281828 0.004136771 -0.11786945 0.048185304 0.11525239
-0.06144318 0.092241004 -0.06734133 -0.10700743 -0.046922952 0.07937899 0.015562296 -0.04365118
-0.0995308 0.080347344 -0.027540311 0.005849555 -0.11438486 -0.07466437 0.048850253 0.09675853
-0.053170636 -0.07656987 0.031223342 0.12322435 -0.09878974 0.0799056 -0.010020584 -0.031837627
-0.05518934 0.04828866 0.11241712 -0.07975638 0.049613446 0.081602976 -0.10211761 0.05762832
-0.11059864 0.11365643 -0.11611804 -0.103022054 0.11209716 0.10416503 0.06958218 -0.09081362
0.038335368 -0.059961244 0.079040855 0.121152356 -0.04974152 0.10463655 0.07550304 -0.10720064
-0.018059865 -0.03707093 0.03966753 -0.017345324 0.0716691 -0.12488975 -0.062130228 -0.016148046
0.090532884 0.089898646 0.11509423 -0.09573677 -0.0057095885 -0.015767485 0.065491915 0.006752789
-0.009429708 -0.11375749 0.07275614 -0.015515417 0.075348765 -0.07570988 0.030540287 -0.06897767
0.03556846 -0.03972152 0.016587362 0.068811074 -0.08923796 0.11465162 0.056875154 0.03708294
0.10641065 -0.09804067 -0.0062154084 -0.0011563152 0.07513313 -0.009670943 -0.04827057 0.100437135

4 f4 [128]
00000000: be4b a4bd e0f3 443c ce52 e3bd f8f7 773d
00000010: c0d7 54bd 2072 173c a43a a03d 0466 6dbd
00000020: ae66 d2bd 2059 d23c 002b 6e3b 8ce7 0bbd
00000030: 6c1d 1d3d 36f3 d2bd 6078 fe3d 5826 963d
00000040: 28b3 84bc 60c8 14bd b495 d6bd d8f8 9f3d
00000050: 6a94 c2bd b021 8c3c 1415 2bbd 0a82 ed3d
00000060: e2d6 813d f254 b23d 88cb 6fbd b4e8 f4bd
00000070: 7ce1 f53d 2ec3 f9bd c2d1 f7bd 70cf a2bd
00000080: 20dd 683c d01c 30bd d644 87bd 2069 ae3c
00000090: de06 bb3d 005a 4dbc 28d3 e8bd f00c ff3c
000000a0: d4ab ea3d d8e2 92bc 7edb ff3d 7e51 ef3d
000000b0: 10a4 273d 2071 69bd 2e6c b73d ea0a 9bbd
000000c0: 90ee 75bc 72f1 813d deff 873d 8acc 88bd
000000d0: b873 e23d 00db adbb f62f 81bd fcb1 3c3d
000000e0: 107c d8bc d0b4 383c 009d 41bd c682 833d
000000f0: 78be 64bd e082 1c3c f02b 05bd b8fd 553d
00000100: acb6 46bd 5ca8 40bd d69f e7bd 1cc1 cbbd
00000110: e45a c9bd 0088 503c 9293 ec3d 002d 68bd
00000120: a8ee b1bd 64db f3bd a806 6bbd 9ccc b3bd
00000130: 80c3 913b eee7 8a3d c6ad a8bd e602 c93d
00000140: 38f1 20bd 5237 ba3d a0ce ea3c 60eb cfbc
00000150: 9ccb cbbd d6fa c7bd 3ec1 d0bd 0044 b039
00000160: f612 9e3d 8cce ccbd 5ca2 aabd e032 56bd
00000170: d026 aa3c 50f0 ecbc 6895 1ebd 28d3 44bd
00000180: a03c 253d 0456 a03d 62ac 943d 72e8 eb3d
00000190: 885f a93d 4217 e1bd 52ae 89bd c000 27bc
000001a0: 1ea6 ebbd fa5a d93d f4e2 673d 0c94 64bd
000001b0: e4b5 17bd 48cb e53d e6ed dcbd 9085 4c3c
000001c0: e4b8 373d b66f ee3d c8df ce3c da5f a83d
000001d0: 4060 043b cc41 4d3d 68e3 413d 5c0e 593d
000001e0: 80f4 daba 7a0a f53d 98ca 243d f0fd dbbc
000001f0: d8d1 f03c ca08 d43d 7007 c63c 98b7 f1bd
-0.08022259 0.012021035 -0.11099778 0.060539216 -0.051963568 0.009243518 0.07823685 -0.057958618
-0.10273491 0.025677264 0.0036341548 -0.034156367 0.038358137 -0.10300295 0.124253035 0.07331532
-0.01619871 -0.036323905 -0.10477772 0.07811135 -0.09500964 0.017105907 -0.04176815 0.115970686
0.06339814 0.08707608 -0.058543712 -0.11958447 0.12005898 -0.12195431 -0.12100555 -0.07949722
0.014212877 -0.042996228 -0.06604926 0.021290362 0.09132169 -0.012533665 -0.113684 0.031134099
0.11458555 -0.017930433 0.12493037 0.11685465 0.040927947 -0.05699265 0.089561805 -0.07570441
-0.015010491 0.0634488 0.066406 -0.06679638 0.11057228 -0.005305648 -0.06307976 0.046068177
-0.026426345 0.011273578 -0.047268867 0.064214274 -0.055845708 0.009552687 -0.032512605 0.05224392
-0.048514053 -0.04703556 -0.11309783 -0.09948942 -0.09831789 0.012727737 0.11551584 -0.05668354
-0.08688098 -0.1190708 -0.057379395 -0.087792605 0.0044483542 0.06782518 -0.0823627 0.09815006
-0.039292544 0.09092583 0.02866298 -0.02538079 -0.09950945 -0.0976464 -0.10193108 0.0003362
0.0771846 -0.10000333 -0.08331749 -0.052294612 0.02077046 -0.028923184 -0.038716704 -0.048052937
0.04034102 0.07828906 0.07259442 0.11518945 0.08270174 -0.10990764 -0.06722702 -0.01019305
-0.11506294 0.106130555 0.056612924 -0.05580525 -0.0370387 0.112204134 -0.10787563 0.012483016
0.04485406 0.11642401 0.025253192 0.08221407 0.002019897 0.050111577 0.047336012 0.05299221
-0.0016704947 0.11964889 0.04023227 -0.026854485 0.029396936 0.10353239 0.024173468 -0.11802596

5 f4 [256, 128, 1, 1]
00000000: 6b83 83bd 38e6 363c 304e 87bd be74 aebd
00000010: d48f 33bd 2f04 9a3d 7345 933d c8d3 43bc
00000020: 2038 2dbb e89b 3d3c dc21 bbbc 9e3d 7fbd
00000030: eaba 493d b362 83bd 4870 38bd d852 0a3d
00000040: 1b9f 23bd 5a73 4e3d c084 86bd 3068 59bd
00000050: a05c 353c 828e 683d 9b46 aa3d 9e8a 43bd
00000060: 086b 773c 90f5 86bc 9b87 813d ee3a acbd
00000070: 2cbf eb3c 98d1 a33c e8fe cf3c 32d6 3a3d
00000080: 5bbd b23d b01f 3c3c d4ff 0bbd 50ec b33b
00000090: 78c3 c5bc 6257 473d 65f1 853d cac7 99bd
000000a0: 94c8 973c 1906 853d 86c0 9dbd 94f9 b23c
000000b0: 90af 8bbb 7643 233d aa09 783d ab39 64bd
000000c0: 7812 44bc ce80 0d3d e67e 363d 375f 03bd
000000d0: 025a 1fbd c689 7bbd 26d4 563d 48c6 07bc
000000e0: e68b 253d 4861 263c 32ec 8bbd ff80 23bd
000000f0: 508a 963b 4321 b03d f0b5 7cbd 34fd df3c
00000100: dd18 af3d 7871 8f3c 3e92 1bbd 4549 ab3d
00000110: 0064 daba 9487 ec3c bf5a 943d 38fc c5bc
00000120: 54cb 24bd bfb0 a53d 400e 433b 21ea a03d
00000130: 62c3 fcbc e0b8 a93c e9a9 36bd bd37 8bbd
00000140: 0867 34bd 40cc 24bc 992b 853d 7198 8cbd
00000150: 14f5 92bc 0025 d73a ac21 e73c 000a 2d39
00000160: 40c6 d3ba b70a 973d 0051 f23a 24b6 c43c
00000170: 4c74 e43c cc93 c93c 40ad 963c 9766 963d
00000180: 40fa 7bbc f5b3 823d d28a 3d3d 80e0 3a3c
00000190: f015 4b3c a89d 16bc b567 21bd 5e7d 39bd
000001a0: f8ed 38bd 201c 01bd 539c 5dbd c5d9 89bd
000001b0: 9170 9e3d cd04 23bd 7f4b a13d 4271 20bd
000001c0: 0073 ff3c 08c0 193c 494d 81bd 0b01 21bd
000001d0: 4a25 773d bc89 98bc 02a4 463d 1033 cfbc
000001e0: da3a a9bd 1ab3 393d e2b0 d8bc d446 a1bd
000001f0: 0e8e 36bd 2057 a8bc 20f7 57bc cca7 b33c
00000200: 9849 94bc c073 a43b bea9 513d a490 babc
00000210: 99f8 a5bd 9211 1e3d 49c6 8f3d 448c 83bc
00000220: 140b df3c 988d 983c 41fd a4bd 9c15 48bd
00000230: 0f24 813d f083 603c 5238 753d 7681 6dbd
00000240: b1b2 45bd 937b a23d 6178 9e3d 8767 8b3d
00000250: be31 4f3d 8c53 79bd e095 dd3c 5a49 653d
00000260: 5786 a0bd 80f8 c5ba 685a 58bc f590 903d
00000270: 06f1 643d 6d44 a8bd 316d 9a3d 9c4a 89bd
00000280: 06e1 473d 8de1 0cbd ca7b 52bd 9044 503c
00000290: e036 6abd 2a55 313d 90f8 8a3b 6fee 0abd
000002a0: 473f 26bd 5838 d8bc ced5 533d 18ce 583c
000002b0: f665 323d d282 503d 500d 293c e247 693d
000002c0: 50a8 973c cecb 353d 4bd9 a3bd b864 51bc
000002d0: 4884 243c 6093 69bb 5b59 a23d d469 10bd
000002e0: a4f5 9a3c 4723 983d e970 9ebd 5bac 46bd
000002f0: bdbb b33d f83d 9d3c f089 8abb 63df 933d
00000300: 1007 9b3b 0860 33bd 7af5 003d dfab 893d
00000310: a81c 083d d658 593d c882 e23c 779e 9c3d
00000320: f40e fa3c 457c b4bd f03c 95bc 1089 a2bb
00000330: fc55 c8bc b471 89bc 006c 853c b45c af3c
00000340: b897 48bd 34ff d1bc 6644 1ebd 1301 9cbd
00000350: 7899 963c ba30 30bd 0abb 7c3d 5a4a 2b3d
00000360: 1c83 0ebd 0d55 973d a67e 35bd da78 9fbd
00000370: 03de 9dbd 7555 9f3d 9bf1 aebd 9caf acbd
00000380: 804e 2d3c aeab 583d a8f6 9abc 0899 753c
00000390: a026 043d 23a7 90bd 7380 46bd b345 903d
000003a0: 50f2 61bc 2e48 a7bd a09e 603c 8e7b 6ebd
000003b0: 8f71 4cbd 48a5 1bbc 3fa2 903d 40b3 d03a
000003c0: aa35 4f3d fb50 a73d 7409 64bd 6999 b43d
000003d0: 8ad6 5f3d 45f5 04bd 7094 4abd 3aaf 363d
000003e0: 5cef aebd b809 2fbc b805 a2bd b262 563d
000003f0: 48b7 7d3c 801b 05bb 7b01 8b3d 00e5 7abb
-0.0642155 0.011163287 -0.0660671 -0.085183606 -0.043838337 0.07520329 0.07190981 -0.011952348
-0.0026431158 0.0115728155 -0.022843294 -0.062314622 0.04925052 -0.0641531 -0.045028955 0.033770412
-0.039946657 0.050402977 -0.06568289 -0.053077877 0.011069447 0.05677653 0.08314248 -0.047739618
0.015101202 -0.016474515 0.06324693 -0.084096774 0.028777681 0.019997403 0.025390103 0.04561443
0.08727523 0.011482164 -0.034179524 0.005490817 -0.024141058 0.04866732 0.06540183 -0.0750881
0.01852826 0.06495304 -0.077027366 0.021847524 -0.004262872 0.039859258 0.06055609 -0.05571906
-0.011967294 0.034546666 0.044554614 -0.032073226 -0.038904198 -0.061410688 0.052448414 -0.00828702
0.04041662 0.01015503 -0.0683216 -0.039917942 0.004594125 0.08600094 -0.061696947 0.027342416
0.08549664 0.01751016 -0.037981264 0.083635844 -0.0016661882 0.028873242 0.07243871 -0.024168119
-0.04023297 0.08090352 0.0029763132 0.078571565 -0.030854885 0.020718038 -0.044595633 -0.067977406
-0.04404357 -0.010058463 0.06502456 -0.068650134 -0.017939128 0.0016414225 0.028214298 0.00016502291
-0.0016157106 0.073750906 0.0018487275 0.024012633 0.027887486 0.024606608 0.018393159 0.07343786
-0.0153794885 0.0638198 0.046274967 0.011406064 0.012395367 -0.009192862 -0.039405543 -0.045285575
-0.04514882 -0.031520963 -0.05410416 -0.06730989 0.07736314 -0.0397995 0.07875728 -0.03917051
0.031182766 0.009384163 -0.06313569 -0.039307635 0.060338296 -0.018620364 0.048496254 -0.025292903
-0.08263178 0.04533682 -0.026451532 -0.078748375 -0.044569068 -0.020549357 -0.013181478 0.021930598
-0.018101498 0.0050186813 0.05118727 -0.022774048 -0.08104057 0.038590975 0.07020242 -0.016058095
0.027226962 0.018622205 -0.08056117 -0.048848733 0.06305706 0.013703331 0.059868164 -0.05798479
-0.048266117 0.07933726 0.07737804 0.06806856 0.050584547 -0.060870692 0.027049005 0.055978157
-0.07838123 -0.0015103966 -0.013205148 0.07058898 0.05589392 -0.08216176 0.07540358 -0.06703684
0.048798583 -0.03439479 -0.051387586 0.012711659 -0.05718124 0.04329411 0.0042410567 -0.033918794
-0.04058769 -0.026394054 0.051717572 0.01323273 0.04355427 0.05090601 0.010318115 0.05695332
0.018512875 0.044383816 -0.0800043 -0.012780361 0.010041304 -0.003564082 0.079271995 -0.035257176
0.018915959 0.074286036 -0.0773638 -0.048504215 0.087760426 0.019194588 -0.004227869 0.07220342
0.0047310665 -0.043792754 0.031484105 0.06722235 0.033230454 0.053063236 0.027650252 0.07647412
0.030524708 -0.08812765 -0.018217534 -0.004960187 -0.024455063 -0.01677785 0.01628685 0.021406509
-0.048972815 -0.025634386 -0.03863945 -0.076173924 0.018383726 -0.04301522 0.06170181 0.041818954
-0.034793004 0.07389269 -0.044310234 -0.077867225 -0.07708361 0.077799715 -0.08542176 -0.08431932
0.010577798 0.0528981 -0.018916443 0.014990099 0.0322634 -0.07063129 -0.048462342 0.07044544
-0.013790682 -0.08168064 0.013709694 -0.0582233 -0.049912985 -0.009499855 0.07062196 0.0015922561
0.050588287 0.08169743 -0.055673078 0.08818323 0.05464796 -0.03246047 -0.049457967 0.044600703
-0.08541748 -0.0106834695 -0.07911247 0.052340217 0.015485592 -0.002031058 0.06787392 -0.0038283467

6 f4 [256]
00000000: b27d 84bd e2c5 443d 5006 eebb a73e a63d
00000010: f970 11bd 2edd 9bbd 380f b7bc 40e4 f7ba
00000020: 15b8 7ebd 0266 083d 2c96 cdbc e89c c63c
00000030: c47e bebc a1c3 a33d 38d2 1abd 1c86 5abd
00000040: 42b3 573d b044 02bc e6ea 62bd 5b04 823d
00000050: e056 a7bc d8c1 af3c 44b7 f1bc 8912 8ebd
00000060: ba61 183d 59f0 66bd 3065 24bc bc9c 943c
00000070: 52f6 85bd 4085 523c 8e6a 6a3d 880a 3b3c
00000080: 65e6 8cbd b894 353c 301c 5abc df8b 51bd
00000090: f6ea efbc bd47 a0bd 4d27 8b3d 6c9b c83c
000000a0: c14b 36bd e637 623d e4e7 b8bc 6ff0 ae3d
000000b0: 70fb da3b da76 2e3d 0a71 6f3d 088b 483c
000000c0: 42fc 543d b0b4 b73b 4e0b 523d e010 e6bb
000000d0: b0db 94bb b873 ad3c a0d7 083c d526 95bd
000000e0: 5044 1f3c 6356 5dbd ef31 27bd 0705 a33d
000000f0: b8d5 7fbd 2cfe c73c d0e2 95bc 224e 85bd
00000100: d82f 72bc 2077 fdbb e083 c53b 1839 b5bc
00000110: 107e 9bbc bc7c 90bc 24f6 923c 960c a4bd
00000120: fe40 283d 595d a1bd d0b4 a5bc 685d 8abc
00000130: 200f d23b 8a01 743d 10c6 0ebd d203 423d
00000140: cb74 24bd 66d8 683d fc26 153d 0e96 1a3d
00000150: a816 1a3c c413 0b3d 72a8 35bd a0a9 a2bc
00000160: ee78 673d 6a5f dbbc 4ad8 713d 58b5 abbc
00000170: 5fc4 9fbd d4e5 97bd 8bf7 a3bd ea0b 9ebd
00000180: 88be 57bc cf19 0fbd 10c5 853b daa7 2d3d
00000190: 8009 c63b 0001 b9ba 0032 983a ae37 3f3d
000001a0: 2c99 98bc beaa 7a3d a003 8ebd 6c1b 8dbd
000001b0: 40b3 443c 88f5 6cbc e984 853d 44ce 093d
000001c0: 00e1 2fba a73c 83bd f1e8 1dbd b607 053d
000001d0: a949 8e3d 5711 ad3d ffa4 903d 306d 433c
000001e0: 882d 923c 2f17 833d e835 7bbc aec6 573d
000001f0: 2fac 50bd 4062 c43b 5dba 01bd 36bb 3c3d
00000200: 1f56 893d 18f7 1dbc 43e3 823d 6178 a53d
00000210: a230 1f3d e62f 1c3d c5b0 60bd b5b2 ac3d
00000220: 1042 cdbb 28be 78bd be88 e6bc 51e3 84bd
00000230: 86fc 87bd 974a 02bd 8c28 833c 0934 03bd
00000240: 831a b03d f639 163d 9099 d83b c44b 96bd
00000250: d16d 923d 8b21 843d e024 95bb 1b63 4abd
00000260: c79f 0abd a2c2 28bd 9ce4 9dbd cafc 7c3d
00000270: a6a4 693d 16d3 1dbd 678c 88bd 10aa 843b
00000280: 7303 52bd 4c01 e83c 9460 9abd 1538 74bd
00000290: 5004 9abd 9acb 593d 30b6 31bc 2058 5f3b
000002a0: 3012 adbb 101d 8d3c 87e4 57bd 5e14 473d
000002b0: a882 663c 0a01 35bd d233 94bd fefe 333d
000002c0: 64ca f73c 1fcf a83d 4396 8b3d 644a 5dbd
000002d0: 906d 9a3c ef67 993d e24e 7bbd c8c7 0c3d
000002e0: 4c45 ba3c 5048 91bd 686e 55bd 9240 6e3d
000002f0: 3004 ed3b 60f4 9fbd 12dd 82bd a34d a73d
00000300: 8035 d6bc 1d7f ae3d 5de1 95bd 8ab9 3d3d
00000310: 3e7c 573d 70a6 a3bd 47e4 8e3d f057 bfbb
00000320: 9636 ebbc c987 ab3d ab1b 2abd 5642 033d
00000330: 2037 93bb c48d 88bd 05b5 b13d fa82 83bd
00000340: 98ea e9bc 9271 0c3d f7ec 5ebd ac06 fcbc
00000350: 4aa2 143d 0218 763d 1e89 173d e37c 883d
00000360: 4008 cf3a 089f 90bd e829 4dbc 626f 383d
00000370: b463 093d 3306 54bd 2aef 603d 5d13 823d
00000380: 7bcd 90bd 56e5 fabc fc5c 0bbd 2e71 33bd
00000390: 0639 3a3d a00f fabb b0f7 c6bc 3b63 3fbd
000003a0: d711 3cbd 9826 453c 1974 22bd 4cf9 72bd
000003b0: c4a8 6cbd a797 a4bd e6c1 0b3d e290 403d
000003c0: 691d 9a3d b84a 60bc 8ce8 d3bc 44a0 0cbd
000003d0: f5f2 5bbd 3fe0 883d 6223 423d ae13 763d
000003e0: 089d 953c de42 633d f8fd 3cbc 32be 613d
000003f0: c987 af3d 62a2 3e3d 2a98 293d 682d 6bbc
-0.06469287 0.04804028 -0.007263936 0.08117419 -0.03550813 -0.07610546 -0.022346124 -0.0018912628
-0.062187273 0.033300407 -0.025096022 0.02424474 -0.023253806 0.07996298 -0.037798136 -0.053350553
0.052661188 -0.007950947 -0.055399798 0.06348487 -0.020427167 0.021454737 -0.029506333 -0.06937129
0.037202574 -0.056381557 -0.010033891 0.018141143 -0.065411225 0.012849152 0.057230525 0.011416085
-0.06879882 0.011082821 -0.0133123845 -0.051158782 -0.029286843 -0.07826183 0.067946054 0.024488173
-0.04450584 0.05522909 -0.022571512 0.08541953 0.0066828057 0.042593814 0.05845741 0.012240179
0.051998384 0.0056062564 0.051280312 -0.0070210546 -0.0045427904 0.021173343 0.00835219 -0.07282797
0.009720877 -0.054037463 -0.040819105 0.07959943 -0.062459677 0.02441319 -0.01829663 -0.06509043
-0.014781915 -0.007735148 0.0060276836 -0.022121951 -0.01898101 -0.017637603 0.017939635 -0.08010213
0.041077606 -0.07879133 -0.02022782 -0.016890243 0.0064104944 0.05957178 -0.034856856 0.047366925
-0.040150445 0.056847 0.03641413 0.03774076 0.009404816 0.033954397 -0.044350095 -0.019856274
0.056511812 -0.026778895 0.05904416 -0.020960495 -0.07801127 -0.07416883 -0.080061994 -0.07717116
-0.013167985 -0.034936722 0.0040823296 0.042396404 0.006043613 -0.0014114678 0.0011611581 0.04668396
-0.018627726 0.06119799 -0.06934285 -0.06889996 0.012005627 -0.014462836 0.06519491 0.033643976
-0.0006709248 -0.06408053 -0.03855223 0.032478057 0.06947643 0.08450573 0.070627205 0.011927888
0.017843977 0.06400906 -0.0153326765 0.05267971 -0.050945457 0.0059931576 -0.03167187 0.046076976
0.067058794 -0.009641431 0.06391003 0.08079601 0.03886474 0.038131617 -0.05485608 0.08432523
-0.006263979 -0.060728222 -0.028141376 -0.0648867 -0.06639962 -0.031809416 0.016010545 -0.032032046
0.08598807 0.03667637 0.006610103 -0.0733867 0.07149852 0.0645171 -0.004551515 -0.04941092
-0.03384378 -0.04120124 -0.077096194 0.061764516 0.057041787 -0.038531385 -0.066674046 0.0040485933
-0.05127282 0.02832093 -0.07537952 -0.059623796 -0.07520354 0.053172685 -0.01084666 0.0034079626
-0.005281709 0.017225772 -0.052708175 0.048603408 0.014069237 -0.044190444 -0.072364464 0.04394435
0.030247875 0.0824263 0.068157695 -0.054026023 0.018851072 0.07490527 -0.061354525 0.034370214
0.022738121 -0.07093871 -0.052107245 0.058167048 0.007233165 -0.07810283 -0.06389822 0.08169105
-0.026148558 0.08520339 -0.07318375 0.046319522 0.05260872 -0.0799073 0.06977134 -0.0058393404
-0.028712552 0.08375508 -0.041530292 0.032045685 -0.0044926554 -0.06667665 0.08677105 -0.06421466
-0.028554246 0.034287997 -0.054425206 -0.0307649 0.036287583 0.06008149 0.036996 0.06664445
0.0015795305 -0.07061583 -0.012522198 0.045028098 0.03354235 -0.051763725 0.054915585 0.063513495
-0.07070442 -0.030626934 -0.034024224 -0.04380911 0.045464538 -0.007631257 -0.024288028 -0.046725493
-0.04591545 0.012033127 -0.0396615 -0.05931978 -0.057778135 -0.08036738 0.034120463 0.04701317
0.07525141 -0.013689689 -0.025867723 -0.03433253 -0.0536985 0.066833965 0.047397025 0.06007736
0.018263355 0.05548369 -0.01153516 0.055113025 0.08570821 0.04654158 0.04140488 -0.014354087

7 f4 [512, 256, 1, 1]
00000000: 4a0e 553d cce4 90bc 3a36 79bd a62f 54bd
00000010: a066 22bb 8800 e13c f4e0 a8bc be10 743d
00000020: 1092 7d3d 4414 033d e8d1 88bc c0ba 1cbd
00000030: 4a1f 1a3d 00d5 a7ba d88e 363d 00f2 dcbc
00000040: ca4b 21bd 4c4e b7bc 9036 773c d002 58bd
00000050: 187b d0bc c0c4 0dbd 046e 523d 6a49 5dbd
00000060: 70bb 3f3c 08cb d43c c866 823c 2ea9 5dbd
00000070: 8024 5a3a 04fd c6bc 4c6c 363d a417 433d
00000080: e2e1 34bd 4435 7dbd 8433 b93c d8c9 95bc
00000090: 26f2 4bbd e02b c63b 806b f03a a881 04bc
000000a0: fcaa 29bd 9824 523c 1072 b13b 4e1f 61bd
000000b0: 80c6 b43a a8c2 793c 4640 103d 8485 2b3d
000000c0: 08b2 913c 28fc e1bc 967d 693d 0e21 483d
000000d0: 9409 373d 22de 523d e43b 743d 2867 323c
000000e0: 0044 193d 2c66 a3bc e211 1e3d 42bf 16bd
000000f0: c0f6 6b3c 349b c3bc 7cd3 d0bc f8d9 cdbc
00000100: b64f 00bd 788d 84bc 7424 f53c 9680 4ebd
00000110: 9651 77bd 9837 0dbd c0d8 f1bc b038 a83b
00000120: 20c6 b7bc 162b 28bd a0cf 723b c4c0 393d
00000130: ac1c 42bd 3aab 1cbd 400f 74bc 30fb 54bd
00000140: acdf b6bc de08 693d 1e33 6ebd 9e4b 773d
00000150: 9ecc 113d fe56 763d 90a4 cc3b 8637 3f3d
00000160: 5090 f53b 6052 1d3c 0ca6 733d 1c03 1abd
00000170: 780f f7bc 5499 533d 18e1 0cbd 44a4 4abd
00000180: 360d 04bd 88b5 72bc 249a 33bd eeb8 033d
00000190: 6ae8 673d 40d4 48bc ae25 44bd b0db 1b3d
000001a0: 64a8 0f3d a0c1 3c3b a04d 713b d828 4e3d
000001b0: 6a15 5bbd 3c3d 4abd ca9c 093d e482 c33c
000001c0: 0072 7fb9 f837 0abc 402f 1cbb a00f 7a3c
000001d0: 5a96 4ebd 8059 dabc eabb 02bd 0099 3d3c
000001e0: ecec 3a3d 0094 8539 e438 6cbd f441 c33c
000001f0: b4e3 dd3c d084 96bc e8b6 b4bc 3062 323d
00000200: ecba a3bc b0a7 313c d260 2c3d fc82 dabc
00000210: 8882 4e3d fe99 37bd 78c1 62bc b012 27bd
00000220: 62ae 703d e81a 39bc c0cc 283c d033 7d3d
00000230: 5ae9 5cbd e09e 173d 34a9 733d be6c 77bd
00000240: a893 823c 9a8f 453d bc20 f0bc ae4b 68bd
00000250: 7472 f5bc 983b 3d3c ae8b 473d 2487 bebc
00000260: 5609 203d 0049 eb3a 709c 243d 501b 73bc
00000270: 66b7 58bd 0ccb b03c c01b faba 047d 0f3d
00000280: 28de aebc 48b8 e63c a6ca 08bd c263 303d
00000290: a85c 073d 6614 3e3d 7cbe 653d f837 35bc
000002a0: 0058 1538 b028 ec3b 5090 72bc 0eed 203d
000002b0: 747b 3fbd 9069 a43b bc50 d8bc e079 4fbb
000002c0: 4c5e dc3c e4e9 e6bc 8c70 a23c d0f1 0fbc
000002d0: 3847 643d e0d9 08bd 748d b23c b43c b0bc
000002e0: 40b0 a9bb 0090 0d38 08b8 f5bc 74b1 63bd
000002f0: 2a31 68bd ee08 43bd c25d 7abd 90c4 05bd
00000300: a699 6b3d 70fd d0bc c287 02bd 80ba 1b3a
00000310: dc3c 85bc 725f 6d3d c004 493b e8c5 a73c
00000320: 3254 32bd 00dc a5bb 74f3 e3bc c06a 053d
00000330: 30ee c83b 202f 4c3c 7823 783d f273 0bbd
00000340: 7c39 673d 00a9 673a 06d5 413d aed9 4fbd
00000350: c4e5 da3c a88a 703d 34c2 94bc c041 2c3c
00000360: 3e63 3c3d e4e9 0b3d 3822 b8bc d857 4ebc
00000370: 8011 99bc 2411 e8bc 302c dfbb b008 3bbd
00000380: 7034 b43b 40e0 12bd 982f 30bc ee82 5dbd
00000390: 0636 6f3d 3ad7 0f3d 80b3 a43a 10d0 f3bb
000003a0: e0d8 63bb f8ad 173d 441e f83c a021 f8bb
000003b0: fa64 703d d0c9 a03c f21e 2bbd 64a0 18bd
000003c0: 3aa0 44bd 4866 8c3c 5cc7 2fbd e8bc 2cbd
000003d0: 32d5 7dbd 40fe 9dba 3a2f 243d ca85 56bd
000003e0: fc50 633d f4ee 593d 50e4 f7bb 8cf1 983c
000003f0: b066 a93b 26ef 46bd c631 2cbd 20fe dc3c
0.05201558 -0.017687224 -0.06084273 -0.051803254 -0.0024780408 0.027466074 -0.020615079 0.05958628
0.061906874 0.03200175 -0.016701654 -0.038264036 0.037627496 -0.0012804568 0.04456982 -0.026970863
-0.03937892 -0.022376202 0.015088692 -0.052737057 -0.02544932 -0.034611464 0.05137445 -0.05402509
0.011702403 0.02597572 0.01591815 -0.05411642 0.0008321479 -0.02429057 0.044536874 0.047629967
-0.04416073 -0.061818376 0.022607572 -0.018284723 -0.049791478 0.006047711 0.0018342584 -0.008087553
-0.04142283 0.012826107 0.0054152086 -0.054961495 0.0013792068 0.015244164 0.035217546 0.041875377
0.017785087 -0.027586058 0.057004534 0.04885965 0.04468687 0.051481374 0.05962743 0.010888852
0.037418365 -0.01994618 0.038591273 -0.03680349 0.0144020915 -0.023877718 -0.025491469 -0.02512835
-0.03132602 -0.016180739 0.029924609 -0.050415598 -0.06038054 -0.034476846 -0.0295223 0.005133711
-0.02243334 -0.041056715 0.0037050024 0.04534985 -0.047390625 -0.038249232 -0.014896214 -0.051997364
-0.022323452 0.056893222 -0.058154218 0.06037485 0.03559553 0.060141556 0.0062452033 0.04668381
0.00749401 0.009602159 0.059484527 -0.03760062 -0.030158743 0.051659897 -0.034394354 -0.049473062
-0.03223916 -0.014813788 -0.04384817 0.032158785 0.05661813 -0.012257636 -0.047887497 0.038051307
0.0350727 0.0028801933 0.003681995 0.05033192 -0.05348722 -0.049374804 0.03359679 0.023866124
-0.00024361163 -0.008436196 -0.0023831874 0.015262514 -0.050436355 -0.026654005 -0.03191749 0.011572123
0.045636103 0.00025478005 -0.057671443 0.02383516 0.027086116 -0.018373877 -0.022059873 0.04355067
-0.019986592 0.0108432025 0.042084523 -0.026673786 0.050417453 -0.044824593 -0.013840072 -0.040789306
0.058760054 -0.011297919 0.010302722 0.06181699 -0.05393348 0.03701675 0.059487537 -0.06040644
0.015939549 0.048232652 -0.029312484 -0.0567128 -0.029961802 0.011549853 0.048717193 -0.0232578
0.039071403 0.0017950833 0.040188253 -0.014838055 -0.052909277 0.021581195 -0.0019081756 0.035031334
-0.021346167 0.028164044 -0.033396386 0.043063886 0.03304735 0.046406172 0.056089863 -0.011060707
3.5606325e-05 0.0072069988 -0.014804915 0.039288573 -0.046748593 0.005017467 -0.026405685 -0.0031658337
0.026900433 -0.0281877 0.019829057 -0.00878568 0.055731982 -0.033410907 0.021795966 -0.02151332
-0.0051784813 3.375113e-05 -0.02999498 -0.055589154 -0.05668751 -0.047615938 -0.06112457 -0.03265816
0.057519577 -0.025511473 -0.03186775 0.00059405714 -0.016264372 0.057952352 0.0030672997 0.020480111
-0.043537326 -0.0050616264 -0.027826048 0.032572508 0.00613191 0.012462407 0.0605807 -0.03404612
0.056451306 0.00088371336 0.047322296 -0.050744705 0.026720889 0.058725983 -0.01815901 0.010513723
0.045993082 0.034158602 -0.022477254 -0.012594186 -0.018685102 -0.028328486 -0.0068106875 -0.045662582
0.005499415 -0.035858393 -0.010753535 -0.054079942 0.05840113 0.035117365 0.0012565702 -0.0074405745
-0.0034766719 0.037031144 0.03028787 -0.007572368 0.05869005 0.019627482 -0.04177756 -0.037262335
-0.048004366 0.017138615 -0.042914733 -0.042172343 -0.061970897 -0.0012053922 0.0400841 -0.052373685
0.055497155 0.0532064 -0.007565059 0.018669866 0.005169712 -0.048567913 -0.042039655 0.026976645

8 f4 [512]
00000000: 6048 01bb e001 6ebb e437 9ebc 20f7 3f3b
00000010: b014 293d 38d6 51bd 8055 403b f850 7a3d
00000020: 5ce0 f23c 6048 3f3b 8419 a4bc d2a6 1ebd
00000030: ea2d 47bd 808d 41ba 86a9 393d 10ab cfbc
00000040: 18b1 48bd dcdd 773d 0cac fe3c 7ea9 61bd
00000050: c0eb 86bc 1e52 4bbd b87d 31bd e0c3 c5bb
00000060: 3862 7abc 405a 3d3b 907a 3dbc 00e9 aebb
00000070: 147b 49bd c6fc 1bbd b85c f93c ec55 32bd
00000080: f216 433d f43b 553d 36cf 2bbd 441e d23c
00000090: 902a 0f3d b41f f13c fe98 523d 3a7a 7ebd
000000a0: d4fb 2dbd 6ad9 193d ce3e 053d 78a6 dbbc
000000b0: 1036 0e3c ec65 393d 080a ac3c eed4 433d
000000c0: 0488 e8bc 88b6 c1bc 421b 1bbd c0e9 42bc
000000d0: dc67 0d3d 20f2 7cbc fc13 fcbc 28ca ebbc
000000e0: 287b 20bc a476 bcbc f0e1 293c 402e 38bd
000000f0: 2430 173d 54c5 92bc 487d b1bc 9ef5 79bd
00000100: 5c3c 8e3c 4c56 8ebc decd 75bd 3aab 643d
00000110: 0a34 60bd 985d d23c 1eb9 583d 4e35 2cbd
00000120: f46c fa3c 8648 0dbd 2c9e d9bc ce25 433d
00000130: b075 81bb 9c8c 2abd 50c5 403d 709f 663c
00000140: f892 353c c282 7d3d ac61 05bd 3ade 62bd
00000150: 7008 3c3c 5813 023d 06a8 7cbd 0c80 5a3d
00000160: dc72 d3bc d831 593c 34d3 c33c 50cd 5f3d
00000170: 8e4d 3fbd 8078 023c 8028 5fba a635 7d3d
00000180: a01e 743c beb5 18bd 826e 513d fe6f 08bd
00000190: d0f9 adbb 383b 8a3c b852 6ebc 08b9 603c
000001a0: ac0a e8bc d057 26bd 6834 ecbc 268a 683d
000001b0: 36f8 793d ec75 e4bc 8a0a 5ebd c05a 91bc
000001c0: f04c aabc 4ee8 4f3d 60fa 433c 84ce 72bd
000001d0: 1ec1 4f3d 00c7 4fbc 80b0 5f3a 64bf 28bd
000001e0: 5657 683d 80a4 d2ba 3824 7f3d acf4 af3c
000001f0: a028 0e3c b43a 99bc 56cb 55bd c2af 36bd
00000200: 10d0 2abc c0be c23c b658 3c3d 14ad d73c
00000210: fc54 46bd ac50 0a3d 10af c23c aa6a 493d
00000220: e8cd 8b3c c4f8 5c3d 745d 113d 18cc 8cbc
00000230: 2049 453b 44ca 06bd 5498 6a3d 4c5c 803c
00000240: f06a 6a3c 38af ae3c 94f5 cabc c2a5 0b3d
00000250: b6f4 55bd 3849 783d e2f0 3f3d 2c97 1ebd
00000260: ecbd 38bd 5c9d 2ebd 90b9 18bd 4014 143b
00000270: 4091 f0bc aafe 603d 0646 28bd 50ac e43b
00000280: e4d2 d83c 58fa fa3c 0839 333c b0aa f33c
00000290: d0aa f8bc 62ed 69bd 9828 303d b62f 26bd
000002a0: c616 6f3d 4214 7c3d bcae fb3c c09d 2f3d
000002b0: acf5 4b3d 20e3 c2bc a40a 9d3c 0022 e8ba
000002c0: e6b7 2e3d a8b0 78bc fca2 9b3c f28f 14bd
000002d0: 96e7 343d 7cb2 b4bc a27c 60bd a856 debc
000002e0: 2403 0e3d ea3d 773d e897 7c3c 70e4 ccbb
000002f0: 18a7 56bc 0054 4eba 122e 29bd e0fd a0bb
00000300: 50e7 cabc 26c8 473d b025 edbc c44b 0c3d
00000310: fc5b 85bc a2b7 5cbd f86f 4dbd 4802 b13c
00000320: e67a 7abd 40b4 173b ae98 0d3d 543d c4bc
00000330: 24af 1e3d 1e22 413d 445f c9bc a865 113d
00000340: f06f d8bb 603a 5abc daf4 15bd c867 7e3d
00000350: d4e5 77bd b0c5 733d acc8 89bc a82e 633d
00000360: 8030 24ba b8ce 0dbc 006f 703d d897 ad3c
00000370: 4600 7fbd c08e 433b 8cd6 23bd 00ef fb39
00000380: 809d 6cbb 30b9 aa3c 102d 3fbc 5472 e33c
00000390: 4e03 563d a034 233b c25b 1fbd 8efd 183d
000003a0: 3892 1b3d 7668 573d a4c5 80bc d0b9 aabb
000003b0: a62c 23bd 8a8a 52bd 28d1 02bd 4688 1dbd
000003c0: f8dc f83c 82c0 3dbd 0cea 7ebd 9460 b33c
000003d0: ac9e b13c 709b 7a3c bc62 53bd 5e59 2d3d
000003e0: 0875 703d 4abb 0ebd c4b8 9e3c 0ab1 7ebd
000003f0: 2c03 803c 84be e13c b237 5e3d a4ed 64bd
-0.0019726977 -0.0036317036 -0.01931376 0.0029291585 0.041279495 -0.051229686 0.0029347837 0.061112374
0.029647999 0.0029187426 -0.020031698 -0.03873331 -0.04862777 -0.0007383451 0.045327686 -0.025350124
-0.048997015 0.060514316 0.031087898 -0.05509328 -0.016469836 -0.04963886 -0.043332785 -0.006035313
-0.015282206 0.0028892905 -0.011564866 -0.0053378344 -0.049189642 -0.03808286 0.03043972 -0.043538973
0.047629304 0.05205913 -0.04194566 0.025649197 0.0349527 0.029434063 0.051415436 -0.062128283
-0.04247649 0.037560858 0.0325306 -0.026812777 0.008679882 0.045263216 0.021000877 0.047810487
-0.02838517 -0.023646608 -0.037867792 -0.011896551 0.034522876 -0.0154385865 -0.030771248 -0.028782919
-0.009794988 -0.023005791 0.010368809 -0.044965982 0.036911145 -0.017916359 -0.021666184 -0.061025254
0.017362766 -0.017375134 -0.060010783 0.055827357 -0.05473713 0.025679395 0.052910917 -0.042043023
0.030569531 -0.034492992 -0.02656468 0.047643475 -0.003950797 -0.041638 0.047063172 0.014076099
0.011082403 0.06189228 -0.03256385 -0.055387713 0.011476621 0.03175673 -0.061683677 0.05334477
-0.025811605 0.013256513 0.02390442 0.05463916 -0.04670482 0.0079633 -0.000851281 0.06181874
0.01489988 -0.037282698 0.05113078 -0.03330993 -0.005309321 0.01687394 -0.014546089 0.01371599
-0.028325401 -0.04061109 -0.028833583 0.056772374 0.061027728 -0.02788826 -0.05420927 -0.017743468
-0.02078864 0.050758652 0.0119615495 -0.05927898 0.05072128 -0.012681723 0.00085330755 -0.04119815
0.056723915 -0.0016070753 0.0622904 0.021478973 0.008676678 -0.01870475 -0.05219587 -0.04460121
-0.0104255825 0.023772597 0.04598304 0.026327647 -0.04842089 0.03376834 0.023765117 0.04917399
0.017065957 0.05394818 0.035489514 -0.017187163 0.00301034 -0.03290774 0.057274178 0.01566901
0.014307722 0.021323785 -0.024775304 0.034093626 -0.052235328 0.0606167 0.046860583 -0.038718387
-0.045103 -0.04263054 -0.03728634 0.0022595078 -0.029366136 0.054930367 -0.041082405 0.006978549
0.026467748 0.030636951 0.01093889 0.029744476 -0.030354887 -0.05711115 0.043007463 -0.040572844
0.058371328 0.061542757 0.030722968 0.04287505 0.049794838 -0.023789942 0.019170113 -0.0017710328
0.042655848 -0.015178837 0.018998615 -0.03627009 0.04416617 -0.022057764 -0.05480636 -0.02714093
0.034670964 0.06036178 0.015417077 -0.006252818 -0.013101362 -0.00078707933 -0.0413037 -0.0049130768
-0.024768502 0.04877486 -0.028948635 0.034251943 -0.016279213 -0.053886063 -0.05015561 0.021607533
-0.06115236 0.002314821 0.034569435 -0.023955025 0.038741246 0.047151677 -0.024581559 0.035497338
-0.006605141 -0.013319582 -0.03661046 0.062110692 -0.060521916 0.0595147 -0.01681932 0.055464417
-0.00062633306 -0.008655243 0.058699608 0.021190569 -0.06225612 0.0029839724 -0.03999953 0.0004805252
-0.003610462 0.020840257 -0.011668459 0.027764477 0.052249245 0.0024903193 -0.038905866 0.037351184
0.037981242 0.052589856 -0.015719242 -0.005210139 -0.039837502 -0.051401652 -0.03193775 -0.03846004
0.030378804 -0.046326168 -0.062234923 0.021896638 0.021682106 0.015295848 -0.051607832 0.042321555
0.05870536 -0.03484658 0.019375212 -0.062180556 0.015626512 0.027556665 0.054252334 -0.055890694

9 f4 [10, 512]
00000000: 2913 d0bc 9eed e73c f423 02bd d32f 243d
00000010: d44c 293c 6e62 07bd 2f53 afbc a160 8bbc
00000020: 9222 a93c bbfb 95bc 187c 763c 6794 283d
00000030: 4f34 cdbc 805b 3ebc dcd4 3ebc 1fda 093d
00000040: fc5f 42bc 60bf 763c ae21 03bd dc42 333c
00000050: 1fef 323d 86c3 02bd 7460 3d3c c568 303d
00000060: 3ebb fabc 1002 dbbb 03ea 07bd 5e1b a6bc
00000070: 6825 07bc 60e9 f3ba f01e 293b cb6e 263d
00000080: e0f5 be3a 885c 21bc 962e 90bc 4b9d 0f3d
00000090: b6ec 0bbd f060 60bb 777b 0c3d 0032 79bc
000000a0: b884 2b3c 40e5 24bc 04f8 49bc ce16 f63c
000000b0: 10a0 1e3b 8013 dfba 702f 243c 0c00 093c
000000c0: 68aa 9d3b 5cb9 14bd 4530 2e3d a378 05bd
000000d0: 0ae2 c93c d08b 5a3c e02d 80ba a55d 323d
000000e0: 5392 273d f0c3 e03b 4d7c 203d fc15 43bc
000000f0: b165 20bd e219 a03c f03b 913c 0ce0 763c
00000100: c0bb f4bc f287 b6bc 03c6 e3bc c2bd 1fbd
00000110: c0cf 42bc dec0 30bd e67b b93c e958 00bd
00000120: 381b ac3b 8ae5 c9bc 997f 013d d98c 25bd
00000130: b0bb d6bb 6023 173b 6634 c63c a45c 023c
00000140: 86e5 d0bc 22b7 843c 9c0f 0dbc 24c2 a1bc
00000150: aa48 fd3c 61d0 083d a00d 593c cad7 76bc
00000160: 5278 cb3c 20ef f73a 0083 b8bb 6f87 083d
00000170: aba2 1a3d d0b0 a5bb 1cf9 373c c60b 993c
00000180: 6cad 1bbd 74aa 453c 376d 253d 9215 e83c
00000190: 6bac 013d e4e9 2d3c 8030 9abb c843 723c
000001a0: d250 dd3c 026f fabc 8274 9f3c 0084 583c
000001b0: c051 0bba 6a72 eb3c 30e3 9a3b 100a 2abc
000001c0: da44 b03c a087 a2ba 48e3 fc3b b070 9d3b
000001d0: 323f b63c 2ebd 14bd 965e 20bd 7cc5 13bc
000001e0: 629d babc 20ea c1bb be0d bb3c c0ff 923a
000001f0: 3a77 f23c 3700 27bd 45ee 01bd 660b 1bbd
00000200: a0ad 45bc ea5c c83c 4c6f 8e3c 962a a03c
00000210: f0d5 14bc b1b0 c3bc 3af5 983c 0025 06bc
00000220: bb13 0f3d 7678 f6bc 4025 75bc b76b 0d3d
00000230: 9a0b e33c 2b28 0dbd e079 f2bc f085 583c
00000240: b979 1d3d 8e28 c13c 7936 253d f034 7c3b
00000250: 96a0 f93c e0e5 393b e423 21bd ef20 c8bc
00000260: ddbc 2b3d c1f0 13bd 357b 2a3d e9ec 0e3d
00000270: afd4 1c3d beca 883c e015 19bc d03f 4f3c
00000280: 788b 7a3c 76eb e83c b037 1b3c b8d4 933c
00000290: aae1 b43c 377b 93bc 6744 00bd 7e8f cf3c
000002a0: 2032 feba ebcb 193d f6a8 aa3c d2d0 8d3c
000002b0: 38e0 c63b 20fb ca3b d0a6 5bbb 6b69 303d
000002c0: 1ce5 04bd 6361 aebc 9a09 c23c 1855 433c
000002d0: e13d 8ebc 82ba e4bc 9648 c4bc a204 d13c
000002e0: ac1c b5bc b0c9 c13b 1f63 1e3d ab4a 083d
000002f0: 80b6 133c 8db4 303d 0848 28bd a24d e53c
00000300: 70e0 1bbc e195 003d 00d3 e5b9 fe12 0dbd
00000310: d8df 20bd 96bb 8ebc b72b 213d 8847 07bc
00000320: f0b5 34bc 1e6b f2bc f20e 873c 9046 7ebb
00000330: 98ec ac3b 926f 823c d8a6 6e3c 73e6 1c3d
00000340: 0060 a339 5b16 0a3d 83e9 34bd 6154 1e3d
00000350: 2c12 73bc 4385 003d 9481 5e3c f4a3 04bc
00000360: f8ad 1dbd 1852 863c 21d2 12bd f287 01bd
00000370: 1ff0 aabc b0e4 26bc 2e50 55bc 0c27 283c
00000380: 804c a2bc 8ccf 49bc 1a91 9d3c a559 fbbc
00000390: 82d0 fc3c 1afc c13c 9bb7 033d 3921 f6bc
000003a0: 63bb 04bd f01b 3bbb e636 8b3c 4a81 df3c
000003b0: 28df 39bc fdb0 25bd 56d3 863c 6088 a43b
000003c0: d81a 11bd b0a5 293c cafe c6bc bbde 0e3d
000003d0: 191d 2dbd f543 8bbc 7a24 df3c 982c 2cbc
000003e0: 740e 24bc adb1 033d 0aa4 99bc caa8 bf3c
000003f0: f752 84bc 6f31 07bd 88b1 a6bb 5e09 0fbd
-0.025399761 0.028311547 -0.03177257 0.04008467 0.010333259 -0.033052854 -0.02140197 -0.01701385
0.020646367 -0.018308511 0.015044235 0.041157153 -0.025049357 -0.011618495 -0.011647429 0.033655282
-0.011863705 0.015060276 -0.03201454 0.0109412335 0.043685075 -0.031924747 0.011558641 0.043068666
-0.030606862 -0.0066835955 -0.033182155 -0.020276722 -0.008248664 -0.001860898 0.0025805794 0.040633004
0.0014569126 -0.009848721 -0.017600339 0.035062116 -0.034161292 -0.0034237467 0.034297433 -0.015209675
0.010468654 -0.010064423 -0.012327198 0.030040171 0.0024204291 -0.0017019361 0.010021076 0.008361828
0.004811574 -0.036309585 0.042526502 -0.03258575 0.024643917 0.013338998 -0.0009779297 0.043546338
0.04091103 0.006859295 0.039181042 -0.011907097 -0.03915948 0.019543592 0.017728776 0.015068065
-0.029874682 -0.02228162 -0.02780438 -0.038999327 -0.011890352 -0.043152682 0.022642087 -0.03133479
0.005252268 -0.024645586 0.031615827 -0.040417526 -0.006553136 0.0023061857 0.024194907 0.007956658
-0.02550007 0.016200606 -0.008609679 -0.019745894 0.030918438 0.03340185 0.013247877 -0.015066097
0.024837647 0.0018915869 -0.005630851 0.033332285 0.03775279 -0.005056478 0.011228826 0.018682372
-0.038007185 0.012064565 0.04038736 0.028330598 0.03165857 0.010614846 -0.0047054887 0.014786668
0.027016077 -0.03057051 0.019464735 0.013215065 -0.0005314611 0.02874108 0.00472679 -0.010378376
0.021517206 -0.0012400039 0.0077175237 0.004804693 0.02224693 -0.03631323 -0.039152704 -0.009019252
-0.022780124 -0.0059178025 0.022833701 0.0011215135 0.029597867 -0.04077169 -0.031721372 -0.037852667
-0.012065321 0.024458367 0.017387055 0.019551557 -0.00908421 -0.023887964 0.01867162 -0.008187532
0.034930926 -0.030086737 -0.014962494 0.034526553 0.027715493 -0.034462135 -0.02959913 0.013215527
0.038446162 0.023578908 0.040335152 0.0038483702 0.030472081 0.0028365776 -0.03934087 -0.024429766
0.04192816 -0.036118273 0.041621406 0.034893904 0.03828877 0.016698238 -0.009343594 0.012649491
0.015292041 0.028432589 0.009473726 0.018045768 0.022080261 -0.01800309 -0.031315234 0.025336977
-0.00193936 0.037547987 0.02083252 0.017311487 0.0060692094 0.006194487 -0.0033516176 0.043069284
-0.03244506 -0.021286672 0.023686219 0.011922143 -0.01736349 -0.027920965 -0.023960393 0.025514904
-0.022108398 0.0059139356 0.038668748 0.033274334 0.009015679 0.043140937 -0.04108432 0.02799112
-0.009513959 0.031392936 -0.0004383549 -0.03444194 -0.039275974 -0.017423432 0.03934833 -0.0082568005
-0.011029705 -0.029592093 0.016486619 -0.0038799383 0.0052772276 0.015922341 0.014566146 0.03830571
0.00031161308 0.033712726 -0.044168007 0.03865469 -0.0148358755 0.03137709 0.0135806985 -0.00809573
-0.038495988 0.016396567 -0.035844926 -0.03162379 -0.020866452 -0.010186359 -0.013019605 0.010263216
-0.019811869 -0.012317549 0.019234229 -0.030682394 0.030861143 0.023679782 0.03215752 -0.030045139
-0.03240527 -0.0028550588 0.016993951 0.02728333 -0.0113447085 -0.040451992 0.016458195 0.00502114
-0.03542599 0.010354444 -0.024291415 0.03488038 -0.042264078 -0.017000178 0.027239073 -0.010508679
-0.0100132115 0.032151867 -0.018754978 0.023395915 -0.016152842 -0.033006128 -0.0050870813 -0.034921043
