distillation/snet2.pth (torch, 753727 bytes, 10 tensors)

conv1.weight f4 [64, 3, 7, 7]
0.025564976 0.032026537 0.019956462 0.07394467 0.03536646 0.056638718 0.059430614 0.040096126
0.061765775 -0.033819042 0.078003004 0.0804477 -0.056173697 -0.07062496 -0.047617044 -0.01782982
-0.022892263 -0.069536574 0.053756118 0.001176782 -0.021793228 -0.010834947 0.07665287 -0.07621644
-0.029461421 -0.034537677 0.037868947 0.0005853921 -0.06712666 -0.07080018 0.065716475 0.057554513
0.03421122 0.016341701 -0.0755473 0.081170246 0.049803898 -0.06676874 0.0007960126 -0.023589887
0.051049247 -0.030768901 -0.044532806 0.007885553 -0.03372931 -0.030215722 -0.041143324 0.032533504
0.027060688 0.062622905 -0.07004864 -0.047452647 -0.014248878 0.040739574 -0.069799565 -0.07929652
-0.03822754 0.008716159 -0.046230778 0.04763207 0.0650181 -0.002808638 -0.053248167 -0.0041063204
-0.016480617 0.0032770485 -0.038321055 0.07938291 0.022582859 0.07450582 0.07896879 0.047948837
0.042388014 0.07294361 -0.049797572 -0.04398389 -0.031155523 0.021799803 -0.04439694 0.02341231
-0.0024008006 0.07947466 -0.076241575 -0.030374944 -0.0396013 -0.027277716 0.014385626 0.0786251
0.034590065 0.061687678 -0.067198224 0.013172902 -0.041371066 -0.010642402 -0.06619884 0.019769974
-0.06983767 -0.028010353 -0.07110567 -0.02510744 0.07360263 -0.044196416 -0.047149293 -0.017308645
-0.058360703 -0.038370974 -0.02914673 -0.05158925 -0.034625094 0.035659693 0.07949129 -0.06754681
-0.026035178 -0.040621597 0.029941969 -0.06690272 0.060544997 -0.019086778 -0.041283276 0.019517362
0.007498972 0.07568139 0.063426584 0.0662283 0.05791302 0.04407437 -0.056763336 0.049066544
-0.033951096 -0.07236938 -0.0021452531 -0.0021407679 -0.03642219 -0.046338726 0.03174542 -0.054458357
-0.04412881 0.07129967 -0.075690605 -0.0228028 0.053318575 -0.069780715 -0.071711294 0.07733345
-0.056044992 0.05465439 0.04611455 -0.051284056 0.05105032 0.044331506 0.054372504 -0.025460348
0.0020964742 -0.025182027 -0.07350673 -0.040024143 -0.07242278 -0.08196919 -0.06540623 -0.014729857
-0.023625154 0.07271728 0.067640066 -0.010503873 0.05306907 0.01064878 -0.0010227561 0.079724565
0.026852272 0.036598258 -0.027545888 0.029769339 0.0028424263 -0.026564457 -0.040817417 0.01636783
-0.0021970198 -0.0590463 0.009137422 0.08243841 0.05877167 -0.07978475 -0.021043893 0.023672774
-0.0109696165 -0.061966337 -0.056751143 0.027210608 -0.00076862425 0.055660248 0.07677087 0.012045942
-0.07159196 -0.05625312 -0.04669478 0.06495756 -0.05430457 -0.046138484 -0.01697766 -0.0033264756
-0.047459923 -0.06425883 0.032329343 0.062106386 -0.040816136 -0.036873005 -0.044902448 0.08195159
0.04048375 -0.08154139 0.024608783 -0.028763197 0.007315807 0.028928444 -0.008616857 0.03815929
0.0028568506 0.048121184 -0.056203805 -0.07170647 0.059559405 0.074905485 -0.07168931 -0.05170919
0.07260732 0.036500514 -0.029740479 -0.06527821 -0.047285166 -0.019883148 -0.07949897 -0.018423058
-0.08156366 0.053633675 0.025743686 0.04498823 -0.03984953 0.048254624 -0.0443362 0.03813433
0.009494998 0.03324666 0.07030408 -0.021755993 0.0036354885 -0.07472216 0.021493748 -0.04884715
0.036160454 -0.03359523 -0.02133008 -0.046345185 0.023586482 -0.011071064 -0.07768068 -0.05525075
00000000: a46d d13c 422e 033d bc7b a33c 4e70 973d
00000010: 6cdc 103d 00fe 673d 846d 733d d63b 243d
00000020: 1cfe 7c3d d685 0abd 0ac0 9f3d c4c1 a43d
00000030: 6416 66bd d2a3 90bd 170a 43bd d80f 92bc
00000040: 8e88 bbbc 3169 8ebd 602f 5c3d 403e 9a3a
00000050: b687 b2bc 1085 31bc 2efc 9c3d 5d17 9cbd
00000060: 1459 f1bc 6177 0dbd 781c 1b3d 0075 193a
00000070: b479 89bd afff 90bd 5c96 863d 48be 6b3d
00000080: 1021 0c3d 08df 853c 8bb8 9abd 963c a63d
00000090: 2cff 4b3d 0dbe 88bd 80ab 503a 943f c1bc
000000a0: 0419 513d 100f fcbc 0868 36bd 6832 013c
000000b0: bf27 0abd f686 f7bc e785 28bd da41 053d
000000c0: 60ae dd3c 7040 803d a975 8fbd b55d 42bd
000000d0: 2074 69bc 8ade 263d 13f3 8ebd 3766 a2bd
000000e0: 7b94 1cbd 38ce 0e3c 7c5c 3dbd d819 433d
000000f0: 3628 853d 2011 38bb c01a 5abd 508e 86bb
00000100: 5c02 87bc c0c3 563b 8af6 1cbd 8293 a23d
00000110: b0ff b83c 8296 983d 64ba a13d 0066 443d
00000120: 0e9f 2d3d 7663 953d 8af8 4bbd 7428 34bd
00000130: de39 ffbc 8095 b23c 91d9 35bd 2ccb bf3c
00000140: c056 1dbb 9cc3 a23d 8b24 9cbd e0d4 f8bc
00000150: f934 22bd 8475 dfbc b0b1 6b3c 3206 a13d
00000160: 50ae 0d3d 38ac 7c3d 399f 89bd 28d3 573c
00000170: b574 29bd 785d 2ebc 4293 87bd a4f4 a13c
00000180: 0d07 8fbd f875 e5bc d99f 91bd 1eae cdbc
00000190: fabc 963d 4d07 35bd 9e1f 41bd dcca 8dbc
000001a0: a20b 6fbd e22a 1dbd 20c5 eebc 404f 53bd
000001b0: 0bd3 0dbd e60f 123d 54cc a23d fb55 8abd
000001c0: ba47 d5bc d562 26bd dc48 f53c 4b04 89bd
000001d0: 08fe 773d e05b 9cbc a718 29bd e0e2 9f3c
000001e0: f0b9 f53b d8fe 9a3d cce5 813d b4a2 873d
000001f0: 3436 6d3d 5487 343d ac80 68bd 00fa 483d
00000200: 4e10 0bbd 6636 94bd 6097 0cbb 204c 0cbb
00000210: 6f2f 15bd adcd 3dbd 7c07 023d ba0f 5fbd
00000220: 69c0 34bd 9005 923d ad03 9bbd f0cc babc
00000230: 9464 5a3d 31e9 8ebd 5fdd 92bd 0061 9e3d
00000240: 6f8f 65bd 48dd 5f3d 9ce2 3c3d 3b0f 52bd
00000250: 241a 513d f494 353d b4b5 5e3d 3892 d0bc
00000260: 0065 093b 8a4a cebc b28a 96bd 5bf0 23bd
00000270: 6552 94bd 76df a7bd b4f3 85bd 8055 71bc
00000280: 8a89 c1bc ccec 943d e086 8a3d 7018 2cbc
00000290: f45e 593d 3878 2e3c 000e 86ba a246 a33d
000002a0: 4cf9 db3c 0ee8 153d eaa7 e1bc d4de f33c
000002b0: 0048 3a3b b49d d9bc 2a30 27bd d415 863c
000002c0: e0fb 0fbb 88da 71bd 20b5 153c 78d5 a83d
000002d0: 90ba 703d 3066 a3bd 3e64 acbc 68ed c13c
000002e0: e8b9 33bc 6ad0 7dbd e373 68bd c8e8 de3c
000002f0: 807d 49ba 00fc 633d 0c3a 9d3d 585c 453c
00000300: ce9e 92bd ac69 66bd 0743 3fbd 7808 853d
00000310: 786e 5ebd b5fb 3cbd bc14 8bbc 0001 5abb
00000320: 5665 42bd 229a 83bd c66b 043d 4463 7e3d
00000330: d22e 27bd 2608 17bd a1eb 37bd 3cd6 a73d
00000340: 4ad2 253d 2cff a6bd 5c98 c93c cca0 ebbc
00000350: 70b9 ef3b 58fb ec3c b82d 0dbc ea4c 1c3d
00000360: 003a 3b3b b81a 453d f635 66bd d7da 92bd
00000370: 90f4 733d 0c68 993d d8d1 92bd 04cd 53bd
00000380: 26b3 943d 9081 153d 4ea2 f3bc 95b0 85bd
00000390: 17ae 41bd fce1 a2bc 5bd0 a2bd f4eb 96bc
000003a0: d90a a7bd fcae 5b3d 6ce4 d23c 9445 383d
000003b0: 4339 23bd a4a6 453d e099 35bd be32 1c3d
000003c0: e890 1b3c a62d 083d 96fb 8f3d a039 b2bc
000003d0: 6041 6e3b ef07 99bd a813 b03c f313 48bd
000003e0: fc1c 143d 279b 09bd 6cbc aebc 73d4 3dbd
000003f0: 7038 c13c 6863 35bc 0c17 9fbd 9c4e 62bd

conv1.bias f4 [64]
0.061618716 0.019013323 0.064356506 0.0056566 -0.008651085 -0.003137 -0.07783871 -0.06709291
-0.029601846 -0.06552525 -0.004817061 0.01603856 0.004359126 -0.038493983 0.008708127 -0.080177404
0.0037496164 -0.016517937 0.02185423 0.015127838 -0.023537107 -0.079023406 0.005960837 0.07344945
-0.019844286 0.02203495 0.0519844 0.018782929 -0.00011189282 -0.017616786 0.007986009 -0.063808106
0.07869151 -0.053708907 0.007816397 0.010305412 -0.036013167 -0.05449228 -0.01936233 -0.07872769
0.05657552 -0.030710023 0.026919685 0.060827926 0.0019211099 -0.08204409 0.0689878 -0.06545716
0.00847473 0.011335209 0.05664721 0.0722305 -0.010069378 -0.029291637 -0.037375174 0.047908768
0.070486575 0.065027505 0.07023139 0.07195559 0.023719661 -0.08177295 -0.014331348 -0.06723987
00000000: e863 7c3d d4c1 9b3c 58cd 833d 005b b93b
00000010: 48bd 0dbc 2096 4dbb e769 9fbd 0268 89bd
00000020: 927f f2bc 1a32 86bd 70d8 9dbb 4c63 833c
00000030: 00d7 8e3b deab 1dbd 88ac 0e3c 0d34 a4bd
00000040: 20bc 753b a050 87bc a407 b33c c0da 773c
00000050: e4d0 c0bc 06d7 a1bd 2053 c33b aa6c 963d
00000060: 7c90 a2bc a482 b43c 98ed 543d a8de 993c
00000070: 00a8 eab8 1451 90bc c0d7 023c d3ad 82bd
00000080: 0429 a13d dffd 5bbd 5810 003c 08d8 283c
00000090: 8b82 13bd 4c33 5fbd c09d 9ebc fc3b a1bd
000000a0: bcbb 673d 9693 fbbc ac86 dc3c b426 793d
000000b0: c0cd fb3a bb06 a8bd 7a49 8d3d 670e 86bd
000000c0: 98d9 0a3c 50b7 393c e806 683d 96ed 933d
000000d0: 08fa 24bc 04f5 efbc b616 19bd fc3b 443d
000000e0: 445b 903d 242d 853d 7ad5 8f3d 745d 933d
000000f0: bc4f c23c 9478 a7bd 08ce 6abc 0fb5 89bd

conv2.weight f4 [128, 64, 1, 1]
0.07579818 -0.0017843843 -0.017742783 0.01281786 0.014018431 -0.09886427 0.08123699 0.034771353
0.10940263 -0.025012776 -0.0135472715 -0.07572679 0.045161888 -0.104043275 -0.06018211 0.085807785
-0.10398871 0.072693184 0.024927303 -0.04874979 0.089275405 0.033480555 0.07819751 -0.09961024
-0.12256725 -0.11120945 0.026169553 -0.10479693 0.085929364 -0.09980148 -0.117938176 0.068960056
0.0927742 0.00023646653 0.06344257 0.11177257 0.0244779 0.00996165 0.032410905 -0.09422585
0.0856736 -0.047875658 -0.10555214 0.046407312 -0.116970345 -0.054570258 0.07358712 -0.052928016
-0.09989728 -0.032215804 0.07323809 -0.04882118 -0.06717163 0.07151988 0.1027765 -0.108713925
0.0684236 -0.052477285 -0.043545276 0.03231466 0.064424336 0.11009465 0.05812724 0.07537691
-0.09368138 -0.10202278 0.08665393 0.0060487986 -0.024073541 -0.077277526 0.08019899 0.1077064
-0.07865031 -0.03129232 -0.056351736 -0.08521116 -0.055982113 0.06825924 -0.016945198 -0.100162685
0.06272304 0.04859087 0.047754064 -0.003426224 0.020176351 0.07094088 -0.059585854 0.03720711
0.08398312 0.11475192 -0.04863815 0.09149216 0.0630824 0.112244636 -0.049436867 0.008554965
0.038187265 -0.023167789 -0.022031501 0.053552598 0.1165379 0.045325503 0.027047113 0.02682054
0.017244577 -0.03212793 0.093074545 0.039778516 -0.12135063 -0.10556878 0.047439024 -0.00019526482
0.09487714 -0.0008651912 -0.041816607 0.1067041 0.12072304 0.038320094 0.07382554 0.027815178
-0.053679004 -0.020460218 -0.0266072 0.015770987 0.016022772 -0.08940408 -0.030868843 -0.048477903
0.066542506 -0.09758958 0.077472314 0.031485632 0.1112124 -0.045219228 -0.0029581338 0.1179008
0.07454562 -0.11418992 0.05757381 -0.030225366 0.09078488 -0.029562503 -0.10191569 0.116950855
0.11580978 -0.08784318 0.11771977 0.10154325 -0.022007838 -0.07542044 0.08145043 0.08980079
-0.10419868 -0.095494136 0.058336735 0.037874237 -0.05603899 0.022170648 -0.084735066 -0.03544651
0.005663827 0.09835999 0.1082637 0.08632009 -0.04169561 0.09460209 0.075551 -0.04345447
0.07474603 -0.07213789 0.11023228 0.04289566 -0.10769372 0.004873529 -0.055365816 0.023600414
-0.11403878 -0.079526395 -0.09393138 0.0011707842 -0.07303536 0.054924056 0.018940687 -0.021668658
-0.10343492 0.07638198 -0.122808084 0.03684008 -0.12358087 -0.03558898 -0.07188167 0.021852717
-0.028506443 -0.011397094 0.035455137 -0.016101882 -0.121173665 -0.06901541 -0.06042847 0.108201504
0.1088036 -0.04045403 -0.096741796 0.021076873 0.09872115 0.018109933 0.11291118 -0.08083901
-0.0891493 0.064655855 -0.04915315 -0.03626351 0.024071574 0.08441448 0.10025598 -0.014134243
0.06797889 -0.07272607 -0.0316478 0.105270535 0.12064248 0.11640534 -0.023194745 0.11039555
0.07870677 -0.001404494 0.11739662 -0.096236035 0.049058795 0.10023612 -0.101124406 0.0151862055
-0.045820132 -0.09103127 0.101022944 0.032555178 0.12098782 -0.099142924 -0.062199265 -0.024351016
-0.08945775 0.09156218 -0.06568506 -0.010931209 0.032155037 -0.013252854 -0.08943677 -0.07374258
0.12349643 0.012268245 -0.034408495 -0.07232587 -0.0716936 0.055189908 -0.07374759 0.010313928
00000000: 143c 9b3d 00e2 e9ba 5059 91bc 0002 523c
00000010: 90ad 653c 5a79 cabd 945f a63d 686c 0e3d
00000020: 7c0e e03d 98e7 ccbc 60f5 5dbc a616 9bbd
00000030: acfb 383d a414 d5bd 8481 76bd febb af3d
00000040: 08f8 d4bd 2ae0 943d 5834 cc3c dcad 47bd
00000050: 06d6 b63d e822 093d 0426 a03d 7400 ccbd
00000060: 8a04 fbbd c8c1 e3bd 8861 d63c c69f d6bd
00000070: bcfb af3d b864 ccbd 9289 f1bd ee3a 8d3d
00000080: 6600 be3d 00f4 7739 2eee 813d 04e9 e43d
00000090: e085 c83c 3036 233c 4cc1 043d 7cf9 c0bd
000000a0: a475 af3d 4419 44bd b82b d8bd 9815 3e3d
000000b0: 268e efbd 1085 5fbd d8b4 963d 0ccb 58bd
000000c0: f296 ccbd b8f4 03bd dafd 953d b8f8 47bd
000000d0: 4891 89bd 0479 923d 7c7c d23d 68a5 debd
000000e0: ac21 8c3d 6cf2 56bd 885c 32bd 605c 043d
000000f0: e8f0 833d 4e79 e13d d416 6e3d 365f 9a3d
00000100: 06dc bfbd 52f1 d0bd 9e77 b13d 0035 c63b
00000110: e035 c5bc ae43 9ebd 5e3f a43d 2c95 dc3d
00000120: 6a13 a1bd 602c 00bd 14d1 66bd 3083 aebd
00000130: 804d 65bd 80cb 8b3d a8d0 8abc 1822 cdbd
00000140: f074 803d 3807 473d c499 433d 808a 60bb
00000150: e048 a53c 7449 913d 4c10 74bd 7c66 183d
00000160: 58ff ab3d 0e03 eb3d cc38 47bd 3e60 bb3d
00000170: 5831 813d 84e0 e53d 507e 4abd 202a 0c3c
00000180: 406a 1c3d 60ca bdbc 687b b4bc f859 5b3d
00000190: 6cab ee3d 3ca7 393d e891 dd3c c0b6 db3c
000001a0: 8044 8d3c 9498 03bd de9d be3d ccee 223d
000001b0: ae86 f8bd 7234 d8bd 6c4f 423d 00c0 4cb9
000001c0: f24e c23d 00ce 62ba e447 2bbd ae87 da3d
000001d0: a43d f73d 88f5 1c3d d831 973d a8dc e33c
000001e0: 84de 5bbd 309c a7bc 58f7 d9bc 2832 813c
000001f0: 3042 833c 7c19 b7bd a8e0 fcbc c490 46bd
00000200: 7047 883d 0cdd c7bd cea9 9e3d 14f7 003d
00000210: 54c3 e33d cc37 39bd 40dd 41bb fa75 f13d
00000220: 60ab 983d 68dc e9bd 84d2 6b3d 309b f7bc
00000230: 6ced b93d 102d f2bc 2cb9 d0bd ee83 ef3d
00000240: ae2d ed3d 20e7 b3bd 1017 f13d e8f5 cf3d
00000250: c849 b4bc 0876 9abd 7ccf a63d 7ae9 b73d
00000260: 1e66 d5bd 6e92 c3bd 80f2 6e3d 0422 1b3d
00000270: 2489 65bd 389f b53c 9489 adbd 5c30 11bd
00000280: a097 b93b f670 c93d 5cb9 dd3d 96c8 b03d
00000290: 04c9 2abd bebe c13d 7cba 9a3d 50fd 31bd
000002a0: 7214 993d 08bd 93bd 76c1 e13d 5cb3 2f3d
000002b0: 868e dcbd 20b2 9f3b 44c7 62bd a855 c13c
000002c0: 2a8d e9bd bcde a2bd 185f c0bd 0075 993a
000002d0: 9093 95bd 0cf8 603d 8029 9b3c 7882 b1bc
000002e0: b0d5 d3bd 286e 9c3d ce82 fbbd a0e5 163d
000002f0: f817 fdbd c0c5 11bd b236 93bd 7804 b33c
00000300: 5886 e9bc e0ba 3abc 6839 113d 18e8 83bc
00000310: e629 f8bd f457 8dbd d883 77bd c098 dd3d
00000320: 6cd4 de3d 20b3 25bd 9020 c6bd 68a9 ac3c
00000330: 502e ca3d 485b 943c fa3d e73d ec8e a5bd
00000340: e893 b6bd 4a6a 843d d054 49bd 0c89 14bd
00000350: c031 c53c 80e1 ac3d 0253 cd3d 5093 67bc
00000360: 8438 8b3d 68f1 94bd 20a1 01bd 1498 d73d
00000370: 6813 f73d ec65 ee3d e802 bebc 1017 e23d
00000380: 0431 a13d 0017 b8ba a46d f03d 6617 c5bd
00000390: e0f1 483d 9848 cd3d 501a cfbd 90cf 783c
000003a0: e4ad 3bbd 9a6e babd 1ee5 ce3d 9458 053d
000003b0: 76c8 f73d 720b cbbd a8c4 7ebd c87b c7bc
000003c0: a035 b7bd f484 bb3d e485 86bd d018 33bc
000003d0: 00b5 033d 8022 59bc a02a b7bd 5a06 97bd
000003e0: b2eb fc3d c000 493c ecef 0cbd 961f 94bd
000003f0: 18d4 92bd d00e 623d fa08 97bd c0fb 283c

conv2.bias f4 [128]
0.08208403 -0.086670026 0.121202245 0.07620692 0.03253813 -0.06605022 0.07565391 -0.06914149
0.046221882 -0.10117975 -0.024365038 -0.04394619 0.036575288 0.076399386 0.054876268 0.103573576
0.040274158 0.077542886 0.024004325 -0.03373918 0.040661484 0.073412254 0.062358797 0.11337739
-0.110016435 -0.0031782985 -0.12188445 -0.009625122 0.108086154 0.11629428 -0.013410389 0.102246255
-0.098126605 0.08993715 -0.020469993 -0.026111454 0.051241934 0.016377047 0.10847743 0.08038969
-0.06503385 -0.089826405 0.06309271 0.06153871 -0.08315043 -0.12115647 -0.12471886 -0.0678684
-0.106667295 -0.10340878 0.019001454 -0.09078926 0.02813916 0.032695353 -0.05357547 0.087610245
-0.0827235 -0.067918465 -0.08131027 0.06816299 -0.09670204 -0.08286978 -0.013047874 0.098453075
-0.06692605 -0.032988504 0.061402604 0.065953255 -0.055210218 0.06221935 -0.07947828 0.10403484
0.07606599 -0.05244276 9.9629164e-05 0.045577705 0.017939687 -0.08577931 -0.120658904 0.078860775
0.05825916 0.01969181 0.08808777 0.11362037 0.05155635 -0.06719592 0.020487621 0.004111424
-0.0620189 0.06980929 0.11761598 0.11186561 0.12067005 -0.09829417 -0.06702265 0.09327474
0.06612307 0.009319514 0.106030464 0.017330572 -0.07316303 -0.10342915 -0.106824294 -0.022424534
-0.12492372 0.12037672 0.018602893 0.021458358 0.020708427 0.053557143 -0.06193614 -0.09351727
0.022156 -0.064510524 0.01242733 0.07226747 -0.09790331 -0.11038992 0.053533077 0.08075613
0.106528476 0.046250567 0.07263371 -0.037288383 0.098139614 0.046155587 0.06271246 0.09015314
00000000: ac1b a83d 0e80 b1bd e238 f83d 6012 9c3d
00000010: b446 053d 5645 87bd 70f0 9a3d 0e9a 8dbd
00000020: 2853 3d3d 5437 cfbd 3099 c7bc ec00 34bd
00000030: f8cf 153d 4877 9c3d f0c5 603d 621e d43d
00000040: 84f6 243d cece 9e3d b8a4 c43c 1832 0abd
00000050: a88c 263d 2a59 963d f06b 7f3d 6832 e83d
00000060: 4c50 e1bd 004b 50bb 8e9e f9bd b0b2 1dbc
00000070: 465c dd3d b22b ee3d 40b7 5bbc 7c66 d13d
00000080: 9af6 c8bd f830 b83d b0b0 a7bc b0e7 d5bc
00000090: 10e3 513d 2829 863c 6a29 de3d 5aa3 a43d
000000a0: 7830 85bd e8f6 b7bd c036 813d 0410 7c3d
000000b0: c64a aabd e220 f8bd 9a6c ffbd 96fe 8abd
000000c0: 6274 dabd fcc7 d3bd f0a8 9b3c b8ef b9bd
000000d0: 1884 e63c 90eb 053d f471 5bbd 006d b33d
000000e0: f06a a9bd d618 8bbd 0086 a6bd 0a99 8b3d
000000f0: b80b c6bd a2b7 a9bd c0c6 55bc c4a1 c93d
00000100: 8610 89bd f41e 07bd 4c81 7b3d 8012 873d
00000110: 1c24 62bd b8d9 7e3d 82c5 a2bd 3810 d53d
00000120: 7cc8 9b3d 38ce 56bd 00f0 d038 b0af 3a3d
00000130: 40f6 923c 10ad afbd 041c f7bd c281 a13d
00000140: 28a1 6e3d b850 a13c 5c67 b43d ccb1 e83d
00000150: c02c 533d 049e 89bd a8d5 a73c 20b9 863b
00000160: 8807 7ebd 2cf8 8e3d a6e0 f03d cc19 e53d
00000170: dc21 f73d 744e c9bd 2c43 89bd d406 bf3d
00000180: 886b 873d e0b0 183c 8026 d93d d8f8 8d3c
00000190: 80d6 95bd aad2 d3bd b2c6 dabd a8b3 b7bc
000001a0: 02d8 ffbd 1288 f63d 1865 983c 70c9 af3c
000001b0: b8a4 a93c bc5e 5b3d c0b0 7dbd fc85 bfbd
000001c0: 8080 b53c 181e 84bd 009c 4b3c f800 943d
000001d0: 8881 c8bd 1c14 e2bd 8045 5b3d 7863 a53d
000001e0: 9a2b da3d 3c71 3d3d fcc0 943d b4bb 18bd
000001f0: 6cfd c83d a40d 3d3d 646f 803d 36a2 b83d

conv3.weight f4 [256, 128, 1, 1]
-0.04257213 0.050788455 0.009667747 0.03155054 0.037059523 0.077469535 -0.075622834 -0.08627767
-0.067371026 -0.06531472 -0.019655064 0.059349112 -0.017880224 0.087979905 -0.026353285 -0.015748352
-0.062551 -0.061893236 -0.011600457 0.050017588 0.08781525 0.07954449 0.0015445352 0.07870186
0.080804355 -0.0776689 -0.050391562 0.006163694 0.06850768 0.01849921 0.030964896 -0.009571612
-0.06667147 -0.07281801 0.08239456 -0.014476255 -0.08471548 -0.012729339 0.053222008 0.021375693
-0.060763597 0.07182156 -0.05382396 -0.05685571 0.017207064 -0.03471034 0.04857611 0.0650109
0.05621562 0.0070301965 -0.015850693 -0.08505029 0.061287366 0.011250719 0.061750226 0.0800299
-0.002803184 -0.054640323 -0.0007674694 0.038747393 -0.057640072 -0.01216951 -0.00053765625 -0.037188027
-0.039136395 0.06604772 0.0017207116 0.035784602 -0.007249035 -0.003275983 -0.076948926 -0.084192924
0.063338466 0.018094972 0.06866131 0.08178393 0.046462543 -0.04884924 -0.07677708 0.08656796
0.024667136 -0.048529673 0.017048165 0.05651758 0.037259303 -0.031251162 0.0381423 -0.08134527
-0.024035044 0.06550904 -0.044095665 -0.01895938 -0.011327274 -0.06684256 0.0104335025 0.06921684
0.04369039 -0.06817378 -0.07752877 0.01860132 -0.035892233 0.010774903 -0.036082655 -0.011289179
-0.06030359 0.07032364 -0.03826093 -0.06996398 -0.060109403 0.0030018538 -0.017693877 0.0025780275
0.018080734 0.01607363 0.01724653 -0.0015954897 -0.08364146 0.007963963 0.03926497 0.051326312
-0.056677964 0.014047526 -0.062217925 -0.041324276 0.07639664 0.02649533 -0.029711168 0.014078014
-0.026759446 -0.07660166 -0.038573734 -0.026928402 -0.034232166 0.0741686 -0.019900888 0.07540067
0.08437649 0.032711983 -0.03661164 0.06306421 0.03612628 -0.022290856 -0.08358137 -0.060315132
0.009663753 -0.07325142 -0.07995215 0.06723038 -0.020767637 0.056676753 -0.061053313 -0.038056623
-0.004490137 0.05150319 0.052159034 0.0077790767 -0.067100376 0.0084986985 0.05566842 0.010850623
-0.002415888 0.053676344 0.06858335 -0.014985405 -0.04486451 -0.082465604 -0.054692257 -0.059811763
0.023153774 -0.05242602 -0.025170296 -0.062167242 0.015506007 0.0054008365 -0.02115228 -0.020765878
-0.043814052 0.031585008 -0.009784684 0.05451963 0.02452819 -0.011439152 -0.07303504 0.06392468
-0.06313346 0.028088622 -0.08157576 0.027882487 0.024843663 -0.028061498 0.08702495 -0.017153747
-0.06220195 -0.03337201 0.06771753 0.08668404 -0.0014880449 0.066155635 0.08454343 -0.07543171
0.053508498 0.050457157 0.05311238 0.056232758 0.08553199 -0.07598184 -0.053236052 -0.049126778
0.01609543 -0.084112324 0.07631678 0.049234264 0.08764694 -0.03220936 -0.03665918 0.0011629909
-0.025503471 0.07264448 0.038560845 -0.03084889 -0.02244091 -0.02036117 -0.066960946 -0.009746425
0.013336055 -0.004572198 -0.045509093 0.05464389 -0.008022055 -0.017485872 0.08323262 -0.08647389
-0.08638459 0.073903926 0.07048907 -0.02971866 0.083458595 0.08102343 0.041152336 0.056205742
0.0027363002 0.055459596 0.047815554 -0.08573418 0.04840166 -0.029891755 -0.040750142 0.007420957
-0.08429272 0.07514668 -0.0004171729 0.018916056 -0.032359853 -0.030627515 -0.020058915 0.083467595
00000000: 1d60 2ebd 8e07 503d 7865 1e3c 243b 013d
00000010: bacb 173d 59a8 9e3d 25e0 9abd 59b2 b0bd
00000020: d2f9 89bd b9c3 85bd a803 a1bc 0e18 733d
00000030: 8c79 92bc cf2e b43d d8e2 d7bc b002 81bc
00000040: bd1a 80bd c383 7dbd d80f 3ebc 3edf 4c3d
00000050: 7bd8 b33d 39e8 a23d 0072 ca3a 712e a13d
00000060: c17c a53d df10 9fbd 6267 4ebd d0f8 c93b
00000070: c14d 8c3d a88b 973c 18aa fd3c 40d2 1cbc
00000080: 0d8b 88bd 9c21 95bd 7bbe a83d d02d 6dbc
00000090: 4f7f adbd b88e 50bc 52ff 593d 141c af3c
000000a0: 40e3 78bd 2f17 933d 8376 5cbd 88e1 68bd
000000b0: d4f5 8c3c 6e2c 0ebd bef7 463d 6f24 853d
000000c0: 5a42 663d 905d e63b 50d9 81bc d92e aebd
000000d0: 7608 7b3d f054 383c ceed 7c3d b7e6 a33d
000000e0: a0b5 37bb 88ce 5fbd 0030 49ba 96b5 1e3d
000000f0: ff17 6cbd a062 47bc 80f1 0cba 7952 18bd
00000100: 7c4d 20bd 0744 873d 8089 e13a e092 123d
00000110: 5089 edbb e0b1 56bb 6697 9dbd 576d acbd
00000120: 99b7 813d e83b 943c 4d9e 8c3d 557e a73d
00000130: 824f 3e3d 2416 48bd 4d3d 9dbd 8b4a b13d
00000140: bc12 ca3c 0dc7 46bd 98a8 8b3c fa7e 673d
00000150: 369d 183d 3801 00bd 1a3b 1c3d 5998 a6bd
00000160: 24e5 c4bc 9b29 863d a89d 34bd b450 9bbc
00000170: 0896 39bc c1e4 88bd 48f1 2a3c 8fc1 8d3d
00000180: b2f4 323d b29e 8bbd 67c7 9ebd cc61 983c
00000190: bc03 13bd 3889 303c 68cb 13bd 40f6 38bc
000001a0: e600 77bd d705 903d 7eb7 1cbd 4649 8fbd
000001b0: 4735 76bd c0ba 443b c0f2 90bc 20f4 283b
000001c0: 0c1e 943c d8ac 833c 9848 8d3c c01f d1ba
000001d0: 374c abbd 487b 023c 4ed4 203d 8a3b 523d
000001e0: 2727 68bd 9827 663c 39d8 7ebd a543 29bd
000001f0: d775 9c3d bc0c d93c d664 f3bc 78a7 663c
00000200: a036 dbbc 55e1 9cbd 7eff 1dbd f498 dcbc
00000210: 0737 0cbd b5e5 973d 3007 a3bc ab6b 9a3d
00000220: 95cd ac3d 00fd 053d 16f6 15bd cf27 813d
00000230: 26f9 133d 509b b6bc b62c abbd 000d 77bd
00000240: b854 1e3c d704 96bd f4bd a3bd 15b0 893d
00000250: e420 aabc e225 683d 0a13 7abd 43e1 1bbd
00000260: 0022 93bb 02f5 523d b6a4 553d a0e7 fe3b
00000270: ec6b 89bd 203e 0b3c 9204 643d d0c6 313c
00000280: e053 1ebb badb 5b3d 6d75 8c3d 5885 75bc
00000290: d9c3 37bd bae3 a8bd fd04 60bd 2efd 74bd
000002a0: fcac bd3c abbc 56bd f031 cebc 14a3 7ebd
000002b0: e80c 7e3c 80f9 b03b 8c47 adbc 341d aabc
000002c0: 5d76 33bd 485f 013d f04f 20bc fa4f 5f3d
000002d0: 58ef c83c 486b 3bbc 6593 95bd f1ea 823d
000002e0: 1e4c 81bd 1c1a e63c 3111 a7bd d069 e43c
000002f0: f084 cb3c 3ae1 e5bc 233a b23d 0486 8cbc
00000300: 79c7 7ebd 17b1 08bd 7daf 8a3d 6787 b13d
00000310: 800a c3ba 9b7c 873d 1b25 ad3d f17b 9abd
00000320: ba2b 5b3d 2aac 4e3d 5e8c 593d 5254 663d
00000330: 652b af3d 5e9c 9bbd 0c0e 5abd 2939 49bd
00000340: 90da 833c 1543 acbd f94b 9c3d dea9 493d
00000350: 3d80 b33d f6ed 03bd f027 16bd 806f 983a
00000360: a8ec d0bc a1c6 943d faf1 1d3d d0b6 fcbc
00000370: 00d6 b7bc 78cc a6bc d222 89bd 78af 1fbc
00000380: 787f 5a3c 60d2 95bb be67 3abd 46d2 5f3d
00000390: f06e 03bc 883e 8fbc dd75 aa3d 3919 b1bd
000003a0: 67ea b0bd f15a 973d 935c 903d 8c74 f3bc
000003b0: 57ec aa3d 9def a53d 5a8f 283d fe37 663d
000003c0: 8053 333b 9a29 633d 3eda 433d 6795 afbd
000003d0: d240 463d 8edf f4bc 9fe9 26bd 802b f33b
000003e0: a9a1 acbd 81e6 993d 00b8 dab9 d8f5 9a3c
000003f0: c48b 04bd 8ee6 fabc 9852 a4bc 0ff1 aa3d

conv3.bias f4 [256]
-0.025388397 0.08799944 0.06866097 -0.074476145 -0.01532241 -0.075843655 0.050365947 0.06307236
0.0634008 0.0077494904 -0.028667834 -0.03357202 -0.037212275 -0.08348248 0.025013223 0.010214709
-0.07408913 -0.07559137 0.047982775 0.030282207 -0.0108774975 -0.058919143 0.078407936 0.0725865
-0.06756005 -0.03138736 0.035260916 0.005475521 0.029566802 0.02676206 -0.057684913 -0.040369146
-0.08688166 0.058176078 0.024210744 0.005866356 -0.08610202 0.011024855 -0.08738867 0.044411518
0.016391605 0.08338987 0.071172364 -0.037381105 -0.07212421 -0.035508014 -0.056040715 0.06593663
0.08258497 0.055115007 -0.03249401 0.041185386 -0.07776898 0.03366623 -0.008765429 0.07400308
-0.078919254 -0.0102016255 0.0553061 0.06170962 -0.055124335 -0.08384575 -0.018280089 0.028734699
0.0615853 0.08254706 -0.022021003 -0.012510315 0.0215265 0.062428035 0.071895175 0.0680201
-0.06504907 -0.045703758 -0.019220978 0.0042445883 -0.008776851 0.06371831 -0.013045184 -0.006677285
0.006963514 0.068178885 -0.02511128 0.055023737 -0.06212847 -0.07890989 0.056593306 0.08068041
0.037446596 0.026101135 -0.0762964 0.012061618 0.061145283 0.08337725 0.026751153 0.0074565336
-0.04810286 0.0024682581 -0.001870878 0.08389003 0.043132357 -0.02738715 -0.04573498 0.08464549
-0.024995849 -0.067920044 -0.012330219 0.04675088 0.014365964 -0.02413588 -0.046571277 0.045818128
0.021506399 -0.04364403 -0.059565097 0.08693277 0.0045416057 -0.06659368 0.029758759 0.05396626
0.034648374 0.002084963 0.07302321 -0.050699424 -0.07828471 0.064002 -0.081113875 -0.03346331
0.009472959 -5.64456e-05 -0.05572197 0.07322291 -0.046044 0.04810437 -0.08762109 0.05535441
0.08350182 0.08007439 0.043521248 -0.016360238 -0.053296313 -0.019053102 -0.050173387 0.026121028
-0.07544469 -0.04851374 -0.08114908 -0.033015102 -0.03969425 0.08488951 0.05604603 0.0004573688
-0.08006877 -0.043326877 0.005306542 -0.07759715 0.06626918 0.031115562 0.081996016 0.004332252
0.05590462 0.0011109486 -0.029170804 -0.060214736 0.027521126 0.08152654 0.052336015 -0.020622082
-0.07244005 -0.057137482 0.016731836 -0.0864846 0.07956203 -0.07258333 0.04192669 0.06814384
0.031772822 0.07468092 0.05351042 0.06476297 -0.044932798 -0.02925891 -0.021242209 0.021214314
0.025568888 0.034524977 0.006377831 0.00032296777 -0.05477415 0.04812161 0.045985766 -0.060225055
-0.014607899 -0.074711785 -0.06036344 0.013000354 -0.035193905 -0.05968537 0.08324928 -0.014421344
-0.011504613 0.046249963 0.0013565943 -0.024760798 0.08715808 -0.01657962 0.04732973 0.059964202
0.07556186 0.049926035 0.030486986 -0.010366365 -0.082196824 0.08624867 -0.036320224 -0.054760892
-0.0022748262 -0.010066763 0.068108656 0.07213787 -0.039979458 -0.0749195 -0.021032646 -0.052692927
-0.04454672 0.045648612 -0.024485804 -0.06695719 0.00676053 0.06396999 -0.06562691 0.072539695
0.081769936 -0.028104097 0.08166698 0.08002212 0.028648153 -0.04977844 0.026892953 -0.019339368
0.07763616 -0.032862194 -0.0065841377 0.051957913 0.062202238 -0.07910205 0.013869263 0.06887425
-0.03229698 -0.02213367 -0.08423312 -0.08138393 -0.0026618913 -0.007134512 0.08342262 -0.071617864
00000000: 54fb cfbc 0d39 b43d 1f9e 8c3d f386 98bd
00000010: d80a 7bbc eb53 9bbd 864c 4e3d 152c 813d
00000020: 47d8 813d 70ef fd3b ced8 eabc d082 09bd
00000030: e66b 18bd ddf8 aabd 88e8 cc3c 985b 273c
00000040: 0bbc 97bd a6cf 9abd 9689 443d 6412 f83c
00000050: 8837 32bc 3355 71bd 5794 a03d 3ba8 943d
00000060: ec5c 8abd 0890 00bd c06d 103d 006c b33b
00000070: 1436 f23c 1c3c db3c 0447 6cbd 1e5a 25bd
00000080: 03ef b1bd 0a4a 6e3d 9c55 c63c 903a c03b
00000090: 4256 b0bd 98a1 343c d5f8 b2bd dae8 353d
000000a0: b047 863c 4fc8 aa3d d1c2 913d ee1c 19bd
000000b0: dcb5 93bd da70 11bd f38a 65bd c909 873d
000000c0: 4f22 a93d 46c0 613d 7018 05bd 02b2 283d
000000d0: 5845 9fbd 9ae5 093d e09c 0fbc ed8e 973d
000000e0: 6ba0 a1bd b824 27bc a688 623d 3ac3 7c3d
000000f0: 0eca 61bd 52b7 abbd 20c0 95bc 0865 eb3c
00000100: de40 7c3d 6f0e a93d 6465 b4bc 10f8 4cbc
00000110: 5858 b03c 8ab4 7f3d c73d 933d 1f4e 8b3d
00000120: 7238 85bd dd33 3bbd 5075 9dbc 3016 8b3b
00000130: c8cc 0fbc bf7e 823d 78bb 55bc 20cd dabb
00000140: 302e e43b 5fa1 8b3d 2cb6 cdbc 9260 613d
00000150: 6c7a 7ebd 829b a1bd 62ce 673d c53b a53d
00000160: 9a61 193d 0cd2 d53c 4941 9cbd 189e 453c
00000170: 7a73 7a3d b1c1 aa3d 3c25 db3c f055 f43b
00000180: 8107 45bd 80c2 213b 4038 f5ba 89ce ab3d
00000190: 8eab 303d 045b e0bc 9a54 3bbd 9d5a ad3d
000001a0: 18c4 ccbc aa19 8bbd b004 4abc da7d 3f3d
000001b0: 385f 6b3c 9cb8 c5bc 86c1 3ebd caab 3b3d
000001c0: 302e b03c 15c4 32bd 88fa 73bd cf09 b23d
000001d0: c0d1 943b 4462 88bd a4c8 f33c ba0b 5d3d
000001e0: 74eb 0d3d e0a3 083b 318d 953d 33aa 4fbd
000001f0: bc53 a0bd 7b13 833d 081f a6bd d310 09bd
00000200: 7834 1b3c 00c0 6cb8 b83c 64bd e5f5 953d
00000210: a298 3cbd 1609 453d b072 b3bd 4ebb 623d
00000220: 0103 ab3d 0bfe a33d 5643 323d e805 86bc
00000230: 3c4d 5abd 4015 9cbc 9c82 4dbd c4fb d53c
00000240: bf82 9abd 58b6 46bd 7d31 a6bd d83a 07bd
00000250: 7096 22bd 8dda ad3d 8690 653d 00cb ef39
00000260: 18fb a3bd 8677 31bd 80e2 ad3b 41eb 9ebd
00000270: 23b8 873d 10e6 fe3c 87ed a73d 90f5 8d3b
00000280: 3efc 643d 409d 913a 9cf7 eebc baa3 76bd
00000290: fc73 e13c 63f7 a63d 4a5e 563d a4ef a8bc
000002a0: 735b 94bd fe08 6abd 3411 893c d71e b1bd
000002b0: 6bf1 a23d 92a6 94bd 52bb 2b3d ff8e 8b3d
000002c0: 3824 023d 4ff2 983d be2d 5b3d 73a2 843d
000002d0: 740b 38bd 62b0 efbc 2404 aebc a4c9 ad3c
000002e0: d875 d13c 106a 0d3d 20fd d03b 0054 a939
000002f0: dc5a 60bd 2a1b 453d 925b 3c3d 8cae 76bd
00000300: f855 6fbc 7e02 99bd a83f 77bd 70ff 543c
00000310: 7c27 10bd a678 74bd 997e aa3d 8047 6cbc
00000320: d87d 3cbc 9a70 3d3d c0cf b13a 28d7 cabc
00000330: ef7f b23d fcd1 87bc d2dc 413d 069d 753d
00000340: 2dc0 9a3d 3e7f 4c3d d8bf f93c b0d7 29bc
00000350: cf56 a8bd 25a3 b03d 84c4 14bd f54c 60bd
00000360: 4015 15bb 10ef 24bc 8d7c 8b3d 05bd 933d
00000370: 80c1 23bd 656f 99bd a84c acbc 8ad4 57bd
00000380: 9f76 36bd 0afa 3a3d 7496 c8bc da20 89bd
00000390: 7087 dd3b b302 833d 6767 86bd b18f 943d
000003a0: ff76 a73d 903a e6bc 0541 a73d a3e2 a33d
000003b0: 88af ea3c 7ae4 4bbd 9c4e dc3c 986d 9ebc
000003c0: b5ff 9e3d 829a 06bd c0bf d7bb d2d1 543d
000003d0: c6c7 7e3d 4100 a2bd e83b 633c f10d 8d3d
000003e0: d749 04bd ac51 b5bc 6a82 acbd 9eac a6bd
000003f0: 2073 2ebb a0c8 e9bb 7bd9 aa3d 63ac 92bd

conv4.weight f4 [512, 256, 1, 1]
0.04975786 -0.049147107 -0.0614686 -0.036879838 0.026364833 -0.025238484 -0.043962978 0.0053885207
-0.007817768 -0.054195687 -0.0027958453 0.03667465 0.057912886 0.006762691 0.051957205 -0.026096411
-0.037479334 0.0034369826 -0.030759841 -0.005810015 -0.060855992 -0.010283567 0.00092781335 -0.047177523
-0.054323822 0.015388243 0.030581325 0.0071675405 -0.061300993 0.028093062 -0.04863239 -0.04707147
-0.01919514 0.061794423 -0.018866867 0.012111925 0.005056277 0.01585202 0.061304204 0.045024782
0.054993562 -0.045605026 0.0073293224 0.058926687 -0.05330889 0.00077436864 0.045887254 -0.06248717
0.05539301 -0.008286491 -0.04506561 0.0546612 0.056703284 0.004328847 0.021590747 0.00401973
-0.022632077 0.04475642 -0.046179555 -0.004140258 0.053801507 -0.036688566 -0.043217137 -0.009210065
0.028914943 0.056498833 -0.011187889 0.03876788 0.015493199 0.0046516955 -0.060662493 -0.0052410588
-0.020431966 -0.014875025 -0.025729671 0.046238117 -0.00065486133 -0.015070245 -0.026885092 0.060118057
-0.023357838 0.018995285 -0.03143938 0.022416472 0.04743696 -0.0031793788 0.018117584 0.02150663
0.036238022 -0.024124138 -0.03395289 -0.0021651015 -0.01243943 0.004794523 0.014264107 -0.045281157
-0.058228515 0.04195314 0.0054490566 0.021037392 -0.01603657 -0.052319415 -0.01892548 0.026152179
-0.023599729 0.03150691 0.021343507 0.005204655 0.00059779733 -0.046191677 0.0053732544 -0.036611393
0.006364137 -0.02798231 -0.023711562 0.012874357 0.009316385 -0.013648748 -0.03590925 0.04399483
-0.03952924 0.04111802 -0.0016959906 -0.020627797 0.053029902 0.026832692 0.039731674 -0.06121643
0.014819756 0.058790103 -0.052097872 0.046523273 0.029271089 -0.010125093 -0.004800573 0.011591382
0.05063279 -0.03491886 0.0390179 0.028901778 0.02379509 0.05394528 -0.0039814115 0.058912955
-0.016907282 0.05410151 0.033566438 0.04395646 0.024085961 -0.054433294 -0.046508588 -0.058752947
-0.049457878 -0.04662384 -0.048569337 0.007943414 -0.02274435 -0.05457993 -0.05749879 -0.028704286
-0.04822351 -0.045371443 0.013821684 0.051537097 -0.053651683 0.03973735 -0.021593593 -0.012253813
-0.036259696 -0.0010883808 -0.029044352 0.017733417 -0.0010068193 0.037560806 0.055955097 0.018887557
0.012431785 0.022094138 0.038004965 -0.058549717 -0.030476473 -0.032844327 0.009635009 -0.021599546
-0.03650327 -0.006599538 -0.047036916 -0.0003258139 0.051957205 -0.0066516027 0.027768888 -0.03645812
0.04682608 0.038240954 0.054120816 0.05151715 -0.030404836 0.05565229 0.029773116 0.026011348
0.018895932 0.0063097924 0.03793925 -0.03663612 -0.048351556 0.028072119 0.027966924 0.04487121
-0.049324453 0.042891033 0.013048276 -0.013001293 -0.022473544 0.028343037 -0.01676251 -0.0621527
0.01437784 0.009016611 -0.00070970505 -0.030032404 0.05449923 -0.023098074 -0.057242192 0.015886582
0.031613365 -0.0022754222 -0.0405284 -0.029677331 0.036493875 -0.029865123 0.05385478 0.017186396
0.039874204 0.059739873 0.014292002 0.03817206 -0.03176801 -0.039799087 -0.020338252 -0.062177867
0.011244528 0.012988329 0.039899044 -0.035421744 -0.0028765798 0.02804903 -0.0016684532 0.040537484
0.03868749 0.024580203 0.037858963 0.03292717 -0.023871765 0.027229927 0.045787685 -0.059814766
00000000: e6ce 4b3d 7a4e 49bd 80c6 7bbd 500f 17bd
00000010: 10fb d73c f0c0 cebc 8612 34bd 3092 b03b
00000020: 1816 00bc 4cfc 5dbd 803a 37bb 2838 163d
00000030: 1036 6d3d 9099 dd3b 14d1 543d 24c8 d5bc
00000040: ee83 19bd 003f 613b 10fc fbbc f061 bebb
00000050: 2244 79bd 687c 28bc 8038 733a 383d 41bd
00000060: a882 5ebd f81e 7c3c b085 fa3c b0dd ea3b
00000070: c016 7bbd 6c23 e63c c232 47bd 04ce 40bd
00000080: 203f 9dbc 261c 7d3d b08e 9abc 1871 463c
00000090: 20af a53b 18dc 813c 1e1a 7b3d e86b 383d
000000a0: ee40 613d 56cc 3abd d02a f03b 1c5d 713d
000000b0: 6c5a 5abd 00ff 4a3a 46f4 3b3d 8cf2 7fbd
000000c0: c8e3 623d 10c4 07bc b896 38bd 6ce4 5f3d
000000d0: b441 683d 00d9 8d3b 14df b03c f0b7 833b
000000e0: e866 b9bc 8252 373d c626 3dbd 00ab 87bb
000000f0: f85e 5c3d c046 16bd 7404 31bd d0e5 16bc
00000100: 08df ec3c 526b 673d 684d 37bc 12cb 1e3d
00000110: 30d7 7d3c 406d 983b 3c79 78bd 30bd abbb
00000120: f060 a7bc 60b6 73bc 08c7 d2bc 2e64 3d3d
00000130: 00ab 2bba 30e9 76bc 203e dcbc 5a3e 763d
00000140: f058 bfbc 009c 9b3c 94c6 00bd c0a2 b73c
00000150: 424d 423d 205d 50bb 546b 943c ac2e b03c
00000160: 526e 143d fc9f c5bc 3012 0bbd 60e4 0dbb
00000170: c0ce 4bbc 601b 9d3b 00b4 693c bc78 39bd
00000180: 0681 6ebd 0ed7 2b3d 008e b23b 9c56 ac3c
00000190: 205f 83bc e24c 56bd 9c09 9bbc 183d d63c
000001a0: 3854 c1bc 640d 013d 94d8 ae3c d08b aa3b
000001b0: 80b5 1c3a 7c33 3dbd 2012 b03b d4f5 15bd
000001c0: 408a d03b 283b e5bc c03e c2bc f8ee 523c
000001d0: c0a3 183c 009f 5fbc 9415 13bd ec33 343d
000001e0: 6ae9 21bd 5e6b 283d 004c deba a0fb a8bc
000001f0: e235 593d 3cd0 db3c aebd 223d 14be 7abd
00000200: 90ce 723c e4cd 703d 9464 55bd 308f 3e3d
00000210: ecc9 ef3c b8e3 25bc 204e 9dbb c8e9 3d3c
00000220: 5464 4f3d 1407 0fbd 3cd1 1f3d 6cc3 ec3c
00000230: eced c23c baf5 5c3d 8076 82bb b64e 713d
00000240: 2481 8abc 8c99 5d3d f67c 093d b00b 343d
00000250: ec4f c53c 72f5 5ebd ca7f 3ebd eea6 70bd
00000260: 5894 4abd a4f8 3ebd a4f0 46bd 1825 023c
00000270: 5c52 babc 348f 5fbd da83 6bbd 4025 ebbc
00000280: 0486 45bd 68d7 39bd 5874 623c 9018 533d
00000290: dec1 5bbd a2c3 223d 0ce5 b0bc 38c4 48bc
000002a0: 0c85 14bd 00a8 8eba 6cee edbc ac45 913c
000002b0: 40f7 83ba 5cd9 193d 2c31 653d 14ba 9a3c
000002c0: b0ae 4b3c c4fe b43c 18ab 1b3d d4d1 6fbd
000002d0: cca9 f9bc c687 06bd 28dc 1d3c 88f1 b0bc
000002e0: 7484 15bd f040 d8bb c8a9 40bd 00d2 aab9
000002f0: 14d1 543d b0f5 d9bb 947b e33c 1c55 15bd
00000300: b4cc 3f3d 8ca2 1c3d caad 5d3d a603 533d
00000310: 9013 f9bc a8f3 633d c0e6 f33c c015 d53c
00000320: a4cb 9a3c 60c2 ce3b 3066 1b3d c20f 16bd
00000330: 480c 46bd 80f7 e53c e41a e53c e0ca 373d
00000340: 7008 4abd 82ae 2f3d 70c8 553c 6003 55bc
00000350: 701a b8bc a82f e83c 8851 89bc d493 7ebd
00000360: 0891 6b3c 68ba 133c 800b 3aba 8406 f6bc
00000370: 963a 5f3d 2c38 bdbc ca76 6abd 9424 823c
00000380: 047d 013d 401f 15bb 1c01 26bd e01d f3bc
00000390: 9a7a 153d b4a7 f4bc d496 5c3d 7cca 8c3c
000003a0: 2253 233d ccb1 743d 0029 6a3c 4e5a 1c3d
000003b0: 2c1f 02bd 5e04 23bd 689c a6bc 38ae 7ebd
000003c0: f83a 383c 00cd 543c 2e6d 233d 6416 11bd
000003d0: 0085 3cbb 14c7 e53c 00b0 daba a20a 263d
000003e0: c676 1e3d 6c5c c93c 0012 1b3d a4de 063d
000003f0: b88e c3bc 4c11 df3c de8b 3b3d 5400 75bd

conv4.bias f4 [512]
0.03063079 -0.02763842 0.0622385 0.025635295 0.009228647 0.054815255 0.048482575 -0.019243233
0.042657927 -0.027978398 -0.045682244 0.0050208494 0.011517666 -0.019468956 0.010591753 -0.027681828
-0.019664794 0.036668524 -0.046495035 0.0010536015 -0.025439665 -0.0047023147 0.042050123 -0.012777969
0.057786368 0.029249601 0.017092846 0.0411487 0.042739443 0.01597564 -0.020357639 0.0013418347
-0.0444531 -0.06239079 -0.035366468 0.028358534 0.010218926 0.035750106 -0.022136346 -0.014598489
0.03600896 0.019679368 0.012524508 -0.038329676 -0.052025966 -0.014871962 -0.0009108111 0.014056809
0.021592617 0.010112703 0.03087531 0.05248171 0.047376797 -0.0073298737 -0.05182498 -0.020678826
-0.019213922 0.05879289 0.03791476 0.05541431 0.04864288 0.0038133115 -0.032634154 -0.024491519
-0.013464741 0.03175351 0.042582296 -0.0033574402 -0.050232336 -0.058277972 0.06027914 0.043045275
-0.010038458 -0.047095746 -0.046317644 0.0323679 0.014780872 -0.0014135092 -0.021836355 -0.00069881976
-0.045141287 -0.027609311 0.061006054 -0.020062447 0.0366463 -0.046733357 -0.04187735 -0.037152946
0.004153736 0.016212694 -0.016971707 0.046811126 -0.020485431 0.037281193 -0.046584837 -0.04616277
-0.011863492 -0.00930243 -0.061851777 0.05084581 0.028110623 -0.026522279 -0.04095403 -0.008121274
0.026497126 -0.04603176 -0.012275964 -0.058374755 0.004720539 0.06017588 0.06069138 0.05695965
-0.046698354 0.018821143 0.0417983 0.056595765 0.022003993 0.040868133 0.009374581 -0.009534515
0.036574878 -0.05253499 0.048629604 -0.014229909 0.01062306 -0.05331807 -0.044128463 -0.060353674
-0.018771492 0.017707437 -0.047709174 -0.03793057 -0.008982629 -0.022302493 -0.037415497 0.02760201
0.06208679 0.053275727 0.04791101 0.035906285 -0.05501289 -0.053582206 0.007512547 0.031555407
-0.023767084 0.0595567 0.05515465 0.039748885 0.03077054 0.00026226044 0.03356509 -0.05634065
0.04972127 -0.021025576 0.05686734 -0.04166939 -0.00879474 0.005857721 -0.047917783 0.021622725
-0.037843667 0.021306269 0.058134057 -0.023334704 -0.010503069 0.022490896 -0.0010694861 -0.023171037
0.062386617 -0.012502171 0.0069996715 -0.05579608 0.00965593 -0.056944527 0.0028292686 -0.025046036
-0.035604693 0.023068845 -0.04508973 0.038200617 0.037933066 -0.038461104 0.043836683 0.023254074
0.054735795 0.03436535 0.05733365 0.051075004 -0.029435277 0.01288075 -0.032579757 -0.05085139
-0.0069367588 -0.0064430386 -0.054445505 0.019707315 -0.034369238 -0.05629074 -0.056615062 -0.04143305
0.041859426 -0.0031197518 0.01884526 0.038410224 -0.054936357 -0.0265157 -0.04244627 -0.03922984
0.05702798 0.0055930987 -0.021827497 0.019058533 0.061365068 0.058551334 -0.060750775 0.060494184
-0.019237533 0.031366765 -0.03470765 0.02237022 -0.0062409937 0.0071072355 -0.01678241 -0.0596781
-0.0060850754 0.037631392 0.00885614 -0.009310506 0.012383185 0.02740743 0.05338449 0.03958875
0.050875388 0.00040066987 -0.01830168 0.03924927 -0.060751 0.0067813024 0.060243838 0.05610612
0.053889193 0.029666401 -0.051974043 -0.030501202 -0.015297532 0.031949997 -0.018157683 -0.0053675026
-0.029101707 -0.04358486 0.02579619 0.049170688 0.0047940835 0.058564976 -0.033403978 -0.026828408
00000000: 6ced fa3c f869 e2bc cced 7e3d 1c01 d23c
00000010: c033 173c f685 603d aa95 463d fca3 9dbc
00000020: 14ba 2e3d f432 e5bc 4e1d 3bbd f085 a43b
00000030: 98b4 3c3c 5c7d 9fbc 0889 2d3c 00c5 e2bc
00000040: 1018 a1bc bc31 163d 9471 3ebd 0019 8a3a
00000050: d866 d0bc e015 9abb c03c 2c3d b05a 51bc
00000060: 66b1 6c3d dc9c ef3c 4c06 8c3c 8a8b 283d
00000070: 8e0f 2f3d 58df 823c 10c5 a6bc 80e0 af3a
00000080: 7414 36bd 7c8d 7fbd 6edc 10bd 2850 e83c
00000090: 486d 273c b46e 123d 4857 b5bc 802e 6fbc
000000a0: 227e 133d a036 a13c 9833 4d3c 94ff 1cbd
000000b0: 2e19 55bd 88a9 73bc 80c3 6eba 884e 663c
000000c0: 00e3 b03c c0af 253c 38ee fc3c 10f7 563d
000000d0: 2c0e 423d 702f f0bb 6e46 54bd a466 a9bc
000000e0: 8466 9dbc d0d0 703d 824c 1b3d 1efa 623d
000000f0: c23d 473d c0e8 793b 64ab 05bd 70a2 c8bc
00000100: 389b 5cbc f80f 023d c66a 2e3d 8008 5cbb
00000110: 6cc0 4dbd e2b4 6ebd 42e7 763d 3e50 303d
00000120: 5878 24bc 78e7 40bd 92b7 3dbd 3494 043d
00000130: 782b 723c 8045 b9ba 28e2 b2bc 0031 37ba
00000140: 12e6 38bd ec2c e2bc 7ce1 793d 005a a4bc
00000150: 6e1a 163d 7a6b 3fbd 9687 2bbd b02d 18bd
00000160: 101c 883b 7cd0 843c 4008 8bbc 06bd 3f3d
00000170: 10d1 a7bc 2ab4 183d becf 3ebd 2c15 3dbd
00000180: 185f 42bc 3869 18bc 4a58 7dbd b243 503d
00000190: 4048 e63c 4045 d9bc 6abf 27bd 180f 05bc
000001a0: 8010 d93c cc8b 3cbd 2021 49bc 5e1a 6fbd
000001b0: c0ae 9a3b fc7a 763d 8697 783d 864e 693d
000001c0: c646 3fbd cc2e 9a3c b234 2b3d f6d0 673d
000001d0: b841 b43c 5865 273d d897 193c a836 1cbc
000001e0: 8acf 153d ee2e 57bd d62f 473d 9024 69bc
000001f0: 580c 2e3c 0c64 5abd 0cc0 34bd 6a35 77bd
00000200: acc6 99bc 300f 913c b26a 43bd 165d 1bbd
00000210: e02b 13bc b8b3 b6bc fe40 19bd 9c1d e23c
00000220: b84e 7e3d a637 5a3d 563e 443d 7812 133d
00000230: 3255 61bd 0479 5bbd d02b f63b 3e40 013d
00000240: 30b3 c2bc baf1 733d d8e9 613d bacf 223d
00000250: 8012 fc3c 0080 8939 8c7b 093d 74c5 66bd
00000260: 88a8 4b3d d43d acbc baed 683d 86ad 2abd
00000270: d017 10bc 20f2 bf3b 7045 44bd 2422 b13c
00000280: f601 1bbd 7c8a ae3c fa1d 6e3d 6c28 bfbc
00000290: 1015 2cbc d43e b83c 002e 8cba 30d1 bdbc
000002a0: 1c89 7f3d e8d5 4cbc 805d e53b 6e8a 64bd
000002b0: e833 1e3c aa3e 69bd 406b 393b 582d cdbc
000002c0: 3ad6 11bd e0fa bc3c 02b0 38bd 4078 1c3d
000002d0: b45f 1b3d 6489 1dbd 188e 333d 547f be3c
000002e0: a432 603d aec2 0c3d b0d6 6a3d 0634 513d
000002f0: 4022 f1bc c809 533c 5a72 05bd 8c49 50bd
00000300: c04d e3bb 2020 d3bb 4002 5fbd 3c71 a13c
00000310: c2c6 0cbd 1e91 66bd 32e5 67bd b4b5 29bd
00000320: ca74 2b3d c074 4cbb 6061 9a3c 0a54 1d3d
00000330: f204 61bd 7437 d9bc 24dc 2dbd 78af 20bd
00000340: 2c96 693d 5046 b73b 94cf b2bc a420 9c3c
00000350: f059 7b3d 86d3 6f3d ced5 78bd c0c8 773d
00000360: 0898 9dbc 707a 003d 9c29 0ebd c041 b73c
00000370: 4081 ccbb d0e3 e83b 447b 89bc 0671 74bd
00000380: 5065 c7bb 6023 1a3d 5819 113c 188b 18bc
00000390: d8e2 4a3c 8c85 e03c b2a9 5a3d d027 223d
000003a0: b662 503d 0011 d239 68ed 95bc d8c3 203d
000003b0: 0ad6 78bd b035 de3b 3ec2 763d 88cf 653d
000003c0: eaba 5c3d f406 f33c bce2 54bd a8dd f9bc
000003d0: 80a2 7abc 00de 023d 6cbf 94bc e0e1 afbb
000003e0: b466 eebc 0a86 32bd 8852 d33c 3467 493d
000003f0: b017 9d3b d4e1 6f3d 9cd2 08bd 40c7 dbbc

fc1.weight f4 [10, 512]
0.04024196 -0.03733009 0.006651696 -0.0024907254 -0.019832073 -0.033642977 -0.03850461 0.017910823
-0.012825929 0.034682054 0.003793802 0.0043846257 0.014826186 -0.018290635 0.004836872 -0.007317316
-0.04097023 0.025734592 0.039643046 0.012723647 0.038071577 -0.012886077 -0.016139487 0.0026677959
0.022942927 -0.040270533 -0.012509931 -0.032882977 -0.033238478 -0.00038446486 -0.03263697 -0.0057099275
0.037649084 0.0051236413 0.018678237 0.010340229 0.03556152 0.018642578 0.000121958554 -0.029666292
0.034339864 0.011939008 -0.011026233 0.018125225 -0.0155420825 -0.013327165 -0.027477749 0.028297815
0.027851347 0.02147654 0.033874866 0.027005348 -0.01490243 -0.023090066 -0.035193678 -0.03521369
0.021085616 -0.033424478 -0.021306876 0.020064358 0.008246828 0.0059941933 -0.008534353 0.022980276
0.03065427 -0.03297404 0.03116763 0.001363188 -0.0014142916 0.012705974 -0.02767815 -0.035416722
-0.034309298 -0.035307385 -0.020158205 0.038098548 -0.021310253 0.030805591 0.0023757182 -0.018063238
-0.02627454 0.02655426 -0.012340028 0.0193015 -0.0058453456 -0.017054522 0.012846619 0.034519542
-0.005142562 -0.011002004 -0.015149079 0.0004958436 0.02850191 0.00444052 -0.024405016 0.023606319
0.030385036 -0.00057409704 0.00034099817 -0.0076670423 -0.038092047 0.00086828694 0.006107036 -0.021444712
0.020808365 0.022694055 0.014981955 0.017304778 0.024044078 0.03737047 -0.0049731582 -0.036909785
0.037764233 -0.016179552 0.023293737 0.037110496 0.027440619 0.039594 -0.010538049 0.030849736
-0.025446992 -0.031176466 0.03409004 0.0065111555 -0.0058339387 0.015230887 0.026883554 0.013747033
-0.003400132 -0.029007547 0.01649291 0.013968892 -0.03352019 -0.018049356 0.033497516 -0.03665025
-0.023548165 0.029395249 0.010305725 -0.033717677 -0.0018689074 0.031950656 0.03649007 -0.008525245
-0.034672454 -0.016520638 -0.037626725 -0.040171847 0.009057693 0.007354621 0.03509665 0.008500539
0.012667336 0.020098377 0.04107749 -0.027587404 -0.035400465 0.028496083 0.027971875 0.04405305
-0.016549354 -0.01840909 0.0030278563 -0.042591203 0.039411757 0.042511743 0.032426734 0.034389134
0.02439506 0.031873804 -0.003928434 -0.03372351 -0.04090712 0.024547596 -0.032093506 0.0037821569
0.041746285 0.0061979517 0.043954592 0.012612846 0.0146074705 0.03547438 -0.041260153 -0.042737268
0.009990431 0.017066978 0.02210876 0.04259144 0.004542999 0.01490413 -0.004648488 -0.027923573
0.015805036 9.778142e-05 0.017245483 -0.03726815 -0.018181054 -0.035670474 0.013836101 0.021406386
-0.0011415742 -0.026315697 0.029888872 0.025008362 0.038775336 -0.028621735 0.020694066 -0.035754252
0.019611415 0.027183305 0.039374802 0.040179607 -0.012124617 0.03454375 -0.020821197 0.04380959
0.012707464 0.03329772 -0.024595467 -0.013826078 0.02926075 -0.006741762 -0.031831007 -0.011553045
0.0063830465 0.019458186 0.034973342 0.00395995 -0.018781004 0.02206562 -0.013536656 -0.01056426
0.002060797 0.0028088763 -0.0007628836 0.024508048 0.0055663437 -0.0014385395 -0.009446975 0.026268337
-0.025583368 0.0044254735 0.027514298 -0.011336017 0.0037510656 -0.008260556 0.025760125 -0.018716203
-0.037276138 0.024311516 0.0074672773 0.039816383 0.026109215 0.029194232 0.017175917 0.037616137
00000000: c1d4 243d 70e7 18bd 78f6 d93b 703b 23bb
00000010: df76 a2bc 38cd 09bd 03b7 1dbd b8b9 923c
00000020: d823 52bc c50e 0e3d 70a1 783b e8ac 8f3b
00000030: 88e9 723c 3ed6 95bc a07e 9e3b 18c6 efbb
00000040: 66d0 27bd 5ad1 d23c bf60 223d d876 503c
00000050: f1f0 1b3d 2020 53bc f536 84bc 30d6 2e3b
00000060: cef2 bb3c b7f2 24bd 74f6 4cbc 4db0 06bd
00000070: 1225 08bd 0092 c9b9 58ae 05bd 581a bbbb
00000080: ed35 1a3d 38e4 a73b 1a03 993c 106a 293c
00000090: f5a8 113d 52b8 983c 00c4 ff38 b906 f3bc
000000a0: f5a7 0c3d d49b 433c 60a7 34bc 5a7b 943c
000000b0: 38a4 7ebc 2e5a 5abc 0419 e1bc d2d0 e73c
000000c0: 8228 e43c 92ef af3c 5fc0 0a3d 523a dd3c
000000d0: 5229 74bc 6127 bdbc 3f27 10bd 3b3c 10bd
000000e0: bebb ac3c 1be8 08bd c28b aebc 025e a43c
000000f0: b41d 073c f06a c43b acd3 0bbc 2241 bc3c
00000100: aa1e fb3c c90f 07bd 4253 ff3c 00ad b23a
00000110: c05f b9ba b82c 503c 4abd e2bc 2011 11bd
00000120: e887 0cbd 7a9e 10bd d222 a5bc 390d 1c3d
00000130: d792 aebc 025c fc3c f0b1 1b3b 5bf9 93bc
00000140: b43d d7bc 5288 d93c d42d 4abc 2e1e 9e3c
00000150: 508a bfbb edb5 8bbc a07a 523c 5d64 0d3d
00000160: f082 a8bb c041 34bc d833 78bc 80fb 013a
00000170: d67c e93c c881 913b 07ed c7bc 0a62 c13c
00000180: 0aea f83c 007f 16ba 00c8 b239 d03b fbbb
00000190: 6806 1cbd c09d 633a 881d c83b d2ac afbc
000001a0: 4e76 aa3c e2e8 b93c e076 753c c0c2 8d3c
000001b0: 16f8 c43c c711 193d e0f5 a2bb b72e 17bd
000001c0: abae 1a3d fb8a 84bc 82d2 be3c 2d01 183d
000001d0: 26cb e03c 512d 223d c8a7 2cbc 96b8 fc3c
000001e0: 3676 d0bc ca65 ffbc ffa1 0b3d 885b d53b
000001f0: a02a bfbb f88a 793c e63a dc3c 3c3b 613c
00000200: c0d4 5ebb 3ca1 edbc 241c 873c c8dd 643c
00000210: 774c 09bd 3edc 93bc b134 093d 931e 16bd
00000220: 15e8 c0bc 4ece f03c 58d9 283c 8c1b 0abd
00000230: 20f6 f4ba b1de 023d 9d76 153d 78ad 0bbc
00000240: b404 0ebd 4a56 87bc 7b1e 1abd 3c8b 24bd
00000250: b866 143c 08ff f03b 81c1 0f3d d845 0b3c
00000260: a88a 4f3c 5aa5 a43c df40 283d fbfe e1bc
00000270: 1400 11bd 9e70 e93c 4625 e53c f970 343d
00000280: 8392 87bc a9ce 96bc 006f 463b 1d74 2ebd
00000290: 396e 213d cb20 2e3d e5d1 043d 9fdb 0c3d
000002a0: 26d8 c73c 1b8e 023d 18ba 80bb aa21 0abd
000002b0: 398e 27bd 0a18 c93c 7b74 03bd 10de 773b
000002c0: 27fe 2a3d 3018 cb3b bb09 343d 1ca6 4e3c
000002d0: 2c54 6f3c 954d 113d 6800 29bd 460d 2fbd
000002e0: e8ae 233c 0cd0 8b3c 6e1d b53c 5d74 2e3d
000002f0: 70dd 943b 7430 743c 5852 98bb fabf e4bc
00000300: 9079 813c 0010 cd38 6646 8d3c 7da6 18bd
00000310: 6ff0 94bc 341b 12bd d0b0 623c 725c af3c
00000320: e0a0 95ba 0494 d7bc 82d9 f43c 56de cc3c
00000330: e3d2 1e3d 2178 eabc 9a86 a93c 0d73 12bd
00000340: 1ea8 a03c 86af de3c 7947 213d 5f93 243d
00000350: 54a6 46bc bf7d 0d3d 3791 aabc af71 333d
00000360: f832 503c 3163 083d 6f7c c9bc c686 62bc
00000370: 3eb4 ef3c 00ea dcbb 3b61 02bd fc48 3dbc
00000380: e028 d13b c666 9f3c 3540 0f3d 78c2 813b
00000390: 9fda 99bc f6c2 b43c dac8 5dbc b815 2dbc
000003a0: 700e 073b 2015 383b 40fc 47ba 1ac5 c83c
000003b0: e065 b63b 608d bcba 7cc7 1abc b230 d73c
000003c0: 3694 d1bc 9003 913b aa65 e13c b4ba 39bc
000003d0: 70d4 753b 4857 07bc e606 d33c b952 99bc
000003e0: ddae 18bd f228 c73c 10b0 f43b 8116 233d
000003f0: fee2 d53c be28 ef3c 82b4 8c3c 6113 1a3d

fc1.bias f4 [10]
-0.036413245 -0.003045559 0.0021624751 0.03421217 0.033432137 -0.024899378 -0.041623697 0.03520548
-0.025625331 0.02434564
00000000: 0e26 15bd 0098 47bb 50b8 0d3b 0f22 0c3d
00000010: 23f0 083d c8f9 cbbc 9c7d 2abd 9f33 103d
00000020: 37ec d1bc 8270 c73c
