distillation/snet.onnx (onnx, 21416 bytes, 6 tensors)

1 f4 [6, 3, 3, 3]
0.18735655 -0.0010872632 0.18648614 0.18837623 -0.11404009 -0.065517664 0.059891984 0.051332295
-0.06884137 0.057568833 0.15037493 -0.073734954 0.082815364 -0.029218972 -0.09393042 -0.15231344
0.0038376898 0.13535081 0.014537558 -0.13108572 -0.08973276 0.08221944 0.15255953 0.0184557
-0.11618431 -0.04198824 -0.12681603 -0.114950635 -0.053174272 -0.06030239 -0.18725553 -0.08686087
-0.055833444 0.18510427 -0.0015818328 -0.19004934 -0.07366163 0.0889097 0.030174121 0.020347
0.10409601 -0.098455265 -0.08776432 0.115970805 0.1304106 0.08599429 0.1017939 0.005666077
0.09648226 0.03310874 -0.001820296 0.021711215 -0.08385894 -0.19064166 0.19167183 0.0062627792
-0.17589635 -0.09606844 -0.02765058 -0.09131003 -0.08907162 -0.06361689 0.15551443 0.1887059
0.12846781 -0.018198222 -0.0670695 -0.125436 -0.09463784 -0.15357968 0.13706182 0.052291647
0.07029162 0.07504 -0.1753218 0.06188716 0.16583581 0.19115238 -0.14052826 -0.10135796
0.11813383 -0.04793477 0.18347786 -0.14136893 -0.021354899 -0.17898916 0.059190884 0.13526393
0.10525702 -0.1226629 -0.0686774 -0.04159534 0.18602572 0.07638447 0.07005079 0.08369951
0.061539337 0.14278014 -0.17276923 -0.14187351 0.07662861 -0.123422116 0.15817572 -0.021405727
-0.10625063 -0.059719324 0.122963056 -0.01584877 0.184298 0.13403149 -0.14352056 -0.10229525
0.17956497 -0.088902354 -0.119444065 -0.110263914 -0.056353733 -0.19157894 0.116281316 0.037656233
-0.005716756 0.060860917 0.1627822 -0.18275276 -0.07665389 -0.13698228 -0.04428482 0.08830477
0.14854811 0.12492533 -0.16041456 -0.07522989 0.06417148 -0.016106203 -0.076997586 0.10233764
-0.121434934 -0.0004797578 0.0025051087 -0.023430154 -0.18970269 -0.13447496 -0.07367794 0.18728496
0.19012009 -0.10417492 0.0009865165 0.014899686 -0.10286659 -0.18864308 -0.09113886 -0.006007001
-0.12875682 0.06090574 0.12004505 0.025176078 -0.0031872839 0.06689261 -0.08038676 0.06368263
0.026699573 0.05881022
00000000: 65da 3f3e 8082 8eba 39f6 3e3e b3e5 403e
00000010: da8d e9bd 202e 86bd 4c51 753d d041 523d
00000020: b4fc 8cbd 4ccd 6b3d e3fb 193e 5a02 97bd
00000030: 1a9b a93d a05c efbc 985e c0bd 0ef8 1bbe
00000040: c081 7b3b 6799 0a3e f02e 6e3c 563b 06be
00000050: cfc5 b7bd aa62 a83d 9138 1c3e 6830 973c
00000060: 0af2 edbd dcfb 2bbd 10dc 01be 3d6b ebbd
00000070: 44cd 59bd a4ff 76bd eabf 3fbe 1de4 b1bd
00000080: 9cb1 64bd f98b 3d3e 8055 cfba 4b9c 42be
00000090: e9db 96bd 4a16 b63d b82f f73c c0ae a63c
000000a0: 4a30 d53d eaa2 c9bd c8bd b3bd 1a82 ed3d
000000b0: 5b8a 053e c61d b03d 5279 d03d 80aa b93b
000000c0: 7e98 c53d 089d 073d 0097 eeba b8db b13c
000000d0: 3cbe abbd 9137 43be 9f45 443e 0038 cd3b
000000e0: 2c1e 34be 88bf c4bd 7883 e2bc c100 bbbd
000000f0: 2e6b b6bd 9249 82bd 2d3f 1f3e 1f3c 413e
00000100: 118d 033e 7014 95bc bc5b 89bd 4b72 00be
00000110: 7cd1 c1bd fe43 1dbe ef59 0c3e c42f 563d
00000120: 0ef5 8f3d 92ae 993d 8f87 33be 647d 7d3d
00000130: ddd0 293e 73bd 433e a4e6 0fbe c394 cfbd
00000140: 26f0 f13d 4057 44bd 9fe1 3b3e 04c3 10be
00000150: 78f0 aebc ef48 37be 2472 723d a182 0a3e
00000160: fe90 d73d b036 fbbd bda6 8cbd e05f 2abd
00000170: 877d 3e3e 766f 9c3d ca76 8f3d a66a ab3d
00000180: ac10 7c3d f534 123e 6bea 30be 4a47 11be
00000190: 76ef 9c3d bcc4 fcbd d1f8 213e 105b afbc
000001a0: ee99 d9bd 409c 74bd 0ed4 fb3d 48d5 81bc
000001b0: 9db8 3c3e 8d3f 093e 0ef7 12be 2c80 d1bd
000001c0: e1df 373e 7012 b6bd 179f f4bd 0cd2 e1bd
000001d0: 2cd3 66bd 452d 44be e624 ee3d 6c3d 1a3d
000001e0: a053 bbbb 4c49 793d 61b0 263e 8a23 3bbe
000001f0: b7fc 9cbd 1545 0cbe 0064 35bd 22d9 b43d
00000200: ff1c 183e dad8 ff3d b743 24be 2112 9abd
00000210: 566c 833d 28f1 83bc e9b0 9dbd 6696 d13d
00000220: e1b2 f8bd 0088 fbb9 c02c 243b 98f0 bfbc
00000230: 6c41 42be ceb3 09be 76e4 96bd a1c7 3f3e
00000240: d7ae 423e a959 d5bd 004e 813a d01d 743c
00000250: b8ab d2bd a72b 41be 03a7 babd 60d6 c4bb
00000260: d4d8 03be 4c78 793d 2eda f53d 103e ce3c
00000270: c0e1 50bb fefe 883d d0a1 a4bd 0a6c 823d
00000280: 10b9 da3c fce2 703d

2 f4 [6]
-0.14571814 0.083336905 0.11633654 0.026605263 -0.061386332 0.17798899
00000000: 2337 15be 8aac aa3d da41 ee3d 48f3 d93c
00000010: 3c70 7bbd bf42 363e

3 f4 [12, 6, 3, 3]
-0.10823385 -0.09157634 -0.0039222986 0.023461357 0.060551465 0.12986326 0.058102086 0.093440145
0.09464751 0.10872267 -0.08376472 -0.08076163 0.06002319 0.04724659 -0.09145512 0.09401335
0.07977866 0.101210505 -0.019761391 -0.067194305 0.11358997 0.13390619 -0.118469 -0.08721501
0.017279789 0.08861709 -0.028074205 0.07522787 0.062273428 -0.09270732 0.07402232 0.04284817
-0.1331067 0.08660816 -0.037745774 0.09088187 0.08714101 -0.05337184 -0.109632015 -0.01920323
0.008433431 0.122317076 0.12455687 -0.051881917 0.06846142 0.02579695 -0.08536309 0.050062835
0.047739282 0.08222146 0.09276952 0.11187567 -0.0022955239 -0.010679856 -0.005187586 -0.020979904
0.051039338 0.12842628 0.081153095 0.1358167 -0.080088444 -0.046027534 -0.12445871 -0.1347175
0.08551909 -0.012339145 -0.057214066 0.02433084 -0.100849375 0.06110987 0.07240747 0.08585036
0.055988118 -0.031255513 0.04558249 -0.13238537 0.115329266 0.10761857 0.07262416 0.03453271
0.0029448867 -0.07610445 0.021859556 0.059339553 -0.035430685 -0.032531112 0.06473546 0.077723205
-0.03361158 0.09435807 -0.07833343 0.0179255 -0.017833807 -0.03064739 -0.07338599 0.06431861
0.080224246 0.011873171 0.0039733797 0.11009818 0.013122514 0.1299468 0.103630215 0.11557275
-0.0064377636 -0.061668217 0.10347785 -0.068955384 0.009568483 -0.05019536 0.06753737 -0.083612815
-0.057483003 -0.12766087 -0.010151535 -0.121375896 -0.111905314 -0.0892579 0.010583669 -0.059820965
-0.12901178 -0.034093156 -0.08931267 -0.02521474 -0.068622746 -0.07389625 0.043912664 -0.13600902
-0.039559238 0.12702104 -0.049978502 -0.13055962 0.032155827 0.01717709 0.10644713 -0.11437883
-0.02953402 -0.03833153 0.022970557 0.030097127 0.023799047 -0.10073212 0.08008362 -0.1131814
-0.13408351 -0.1336271 -0.09030192 -0.10504819 0.0011881888 -0.08767485 -0.032551385 -0.07572697
-0.11332336 0.09865938 0.016830191 -0.039313927 -0.06455084 0.0061454475 -0.073050596 -0.09242233
-0.013255589 0.13129035 -0.0835477 -0.12374398 0.09105931 -0.0011838824 -0.0011708736 -0.1113504
0.0420565 0.12161687 0.13279322 0.0746499 -0.05463296 0.06609018 0.050313875 -0.088564694
0.072649136 0.0990511 0.08955011 0.05312714 0.08252071 0.017990664 0.07442097 0.093100324
-0.09432372 -0.013512634 0.030309245 0.06362857 0.03214772 0.04929556 -0.03021998 -0.048565164
0.09080307 -0.052620992 -0.11527372 0.10860285 -0.08669376 -0.08661991 -0.13059664 0.018552393
0.041518345 -0.08879216 0.053655475 0.06216778 -0.10164891 -0.12365236 -0.06615216 -0.08336112
0.02377595 -0.0015645027 -0.094360545 0.04126516 0.016150922 0.04658188 -0.010204256 -0.10481942
0.12988666 -0.05198887 -0.13160147 -0.12481876 0.071194574 0.07359326 -0.046715833 -0.11472245
-0.07588584 -0.04478492 0.10702856 -0.063833766 -0.08252379 -0.093189806 -0.1291625 0.00765948
-0.06951105 0.07378133 -0.03988777 0.119581014 0.06722675 0.11787507 0.12019473 -0.066527195
0.09320171 -0.018947132 0.03361045 0.13128695 0.034579083 0.048731416 0.08649795 -0.06640815
-0.07929731 -0.08857621 0.081561744 0.07459368 0.053895593 0.088362515 -0.047436833 -0.04975363
00000000: b5a9 ddbd 608c bbbd a086 80bb 0832 c03c
00000010: d004 783d e0fa 043e 74fc 6d3d 8c5d bf3d
00000020: 8ed6 c13d fea9 de3d d68c abbd 5a66 a5bd
00000030: e0da 753d a485 413d d24c bbbd 128a c03d
00000040: fe62 a33d 7447 cf3d a4e2 a1bc 2b9d 89bd
00000050: dca1 e83d b41e 093e e09f f2bd c89d b2bd
00000060: 588e 8d3c e07c b53d e0fb e5bc 1211 9a3d
00000070: 6c12 7f3d 56dd bdbd 0499 973d 9081 2f3d
00000080: 1f4d 08be 9e5f b13d 509b 1abd 4620 ba3d
00000090: fc76 b23d 6e9c 5abd c086 e0bd 1850 9dbc
000000a0: 602c 0a3c 6081 fa3d ac17 ff3d 2282 54bd
000000b0: 8035 8c3d 2054 d33c d8d2 aebd b00e 4d3d
000000c0: 448a 433d ba63 a83d f2fd bd3d 121f e53d
000000d0: 8070 16bb 90fa 2ebc a0fc a9bb 0cde abbc
000000e0: a00e 513d 2e82 033e 9833 a63d 8813 0b3e
000000f0: 6905 a4bd 5e87 3cbd 35e4 febd 62f3 09be
00000100: a224 af3d 202a 4abc 4c59 6abd 7851 c73c
00000110: 1e8a cebd 584e 7a3d 5e4a 943d 50d2 af3d
00000120: cc53 653d c805 00bd b4b4 3a3d 0890 07be
00000130: c031 ec3d 2067 dc3d fabb 943d 2c72 0d3d
00000140: 00ff 403b a6dc 9bbd d012 b33c 080e 733d
00000150: c41f 11bd 583f 05bd 0694 843d 582d 9f3d
00000160: 4cac 09bd ce3e c13d 476d a0bd 80d8 923c
00000170: 3418 92bc 3c10 fbbc 654b 96bd 7ab9 833d
00000180: 9c4c a43d b087 423c 2033 823b 287b e13d
00000190: d0ff 563c c610 053e 143c d43d 68b1 ec3d
000001a0: e0f3 d2bb d097 7cbd 32ec d33d 7b38 8dbd
000001b0: 20c5 1c3c a699 4dbd 0851 8a3d 323d abbd
000001c0: 4c73 6bbd 88b9 02be a052 26bc ed93 f8bd
000001d0: 9d2e e5bd d9cc b6bd 2067 2d3c d406 75bd
000001e0: aa1b 04be 44a5 0bbd 90e9 b6bd 248f cebc
000001f0: 158a 8cbd eb56 97bd c4dd 333d f345 0bbe
00000200: de08 22bd ce11 023e 42b6 4cbd 6cb1 05be
00000210: d4b5 033d f8b6 8c3c f400 da3d 733f eabd
00000220: 54f1 f1bc 8601 1dbd c02c bc3c 408e f63c
00000230: 38f6 c23c a44c cebd e202 a43d a6cb e7bd
00000240: 304d 09be 8bd5 08be 37f0 b8bd 8123 d7bd
00000250: 00bd 9b3a df8e b3bd 9a54 05bd be16 9bbd
00000260: 1416 e8bd ee0d ca3d 78df 893c a407 21bd
00000270: 3b33 84bd c05f c93b 8d9b 95bd eb47 bdbd
00000280: f82d 59bc fa70 063e 0e1b abbd 7c6d fdbd
00000290: 4e7d ba3d 802c 9bba 0078 99ba ae0b e4bd
000002a0: 7043 2c3d 4412 f93d f2fa 073e 0ce2 983d
000002b0: d0c6 5fbd 4a5a 873d ec15 4e3d 6861 b5bd
000002c0: 12c9 943d 4edb ca3d 0c66 b73d d89b 593d
000002d0: 9e00 a93d 2861 933c 066a 983d 62ab be3d
000002e0: cb2c c1bd 1864 5dbc 184b f83c b24f 823d
000002f0: 54ad 033d 24ea 493d e48f f7bc 44ec 46bd
00000300: f6f6 b93d 1c89 57bd a114 ecbd 2c6b de3d
00000310: 7f8c b1bd c865 b1bd 20bb 05be 30fb 973c
00000320: 240f 2a3d aad8 b5bd d8c5 5b3d a4a3 7e3d
00000330: 4e2d d0bd 733d fdbd c97a 87bd 3cb9 aabd
00000340: c8c5 c23c 0010 cdba 1a40 c1bd a805 293d
00000350: f04e 843c a4cc 3e3d c02f 27bc 90ab d6bd
00000360: 0201 053e 48f2 54bd 89c2 06be faa0 ffbd
00000370: 76ce 913d 10b8 963d 1a59 3fbd 9bf3 eabd
00000380: 096a 9bbd 6470 37bd ca31 db3d 47bb 82bd
00000390: 3c02 a9bd 4cda bebd 2d43 04be 60fc fa3b
000003a0: cf5b 8ebd aa1a 973d 5c61 23bd e4e6 f43d
000003b0: 2eae 893d 7c68 f13d a828 f63d 693f 88bd
000003c0: 8ae0 be3d 0437 9bbc 1cab 093d 1670 063e
000003d0: cca2 0d3d 989a 473d d625 b13d ff00 88bd
000003e0: a166 a2bd 7267 b5bd d809 a73d 92c4 983d
000003f0: a0c1 5c3d 68f7 b43d 204d 42bd 76ca 4bbd

4 f4 [12]
0.12023106 0.09323704 0.04812534 0.080466986 0.07142115 -0.09462884 -0.0763651 -0.048657812
0.027945071 -0.08393333 0.0032873154 0.06838131
00000000: b43b f63d 10f3 be3d 141f 453d e0cb a43d
00000010: 4045 923d c4cc c1bd 4e65 9cbd 6a4d 47bd
00000020: 10ed e43c 3de5 abbd 0070 573b 800b 8c3d

5 f4 [10, 432]
-0.04703498 0.011260834 -0.0042162687 -0.016949493 -0.012144577 0.027447272 -0.012886897 -0.0074902624
0.036620993 0.03284515 -0.020870363 0.04179387 -0.029880121 0.022935886 -0.007469695 -0.0397178
0.031185005 0.013841808 -0.037434913 0.0015266128 0.0032682419 0.045839455 -0.014994346 -0.044451896
0.0047214665 -0.008258712 0.019657936 0.03359277 -0.030097261 -0.0013307296 -0.020796483 -0.03438096
0.03605092 -0.023487648 -0.04493366 -0.037005145 0.002671387 0.021257538 -0.03578806 0.04283009
0.044421483 0.010305904 0.006952867 -0.03140451 -0.044726823 0.027447086 0.021772582 -0.023196561
0.028981429 -0.039718412 0.0031102896 0.024038289 -0.008086104 -0.034206122 0.03065921 -0.027672801
0.04498362 0.009781189 -0.0035703182 0.009955019 0.046707373 0.031229008 -0.011940308 0.026529144
0.044716354 0.026737127 -0.019898903 0.0057117157 0.04112452 -0.033803854 0.038479183 -0.026232416
0.003445983 0.03737994 0.0058787316 -0.027960606 0.036135588 -0.0018241443 -0.026845066 0.009959318
0.046281945 -0.031649552 0.042940605 -0.02339146 0.017763745 0.032029 0.0073619895 -0.013923012
0.03463095 0.0061267726 -0.045462877 0.0098278 -0.040820822 0.0106397495 0.013135172 -0.014248494
0.04472186 -0.00877703 -0.040921032 0.0050580837 -0.02254479 -0.005509019 -0.015819311 0.04576468
0.015434843 -0.0058996603 -0.018090867 -0.038857505 -0.011390559 -0.039658587 0.033640917 0.03841192
-0.010570068 0.04361074 0.030612584 -0.031563573 0.027273815 -0.044024386 0.01167747 0.045298424
0.008636098 -0.037455484 -0.04271289 -0.033466205 0.040935446 0.023330469 -0.032793265 0.030527357
0.044958804 0.040354606 0.033023935 -0.039370507 -0.010683842 -0.031833142 -0.0058896355 -0.033496697
-0.034289446 0.043293107 0.0025006942 -0.0028365403 0.04102627 -0.020883119 0.02349924 -0.013333917
0.011783656 -0.011419311 -0.0028341413 -0.027598131 0.017974447 -0.014847711 -0.017970342 0.034440394
-0.03168656 0.001936499 -0.0071028806 0.0094014555 -0.006501455 0.020933066 0.001845941 -0.022757249
-0.022586763 0.015337441 -0.030565687 -0.03242837 -0.04743217 0.02282631 -0.029270671 0.03908724
-0.00062184036 0.011352386 -0.028871335 -0.043711774 0.015344869 0.007943835 -0.009369623 -0.004896868
0.008507889 -0.007866114 -0.016326256 0.007658817 0.022468794 0.039942 -0.012457173 -0.042070605
-0.03372903 0.038359825 0.02568004 -0.026850078 0.027826052 -0.018980058 -0.019308133 0.008344188
0.019184392 -0.032085113 -0.0319791 -0.012706574 0.036960233 0.011304401 0.0047289506 0.034571793
0.044183467 0.025548924 -0.007814523 0.017147731 -0.033592336 -0.02494571 0.04590829 -0.03092178
-0.03463553 -0.012785342 0.027771313 0.009658828 0.04240289 0.023279157 0.012334816 -0.045192312
0.005730752 0.033640753 -0.014270883 -0.016130269 -0.033544507 -0.006173797 -0.026472358 -0.042225383
-0.039819956 -0.037591197 0.038845714 -0.010700531 0.04388186 0.028469872 0.040123213 -0.044400543
-0.040221572 0.03058729 -0.0054433085 -0.040223308 0.017886687 0.013523888 -0.020950235 8.737296e-05
-0.04543494 0.04568382 -0.04632237 0.0058903284 0.016547095 0.044471044 -0.024782244 0.01158813
0.02211688 -0.011230942 0.026868809 0.007163439 -0.036072303 -0.024367336 0.026876312 -0.015029393
00000000: c0a7 40bd 5c7f 383c a028 8abb aad9 8abc
00000010: 0cfa 46bc 1ad9 e03c 9023 53bc e070 f5bb
00000020: e5ff 153d a388 063d 53f8 aabc 0d30 2b3d
00000030: 28c7 f4bc 0ae4 bb3c 58c4 f4bb 22af 22bd
00000040: b277 ff3c c0c8 623c 5a55 19bd a018 c83a
00000050: 0030 563b 27c2 3b3d d8aa 75bc 3113 36bd
00000060: 88b6 9a3b 8c4f 07bc ae09 a13c 9398 093d
00000070: 888e f6bc e06b aeba 635d aabc 0dd3 0cbd
00000080: 21aa 133d 2b69 c0bc 5c0c 38bd b592 17bd
00000090: 7012 2f3b 4a24 ae3c 8096 12bd 9b6e 2f3d
000000a0: 4df3 353d 18da 283c e0d4 e33b 04a2 00bd
000000b0: 7933 37bd b6d8 e03c 6a5c b23c b706 bebc
000000c0: 766a ed3c c6af 22bd 00d6 4b3b f2eb c43c
000000d0: 947b 04bc b81b 0cbd 0629 fb3c 12b2 e2bc
000000e0: bf40 383d 4841 203c 00fc 69bb 601a 233c
000000f0: 3b50 3f3d fad3 ff3c 48a1 43bc a653 d93c
00000100: 7f28 373d d207 db3c 0603 a3bc 5829 bb3b
00000110: 2f72 283d e975 0abd 599c 1d3d 5de5 d6bc
00000120: 00d6 613b b51b 193d 60a2 c03b a40d e5bc
00000130: e902 143d 2018 efba 2fea dbbc 682c 233c
00000140: 2392 3d3d f6a2 01bd 7de2 2f3d 729f bfbc
00000150: 4685 913c d730 033d d83c f13b 581d 64bc
00000160: 2fd9 0d3d 18c3 c83b 4837 3abd c804 213c
00000170: bc33 27bd 5852 2e3c e834 573c 8472 69bc
00000180: 452e 373d 88cd 0fbc d09c 27bd 48be a53b
00000190: daaf b8bc 0085 b4bb 8097 81bc bf73 3b3d
000001a0: 6ce2 7c3c f051 c1bb 4c33 94bc 0c29 1fbd
000001b0: 789f 3abc 0b71 22bd 0fcb 093d d155 1d3d
000001c0: 142e 2dbc 2da1 323d 3ec7 fa3c ce48 01bd
000001d0: 566d df3c ea52 34bd dc52 3f3c d78a 393d
000001e0: 6c7e 0d3c ec6a 19bd b6f3 2ebd dc13 09bd
000001f0: edab 273d 8a1f bf3c 3b52 06bd 8214 fa3c
00000200: b926 383d df4a 253d 1b44 073d f842 21bd
00000210: 480b 2fbc 7863 02bd d8fd c0bb d533 09bd
00000220: 1773 0cbd 1d54 313d b0e2 233b 40e5 39bb
00000230: 290b 283d 1313 abbc 7a81 c03c 8076 5abc
00000240: 3c10 413c 1018 3bbc 00bd 39bb 7a15 e2bc
00000250: 263f 933c d043 73bc 8a36 93bc 5f11 0d3d
00000260: c4c9 01bd 20d2 fd3a 48bf e8bb 9008 1a3c
00000270: 280a d5bb d27b ab3c 80f3 f13a 696d babc
00000280: e007 b9bc e449 7b3c e464 fabc 9cd3 04bd
00000290: 3c48 42bd 3efe ba3c 0cc9 efbc f119 203d
000002a0: 0003 23ba 5cff 393c 9483 ecbc 1e0b 33bd
000002b0: 0c69 7b3c dc26 023c 0c83 19bc e875 a0bb
000002c0: ac64 0b3c e0e0 00bc a4be 85bc d0f6 fa3b
000002d0: 7a10 b83c 399a 233d 2c19 4cbc 3a52 2cbd
000002e0: 7427 0abd 311f 1d3d f25e d23c b2f4 dbbc
000002f0: 76f3 e33c 117c 9bbc 172c 9ebc 10b6 083c
00000300: 9628 9d3c ae6b 03bd 84fc 02bd 3c2f 50bc
00000310: 9d63 173d 1836 393c 50f5 9a3b 279b 0d3d
00000320: b9f9 343d fa4b d13c 7c08 00bc 6679 8c3c
00000330: 1e98 09bd f25a ccbc 550a 3c3d ac4f fdbc
00000340: fcdd 0dbd 9c79 51bc aa80 e33c 1040 1e3c
00000350: a7ae 2d3d eeb3 be3c f817 4a3c 931b 39bd
00000360: 08c9 bb3b e3ca 093d 6cd0 69bc a023 84bc
00000370: f765 09bd 904d cabb 8fdc d8bc 86f4 2cbd
00000380: 401a 23bd 3af9 19bd af1c 1f3d 4851 2fbc
00000390: 77bd 333d a639 e93c 3d58 243d 58dd 35bd
000003a0: 60bf 24bd 3292 fa3c c85d b2bb 32c1 24bd
000003b0: 1a87 923c 4c93 5d3c d49f abbc 003c b738
000003c0: fd19 3abd f51e 3b3d 87bc 3dbd a803 c13b
000003d0: c68d 873c 4527 363d 2204 cbbc 24dc 3d3c
000003e0: 762e b53c fc01 38bc fa1b dc3c 48bb ea3b
000003f0: 8dc0 13bd 029e c7bc b62b dc3c d83d 76bc

6 f4 [10]
-0.02304003 -0.011945426 -0.030340886 -0.015549056 0.011555597 0.031157393 -0.0024959333 -0.012156457
-0.0012215041 -0.0076837204
00000000: 72be bcbc c0b6 43bc 738d f8bc 78c1 7ebc
00000010: b053 3d3c ca3d ff3c d092 23bb e02b 47bc
00000020: e01a a0ba b8c7 fbbb
