distillation/saved_models/snet_kd_res18_cifar10.pt (torch, 22743 bytes, 6 tensors)

conv1.weight f4 [6, 3, 3, 3]
0.21070148 -0.47107157 -0.19698241 1.6583105 0.77205205 -0.2547038 0.38328224 0.14328335
-1.3268721 0.97240156 0.5322204 0.7023505 -1.0548115 -0.9148691 -0.72395927 -0.56958956
-0.565486 -0.6088737 -0.09217443 -0.013584323 0.28761244 -1.6312436 -0.118144356 0.03805904
-0.36915153 0.8959701 1.7746525 0.04706712 0.63463616 0.16291521 0.61955434 -0.32545415
-0.5746033 0.3654804 -0.47693932 -0.27949357 -0.07023538 0.10549428 -0.85865045 0.3277486
-0.49763024 0.5530433 -1.0283912 -0.481595 0.543534 0.10038279 0.29574183 -0.5060961
0.29154032 -0.9666119 -0.10282805 0.28579462 0.03538083 0.822932 0.24606684 -0.07118162
-0.49304903 -0.22736047 0.030393954 0.5033361 0.35885993 0.33118913 -0.23219591 -0.1989263
-0.0010531909 0.29268676 -0.37264144 -0.013759268 0.3231999 -0.35693505 0.49740303 -0.5110584
-0.30002803 0.13519908 0.44006684 -0.24117643 -0.065144345 0.34055823 -0.3306547 0.51553094
0.19551979 -0.46619374 1.0215162 -0.8636935 0.5097464 -1.5626554 1.1147424 0.2751863
0.066756785 -0.3613987 -0.7732516 0.7729829 0.6056742 0.2584268 -2.1507883 1.7334905
-0.15682225 0.11234005 -0.40445903 -0.6427385 1.0817813 -0.6760991 0.67186034 -1.5165343
0.84399754 1.1110154 0.64823383 -1.5996135 -0.15582903 0.019568842 0.43301454 -0.76317596
0.51348215 -0.3268656 -0.31035537 0.9457503 -0.47339025 -0.13303398 0.90532774 -1.0789161
-0.15369792 1.3809687 -0.7360722 -0.606427 1.4821097 -1.033498 -0.482587 0.7346891
-0.13306658 -0.40895113 0.75331473 -0.34395587 -0.89144206 1.2434922 -0.45337135 -0.72078264
0.48205343 -0.13354492 -0.6163271 0.020457024 -0.6181473 -0.9748832 0.61340404 0.41923627
0.11081978 0.7085711 0.39050916 -0.3618989 -0.11950191 -0.6540386 0.0036991262 0.15694194
-0.46693632 0.62076926 0.25423008 -0.092012964 0.047069114 0.096866496 0.029018033 0.86303353
0.14952463 -0.17893404
00000000: 21c2 573e 4b30 f1be c2b5 49be 8543 d43f
00000010: 34a5 453f 8968 82be 923d c43e dfb8 123e
00000020: f2d6 a9bf 4fef 783f 993f 083f 3ecd 333f
00000030: 1004 87bf dd34 6abf 6555 39bf 9fd0 11bf
00000040: b1c3 10bf 26df 1bbf f3c5 bcbd c890 5ebc
00000050: f041 933e 97cc d0bf abf5 f1bd cce3 1b3d
00000060: 6e01 bdbe 4c5e 653f d027 e33f 74c9 403d
00000070: 8477 223f 3fd3 263e 1d9b 1e3f eda1 a6be
00000080: 3419 13bf 3f20 bb3e 6431 f4be c819 8fbe
00000090: 91d7 8fbd 630d d83d 84d0 5bbf aace a73e
000000a0: 64c9 febe 3f94 0d3f 53a2 83bf 9f93 f6be
000000b0: 0b25 0b3f 7e95 cd3d 796b 973e 848f 01bf
000000c0: c644 953e e173 77bf 8397 d2bd ac53 923e
000000d0: 7deb 103d acab 523f f2f8 7b3e abc7 91bd
000000e0: ec70 fcbe 2fd1 68be befc f83c a2da 003f
000000f0: 7dbc b73e 9f91 a93e c4c4 6dbe 56b3 4bbe
00000100: 390b 8aba 0adb 953e dcca bebe 8e6e 61bc
00000110: 757a a53e 31c0 b6be 9cab fe3e b9d4 02bf
00000120: 469d 99be a171 0a3e 7150 e13e f4f6 76be
00000130: 666a 85bd a65d ae3e 934b a9be d6f9 033f
00000140: 5736 483e f2b0 eebe 0bc1 823f 041b 5dbf
00000150: bd7e 023f 1805 c8bf e1af 8e3f 38e5 8c3e
00000160: c8b7 883d 4009 b9be d1f3 45bf 35e2 453f
00000170: 770d 1b3f 8450 843e 84a6 09c0 04e3 dd3f
00000180: 0396 20be 8a12 e63d 4115 cfbe 838a 24bf
00000190: cf77 8a3f d514 2dbf 0aff 2b3f cc1d c2bf
000001a0: 3910 583f c135 8e3f a7f2 253f 23c0 ccbf
000001b0: a591 1fbe d64e a03c 15b4 dd3e 805f 43bf
000001c0: 9173 033f ee5a a7be e6e6 9ebe b11c 723f
000001d0: 3560 f2be 0f3a 08be 8fc3 673f ec19 8abf
000001e0: fd62 1dbe 95c3 b03f 3a6f 3cbf cd3e 1bbf
000001f0: c5b5 bd3f aa49 84bf a515 f7be 9614 3c3f
00000200: 9b42 08be 0b62 d1be 3cd9 403f fc1a b0be
00000210: 8c35 64bf c12a 9f3f 4a20 e8be 3685 38bf
00000220: b5cf f63e 00c0 08be 9dc7 1dbf 7d95 a73c
00000230: e73e 1ebf f291 79bf 0c08 1d3f 23a6 d63e
00000240: 7bf5 e23d ea64 353f d1f0 c73e d04a b9be
00000250: 6bbd f4bd 136f 27bf 0a6d 723b 63b5 203e
00000260: 4712 efbe bcea 1e3f 722a 823e 4b71 bcbd
00000270: 8bcb 403d f161 c63d 3ab7 ed3c c4ef 5c3f
00000280: fc1c 193e 7c3a 37be

conv1.bias f4 [6]
-1.8897564 0.034383208 0.19864327 -0.26732665 -0.14707676 -0.4628888
00000000: 8ae3 f1bf 68d5 0c3d 2469 4b3e 0adf 88be
00000010: 4a9b 16be c3ff ecbe

conv2.weight f4 [12, 6, 3, 3]
-0.7381391 0.08170566 0.3031399 0.09750243 -0.07496739 -0.23487908 0.2937354 -0.30758715
-0.37861788 0.3734063 0.18833184 -0.2922343 0.20384309 -0.11007869 -0.8310205 0.3057148
-0.037898943 -0.06675761 -0.27632812 0.3244035 -0.06324505 0.22830589 0.05104795 0.098332144
-0.12273311 -0.08975359 -0.7933883 0.283821 0.071498804 -0.1600784 0.36610737 -0.10325039
-0.9747849 0.50013465 0.083588846 -0.8261879 -0.093195684 -0.012069702 -0.050577093 0.08952192
-0.13465163 -0.8574301 0.20503484 -0.010836683 -1.2543491 0.35097492 -0.43684247 0.28486928
-0.21363367 0.32356155 0.13687114 -0.39437816 0.12173873 0.022338899 -0.012402119 -0.31999266
-0.17956628 0.41360572 0.8459927 -0.04218655 -0.8603743 -0.21085197 -0.12841636 -0.25474417
-0.1766964 -0.13777927 0.033571873 -0.33746502 -0.055443197 0.37213674 0.12558652 0.2968116
0.2485777 0.43301642 0.5124856 0.18822683 0.16261564 0.54619014 -0.57228106 -0.7277166
-0.78152376 -0.15111774 0.08112382 0.004698514 0.038014997 -0.10570454 -0.17116149 0.24274367
-0.26598594 -0.18859994 -0.089460455 0.24651891 0.012425308 -0.16261913 0.040104892 0.14673507
0.20892012 -0.4147168 -0.0980159 0.24501346 0.15579931 0.42670915 0.5288293 -0.63271344
-1.3354404 -0.6352387 0.6463319 0.5883499 -0.29530764 -0.36570972 -0.4151252 -0.6411858
-0.59969985 -0.49169815 -0.7812516 -0.6850465 -0.3158058 -0.37054968 -0.061157677 -0.21555388
-0.012020166 0.09706953 -0.19740911 0.13330252 0.17468363 0.39897734 0.0664105 0.08842595
-0.023543518 0.06216622 -0.041585255 -0.10276295 0.049917456 -0.21586193 0.16383637 -0.45204544
-0.13119131 -0.57989717 -0.34308532 -0.15747906 -0.3778067 -0.3031046 -0.18688801 -0.04267482
-0.4619268 -0.22360761 -0.21813919 -0.22021817 0.05645312 -0.08690177 -0.14413789 -0.08654297
0.043284044 0.13218565 -0.13846906 0.084909 0.0072671208 -0.104760766 0.10273717 -0.0022690203
-0.12585664 0.18535148 0.2695431 -0.11463952 -0.19553009 0.14717321 -0.20497541 -0.18178703
0.08684128 -0.07692447 0.10657534 0.48474976 -0.07126895 -0.3898066 0.21274091 0.17466891
-0.5927189 0.020475874 0.19851789 -0.3215724 -0.20541786 0.27120593 0.11576668 -0.63125986
-0.19276369 0.526497 -0.18586701 -0.45654327 0.6771257 -0.003076374 0.02813587 -0.049419854
0.13571708 -0.014603263 0.031838123 0.1720279 -0.090614565 0.048544697 -0.35271823 -0.29618856
-0.030127263 -0.3027935 -0.21260066 -0.1154167 -0.17553303 -0.074421756 -0.21282832 0.3403737
-0.0402569 -0.33782238 0.8959738 -0.7507658 -0.61592764 0.85356426 -0.48655915 -0.5473539
0.0905607 0.04735355 0.029828275 -0.14302832 -0.09013441 0.18163365 -0.39061558 -0.26070487
0.111132085 -0.31979448 0.054416396 -0.038030505 -0.27357385 -0.13862923 -0.02595516 -0.26037192
-0.13766643 -0.24645716 -0.12263196 0.09345325 -0.20529643 -0.12731054 0.0619484 -0.014335654
9.923069e-05 -0.066291876 -0.010641867 0.17793459 0.20576134 0.13220844 0.29157305 0.067793705
0.12635231 0.13759504 0.19263117 0.40461802 -0.123896755 -0.080922626 -0.09593278 -0.29337364
00000000: aff6 3cbf 4c55 a73d 2735 9b3e 5baf c73d
00000010: 8188 99bd 2484 70be 7d64 963e 107c 9dbe
00000020: 34da c1be 1c2f bf3e 10da 403e bc9f 95be
00000030: 3ebc 503e f070 e1bd c2bd 54bf a686 9c3e
00000040: ec3b 1bbd 37b8 88bd e17a 8dbe 3718 a63e
00000050: 9f86 81bd 05c9 693e a817 513d 5d62 c93d
00000060: 7f5b fbbd bbd0 b7bd 7f1b 4bbf fc50 913e
00000070: f76d 923d 98eb 23be 6d72 bb3e f174 d3bd
00000080: 818b 79bf d308 003f a130 ab3d 0d81 53bf
00000090: 61dd bebd 00c0 45bc ed29 4fbd 4557 b73d
000000a0: 1ee2 09be 8a80 5bbf a7f4 513e 588c 31bc
000000b0: 838e a0bf fcb2 b33e d1a9 dfbe 63da 913e
000000c0: c9c2 5abe dca9 a53e f327 0c3e efeb c9be
000000d0: 2852 f93d 1100 b73c 4232 4bbc 14d6 a3be
000000e0: 39e0 37be 21c4 d33e fa92 583f cecb 2cbd
000000f0: 7d41 5cbf 94e9 57be 947f 03be d46d 82be
00000100: e7ef 34be 0216 0dbe a982 093d 37c8 acbe
00000110: 6818 63bd b588 be3e c199 003e b1f7 973e
00000120: 278b 7e3e 54b4 dd3e 4232 033f 89be 403e
00000130: b784 263e 1ed3 0b3f 0381 12bf a34b 3abf
00000140: f111 48bf 9cbe 1abe 3f24 a63d fef5 993b
00000150: 9db5 1b3d 9f7b d8bd f544 2fbe cc91 783e
00000160: 4f2f 88be 5820 41be 0b37 b7bd 746f 7c3e
00000170: 8593 4b3c a185 26be 0745 243d b841 163e
00000180: 28ef 553e c355 d4be 8fbc c8bd cfe4 7a3e
00000190: db89 1f3e 9f79 da3e 5b61 073f 82f9 21bf
000001a0: b6ef aabf 019f 22bf 0276 253f 199e 163f
000001b0: 9032 97be 4e3e bbbe 4a8b d4be c124 24bf
000001c0: ee85 19bf dcbf fbbe 1b00 48bf 355f 2fbf
000001d0: 4cb1 a1be b0b8 bdbe 7980 7abd 28ba 5cbe
000001e0: 3bf0 44bc 64cc c63d 9d25 4abe 7580 083e
000001f0: 44e0 323e c246 cc3e 3a02 883d aa18 b53d
00000200: 56de c0bc 02a2 7e3d 4d55 2abd 6275 d2bd
00000210: 3f76 4c3d e90a 5dbe b9c4 273e 8072 e7be
00000220: 0457 06be 2474 14bf e1a8 afbe 3142 21be
00000230: e16f c1be 8730 9bbe 925f 3fbe cbcb 2ebd
00000240: ab81 ecbe 65f9 64be e15f 5fbe df80 61be
00000250: 633b 673d 8ef9 b1bd e298 13be 713d b1bd
00000260: 9c4a 313d ad5b 073e d5ca 0dbe c5e4 ad3d
00000270: 0721 ee3b d08c d6bd de67 d23d d8b3 14bb
00000280: 90e0 00be c7cc 3d3e 8e01 8a3e 20c8 eabd
00000290: 0a39 48be 93b4 163e 13e5 51be 6126 3abe
000002a0: d7d9 b13d 948a 9dbd 2c44 da3d 1f31 f83e
000002b0: 75f5 91bd bb94 c7be c1d8 593e 68dc 323e
000002c0: 6dbc 17bf 05bd a73c 4648 4b3e 23a5 a4be
000002d0: 0f59 52be 81db 8a3e 1517 ed3d 3f9a 21bf
000002e0: d863 45be 82c8 063f ec53 3ebe 0ac0 e9be
000002f0: 1c58 2d3f fe9c 49bb 327d e63c 796c 4abd
00000300: 6bf9 0a3e 8642 6fbc b168 023d 1528 303e
00000310: 2194 b9bd ced6 463d 7c97 b4be 07a6 97be
00000320: 73cd f6bc c007 9bbe fdb3 59be 975f ecbd
00000330: eebe 33be 6f6a 98bd abef 59be 7645 ae3e
00000340: 6be4 24bd 0ef7 acbe 8a5e 653f 3032 40bf
00000350: 6fad 1dbf 3083 5a3f 481e f9be 631f 0cbf
00000360: e377 b93d ccf5 413d 6d5a f43c 0476 12be
00000370: 6498 b8bd 2cfe 393e c4fe c7be 1c7b 85be
00000380: 3899 e33d 1abc a3be bae3 5e3d e0c5 1bbd
00000390: df11 8cbe d2f4 0dbe ea9f d4bc 784f 85be
000003a0: 6ef8 0cbe 445f 7cbe 7726 fbbd 6b64 bf3d
000003b0: 3a39 52be b25d 02be 9bbd 7d3d 17e0 6abc
000003c0: 121a d038 09c4 87bd 3a5b 2ebc 7c34 363e
000003d0: 1ab3 523e a661 073e 1049 953e 6dd7 8a3d
000003e0: 8062 013e b7e5 0c3e 1b41 453e 182a cf3e
000003f0: 95bd fdbd c3ba a5bd 6878 c4bd 1235 96be

conv2.bias f4 [12]
0.3454511 -0.034600675 2.0264463 0.59998524 1.5743805 1.5101556 -1.1196915 0.3576191
2.2581575 0.2964183 0.9610292 1.4296311
00000000: f7de b03e 70b9 0dbd 4cb1 0140 a298 193f
00000010: 4d85 c93f c74c c13f 0d52 8fbf da19 b73e
00000020: a785 1040 24c4 973e 0206 763f 27fe b63f

fc1.weight f4 [10, 432]
-0.02140456 0.11957257 0.10727361 0.09887891 0.15518478 0.23228517 0.04312074 0.18105558
0.06855676 0.035712067 0.07995614 0.08452851 0.049481016 0.18109326 0.050829723 0.024311513
0.08096361 0.061415367 0.029461505 0.076948225 0.08408833 0.08145799 0.05786177 0.055236958
0.010783864 0.051771548 0.1351174 0.11226844 0.06895238 0.07383621 0.015378252 -0.016470788
0.15761274 0.23090763 0.2200836 0.23091497 0.037517864 -0.0021530252 -0.023426013 -0.0020305754
0.016480988 0.030525073 0.045878727 0.016115773 -0.011862694 -0.0015443637 0.04703428 0.10426966
0.09833493 0.09438455 0.036750533 0.05807441 0.09372655 0.15212102 0.13268264 0.13290568
0.08784124 0.09767546 0.13931997 0.15497589 0.14429572 0.13009122 0.09955178 0.10635052
0.14187813 0.10520351 0.038692728 0.09356998 0.05189913 0.059576195 0.063681535 0.04997796
0.19019945 0.29804435 0.11891679 0.14331692 0.21157934 0.35354432 -0.050508678 0.027338704
0.07341171 0.08573279 0.13090949 -0.055878673 -0.06657245 0.019054262 0.040147185 0.17081465
0.17780806 -0.10730701 -0.016387139 -0.0030523532 0.006762313 0.06210289 0.030492503 -0.1523959
-0.00054741546 0.090666406 -0.045101915 -0.033917297 0.006264145 -0.048407968 0.26437977 0.3250141
0.10706805 0.03710034 0.047213413 0.25082245 -0.0541437 -0.03188774 0.0002888006 0.015818937
0.03020088 0.021508299 -0.008219823 -0.004446348 0.0021162475 0.02672361 0.032702073 0.02705829
-0.06452218 -0.057476085 -0.021615466 0.009393689 -0.015212007 -0.024343295 -0.080442585 -0.075777106
-0.032013293 -0.012182506 -0.019047197 -0.070308514 -0.06441602 -0.016290884 0.00014368416 0.0026744185
-0.04715439 -0.09848552 -0.109341696 -0.07540372 -0.008865613 0.013159611 -0.049712185 -0.21193138
0.107955426 0.22902809 0.048082367 -0.04251495 -0.071931824 -0.18215407 0.0842286 0.083181515
0.02078169 -0.011393573 -0.025909994 -0.034940038 0.1605056 0.11550459 0.0710252 0.027729474
0.034915548 0.0141858 0.100375734 0.08446845 0.03931594 0.090934314 0.09396276 0.12501273
0.106587276 0.086232446 0.03030155 0.06716594 0.06497589 0.114348575 -0.2901062 -0.12161938
-0.08204225 0.017905597 0.09242801 0.21503903 -0.1174582 -0.07305223 -0.017079765 -0.006555923
0.030803906 0.0369614 -0.07984338 -0.11058902 -0.091232404 -0.06339069 -0.03190741 0.034999873
-0.07261425 -0.13939826 -0.15325993 -0.1246707 -0.07977213 -0.021462975 -0.010354191 -0.08222259
-0.124091536 -0.13981998 -0.088394076 -0.05731405 0.0043488583 0.0060417666 0.0042686793 -0.04327843
-0.0368178 -0.04469055 0.015692899 0.04842326 0.058098666 0.042722404 0.0075856308 -0.024378622
-0.042535145 0.031860493 0.057934 0.040564246 0.0029017546 -0.016768627 -0.022254448 0.031347875
0.0117241535 -0.020287907 0.021395124 0.038306985 -0.057332095 -0.013580995 -0.045820642 -0.032935277
-0.01840236 0.014004067 -0.09903089 -0.09669082 -0.07263505 -0.06695898 -0.043297887 -0.049895972
-0.11882797 -0.115516625 -0.079707995 -0.06859681 -0.06338343 -0.098580666 -0.14448513 -0.13538736
-0.09802266 -0.07443057 -0.09310727 -0.14862111 -0.025492849 0.016663823 -0.04887667 -0.07765773
00000000: 9e58 afbc 77e2 f43d 44b2 db3d 0781 ca3d
00000010: c2e8 1e3e 2adc 6d3e 609f 303d a266 393e
00000020: 7d67 8c3d d146 123d 0bc0 a33d 491d ad3d
00000030: 9bac 4a3d 8370 393e d432 503d f028 c73c
00000040: 40d0 a53d ae8e 7b3d 4159 f13c 0897 9d3d
00000050: 8136 ac3d 72d3 a63d 7700 6d3d 2640 623d
00000060: ceae 303c 670e 543d 375c 0a3e ffec e53d
00000070: e836 8d3d 7037 973d 10f5 7b3c bfed 86bc
00000080: 3c65 213e 0d73 6c3e 985d 613e f974 6c3e
00000090: 55ac 193d c519 0dbb e9e7 bfbc 6713 05bb
000000a0: 2303 873c b80f fa3c 55eb 3b3d 3a05 843c
000000b0: bf5b 42bc 3f6c caba 04a7 403d 558b d53d
000000c0: d363 c93d b04c c13d ba87 163d 6fdf 6d3d
000000d0: b5f3 bf3d 9dc5 1b3e f5dd 073e 6d18 083e
000000e0: 1ce6 b33d 120a c83d e5a9 0e3e 00b2 1e3e
000000f0: 42c2 133e a236 053e cee1 cb3d 4dce d93d
00000100: 8048 113e f074 d73d 447c 1e3d 9ea1 bf3d
00000110: 2f94 543d 2b06 743d 776b 823d b0b5 4c3d
00000120: a5c3 423e 4599 983e a58a f33d acc1 123e
00000130: 41a8 583e c303 b53e 30e2 4ebd 6bf5 df3c
00000140: e158 963d ac94 af3d 230d 063e 09e1 64bd
00000150: 2357 88bd af17 9c3c 6071 243d 09ea 2e3e
00000160: 5113 363e c7c3 dbbd 523e 86bc fd09 48bb
00000170: 6596 dd3b 9a5f 7e3d 6acb f93c ac0d 1cbe
00000180: 6e80 0fba 4faf b93d c9bc 38bd ddec 0abd
00000190: 7543 cd3b 6f47 46bd c95c 873e 4068 a63e
000001a0: 7e46 db3d 87f6 173d da62 413d cd6b 803e
000001b0: c9c5 5dbd b89c 02bd 296a 9739 b796 813c
000001c0: d667 f73c 2c32 b03c 70ac 06bc acb2 91bb
000001d0: beb0 0a3b 79eb da3c 9cf2 053d 59a9 dd3c
000001e0: 3424 84bd 0b6c 6bbd eb12 b1bc fde7 193c
000001f0: c83b 79bc 976b c7bc 15bf a4bd 0731 9bbd
00000200: 5f20 03bd 2299 47bc de08 9cbc e9fd 8fbd
00000210: 8cec 83bd 7674 85bc eca9 1639 4c45 2f3b
00000220: f624 41bd c7b2 c9bd 8aee dfbd 446d 9abd
00000230: 1341 11bc 699b 573c 019f 4bbd 8a04 59be
00000240: bc17 dd3d 5786 6a3e 04f2 443d 2824 2ebd
00000250: fe50 93bd 9986 3abe 0b80 ac3d 125b aa3d
00000260: 5d3e aa3c 1cac 3abc 3241 d4bc 491d 0fbd
00000270: 945b 243e ac8d ec3d a975 913d ec28 e33c
00000280: 9b03 0f3d 8f6b 683c cb91 cd3d cbfd ac3d
00000290: c009 213d c53b ba3d 8c6f c03d 5603 003e
000002a0: 6e4a da3d a39a b03d f53a f83c 4c8e 893d
000002b0: 1412 853d 962f ea3d cd88 94be 9513 f9bd
000002c0: c405 a8bd c2ae 923c e64a bd3d 3133 5c3e
000002d0: ed8d f0bd 689c 95bd ddea 8bbc 11d3 d6bb
000002e0: 7958 fc3c d664 173d ed84 a3bd 7f7c e2bd
000002f0: 0ed8 babd fad2 81bd 58b1 02bd 075c 0f3d
00000300: c8b6 94bd 6bbe 0ebe 2cf0 1cbe 5a53 ffbd
00000310: 925f a3bd 1fd3 afbc a0a4 29bc 5164 a8bd
00000320: b423 febd f82c 0fbe f407 b5bd 23c2 6abd
00000330: de80 8e3b 03fa c53b 47e0 8b3b b944 31bd
00000340: 43ce 16bd 700d 37bd 658e 803c 7857 463d
00000350: def8 6d3d b0fd 2e3d e290 f83b adb5 c7bc
00000360: 5539 2ebd 2680 023d 344c 6d3d b226 263d
00000370: 5d2b 3e3b 5c5e 89bc f64e b6bc a166 003d
00000380: aa16 403c d332 a6bc d444 af3c c9e7 1c3d
00000390: 0fd5 6abd d282 5ebc 6dae 3bbd 24e7 06bd
000003a0: 8cc0 96bc 5071 653c b5d0 cabd d605 c6bd
000003b0: afc1 94bd ca21 89bd 2059 31bd b85f 4cbd
000003c0: 145c f3bd fb93 ecbd f23d a3bd 7c7c 8cbd
000003d0: 2ccf 81bd a9e4 c9bd e9f3 13be fca2 0abe
000003e0: 1bc0 c8bd 0e6f 98bd 06af bebd 2230 18be
000003f0: 61d6 d0bc 9282 883c e732 48bd 040b 9fbd

fc1.bias f4 [10]
-2.4583132 -1.1329927 -1.5713143 1.2414004 1.5293953 0.4449299 0.4063208 -1.1492684
0.33891532 2.3511455
00000000: 0155 1dc0 e805 91bf d420 c9bf 35e6 9e3f
00000010: 3ac3 c33f dacd e33e 4809 d03e 3a1b 93bf
00000020: 4f86 ad3e 2b79 1640
