distillation/saved_models/snet_kd_cifar10.pt (torch, 22743 bytes, 6 tensors)

conv1.weight f4 [6, 3, 3, 3]
000000 af f5 7c bf c0 29 04 3f d4 f5 c6 be 6d 70 ce 3d
       -0.98812383 0.51626205 -0.38859427 0.10080037
000010 08 9f 1a bc 95 02 0a bd f7 bd 44 3f 27 f4 8d 3e
       -0.00943733 -0.03369387 0.76852363 0.27725336
000020 b9 43 25 3f 55 d9 9a 3e 97 b9 29 be 24 ba b8 3e
       0.6455646 0.30243936 -0.16574703 0.36079514
000030 49 1e 19 be 0f fb d8 be ab 43 3e bf 42 ae e9 be
       -0.14952959 -0.42379043 -0.74322003 -0.4564076
000040 ae 34 98 3e cb 94 af 3d 73 06 85 3f 02 0f e4 be
       0.2972769 0.08573302 1.0392593 -0.445427
000050 4c 93 56 bf 2e d7 61 3f d6 0a 58 3f ce 07 c6 bd
       -0.8381851 0.88218963 0.84391534 -0.096694574
000060 7c 1f 44 bf 98 87 0d 3f 56 4e eb bd 77 6f 12 be
       -0.7661054 0.55285025 -0.11489551 -0.14300333
000070 35 bf a0 3e 6c 35 bf 3e fb f2 69 bf 20 56 52 3f
       0.3139588 0.37345445 -0.91386384 0.82162666
000080 57 fb 4c bf 9d e9 0a bf 58 b6 a8 3f 13 97 03 bf
       -0.80071014 -0.54262716 1.3180647 -0.51402396
000090 8c ba 2d 3e dc 8b c3 3e a4 57 60 bf 80 67 44 3e
       0.16965693 0.38192642 -0.8763373 0.19180107
0000a0 92 a1 38 3f ad 96 a9 be fd 07 97 be d8 f1 3c 3f
       0.72121537 -0.3312277 -0.29498282 0.73806524
0000b0 b5 a8 36 bf 0c eb aa be de 44 09 3f 76 4c 53 be
       -0.71351177 -0.33382452 0.5362071 -0.20634636
0000c0 4b 2d d5 be 2f 66 67 3f 6c 71 bd be 2b 2d 81 bf
       -0.41636118 0.90390295 -0.37000597 -1.0091909
0000d0 a3 36 9d 3f 4a 4a 8d be a9 00 d6 3e d3 11 df bd
       1.2282299 -0.2759574 0.4179738 -0.108920716
0000e0 de 03 3c 3f 5d 15 4f be 18 be 2f bf f0 37 cc be
       0.734434 -0.20222993 -0.68649435 -0.39886427
0000f0 a0 85 bd 3e d4 f0 a1 3e 32 58 bc bf 85 86 40 3f
       0.3701601 0.3162905 -1.4714415 0.7520526
000100 1b 4b d4 3e 60 a7 fb bb 63 4d 32 be f8 13 ed be
       0.4146355 -0.0076798648 -0.17412333 -0.46304297
000110 66 7b b8 be 73 0e 1d bf ae b8 d4 3e 36 ae a5 be
       -0.36031646 -0.6135017 0.4154715 -0.32359475
000120 2b 50 6a bf 2c 63 58 3f af 66 bb be 98 f2 11 3e
       -0.91528577 0.84526324 -0.3660178 0.14252698
000130 56 b6 3b 3f 37 ae fb bc 21 41 48 bf bf 64 5f 3f
       0.733251 -0.03072272 -0.7822438 0.872631
000140 b4 7a 5a 3f 28 e8 86 be 0d 30 5f 3f 70 5b 06 bf
       0.8534348 -0.26348996 0.87182695 -0.5248327
000150 c4 1d bb 3e 7d 24 e8 bf 7a de 74 3f fb 19 1a 3f
       0.36546147 -1.8136135 0.9565197 0.60195893
000160 62 83 1b 3e a8 7f e9 be 03 7f 6c bf b6 c0 95 3f
       0.15186837 -0.45605206 -0.92381305 1.1699436
000170 2f 75 98 3e bc b8 70 3e 73 75 b8 bf ba 6b ba 3f
       0.29776904 0.2350797 -1.4410843 1.4564126
000180 d5 bb ec be 6f 43 94 3e 3f 2e 21 bf e6 9f b2 be
       -0.46237054 0.28957698 -0.6296119 -0.34887618
000190 12 20 05 3f df 7b 11 bf 55 3a 69 3f 94 91 00 c0
       0.5200206 -0.5682964 0.9110463 -2.0088854
0001a0 c7 b8 7f 3f 09 74 8d 3f 85 44 b6 3e a1 59 88 bf
       0.9989132 1.1051036 0.3559915 -1.0652353
0001b0 e1 55 4e 3f d6 6a f4 bd 12 ca d1 3f 46 33 6a 3c
       0.8059979 -0.1193444 1.6389792 0.014294451
0001c0 aa d9 57 bf 7e ed 08 3f f6 36 2a bf 16 15 f4 bd
       -0.84316504 0.53487384 -0.66490114 -0.11918084
0001d0 1d 4b 81 be 38 9b 8a bf a7 a0 32 bf 96 af b8 bf
       -0.2525262 -1.0828619 -0.69776386 -1.4428585
0001e0 95 0a ad 3e 42 d5 38 3f 95 a0 d7 be 8a 89 28 3e
       0.33797136 0.72200406 -0.42114702 0.16458717
0001f0 5f d3 83 3f 47 f5 8b bf 2b a1 c7 3b 91 0b 4b 3e
       1.029888 -1.0934228 0.0060922108 0.19828631
000200 b2 33 84 be 46 c8 79 3e 2a ad bb be a4 44 e2 be
       -0.2582069 0.24392805 -0.3665555 -0.44192994
000210 6b ec 10 3f 9a 5b ad 3e f2 dc 2b 3d 47 63 d6 be
       0.56610745 0.3385895 0.041958757 -0.41872618
000220 89 24 5e 3f 21 f7 20 be 93 63 66 3f 19 93 1c bf
       0.867745 -0.15719272 0.8999569 -0.61161953
000230 84 14 e8 be 5f ac c0 3e bf cc 35 bf 71 eb 87 3e
       -0.45328152 0.3763151 -0.7101554 0.26546815
000240 45 06 05 3e 07 ab 0d 3f 50 04 f2 be 6f c6 85 3f
       0.12990673 0.5533909 -0.47268915 1.0451182
000250 11 7d 90 bf b4 56 b9 bc 25 17 4d bf 1c cb 19 bf
       -1.1288167 -0.022624351 -0.8011344 -0.60075545
000260 78 d6 59 3f d4 b7 42 bd 6d 9c 4d 3f 39 a9 40 bf
       0.8509288 -0.047538593 0.8031681 -0.75258213
000270 79 bc 2a 3f 30 d8 83 bf c2 6e 51 bd 1f bc 62 be
       0.66693836 -1.030035 -0.051131018 -0.22142075
000280 fb bf 91 be 2b 4a 7b 3f
       -0.28466782 0.98160046

conv1.bias f4 [6]
000000 83 7f d0 be 13 80 b8 bd a9 1d 26 bf 29 70 77 be
       -0.40722284 -0.09008803 -0.6488901 -0.2416388
000010 16 c2 42 bf d7 95 ff be
       -0.760774 -0.49919006

conv2.weight f4 [12, 6, 3, 3]
000000 33 53 1c bd db c6 65 be ca 89 b9 3d b8 a1 9a 3a
       -0.038165282 -0.22439139 0.09059484 0.0011797464
000010 b7 19 91 3d 61 39 34 be fd 5c 62 be 56 9f 18 3d
       0.07084983 -0.17600013 -0.22105785 0.03726133
000020 1c b6 b9 bd b3 0b 6c 3d 8a 5e 43 bd 48 82 f9 be
       -0.09067938 0.057628345 -0.04769758 -0.4873221
000030 4e ad 25 be b3 79 14 be ec 0c 65 3f e9 33 92 3e
       -0.16179392 -0.1449955 0.8947284 0.2855523
000040 1b 18 5c 3e 9c c5 c0 be bb 1c 5d be 3c 65 40 be
       0.2149357 -0.37650764 -0.21592991 -0.18788618
000050 6e e2 0a be 6f 24 bb be a2 1b c4 be 29 4d 67 bf
       -0.13562939 -0.36551234 -0.38302332 -0.9035211
000060 b4 3a 02 bf e1 ba e9 be 87 1f e2 be 3a bd 06 3e
       -0.50870824 -0.4565039 -0.44164678 0.13158122
000070 7a a6 6d 3e a4 00 a6 3d 37 23 fc 3d 33 36 1d 3d
       0.23208037 0.08105591 0.12311404 0.038381767
000080 f3 be 14 bd 01 53 48 3e 47 ad 16 3e b9 19 fb 3c
       -0.036314916 0.19562913 0.14714538 0.030651914
000090 47 ab c0 bd 33 f4 36 3e ce c5 a9 bd 08 ae 15 3e
       -0.094076686 0.17866592 -0.082896814 0.14617169
0000a0 19 20 84 be bb ff 08 be 70 3e cf be a5 b8 8d be
       -0.2580574 -0.13378803 -0.40477324 -0.27679935
0000b0 8b 6f d5 bd db 11 0c bd 67 ae 08 3c 1f 1a b5 3d
       -0.10421666 -0.034196716 0.008342362 0.08842873
0000c0 7f ae 9f bc 5f e7 2a 3e cd 38 04 3c 67 af 21 be
       -0.019492386 0.16689824 0.008070183 -0.15789567
0000d0 61 a9 25 3d 94 01 ce 3e 8e c6 63 bc d5 81 86 3d
       0.040444735 0.4023558 -0.01390232 0.06567732
0000e0 e0 48 33 be a5 18 23 3e 41 c9 bb bc 53 02 83 be
       -0.17508268 0.1592737 -0.022923114 -0.2558771
0000f0 6a 40 78 3e 82 63 84 bd 31 33 c4 be 43 5e 63 bd
       0.24243322 -0.06464292 -0.38320306 -0.055509817
000100 d1 be 91 3e da c8 50 3e 04 b0 51 bb 31 35 25 3e
       0.28465894 0.20389119 -0.0031995783 0.16133572
000110 7c a5 96 3e b9 c0 65 be 3b 8c 00 3e 46 65 0a 3f
       0.2942313 -0.22436799 0.12553494 0.5406078
000120 ad e2 a1 3e c5 c7 57 bd a4 69 85 bd f1 fb ad 3e
       0.31618252 -0.05268075 -0.0651429 0.3398128
000130 ba 0c 1a be 3f ea 01 be c3 16 b9 3e fd e9 6f be
       -0.15043917 -0.12687014 0.36150178 -0.23429103
000140 51 20 03 bf 23 2e 12 be e5 d7 1b be 7a b6 27 3d
       -0.51221186 -0.14275412 -0.15219076 0.040945508
000150 b4 3a 5f bd 30 ec 70 be c1 6e 29 3e 96 c0 a0 be
       -0.054499343 -0.23527598 0.16546156 -0.3139693
000160 e0 ba c2 be e1 2d 33 be 38 02 81 be 5d 9b 54 3e
       -0.380332 -0.1749797 -0.25197005 0.20762391
000170 6c d2 d7 3d bf 08 b7 be 07 51 c5 3e a4 be ad bd
       0.10538182 -0.3574886 0.3853838 -0.084836274
000180 db c9 e6 bf 10 42 15 3f 53 2e 26 bf 70 ea 3b bd
       -1.8030351 0.5830393 -0.64914435 -0.045877874
000190 d0 83 fe bd 65 43 92 bc e9 01 e1 bd 25 5e 22 be
       -0.12427485 -0.017854402 -0.109866925 -0.15856226
0001a0 9c fa 72 3d be 91 a6 be 62 90 b2 be 17 53 10 be
       0.05932103 -0.32533067 -0.3487578 -0.14094196
0001b0 d2 e1 1f 3e db 54 f9 bc 04 c7 fd 3d 79 05 00 3e
       0.15613487 -0.03043597 0.12391475 0.12502088
0001c0 ca 42 07 be eb 9b fb 3d b8 a7 da bd e6 d7 87 be
       -0.13209072 0.12285598 -0.10676521 -0.26531905
0001d0 50 43 c6 bd b8 f8 d8 bd b4 9f fa bc dc 6d d8 3b
       -0.096808076 -0.10594314 -0.03059373 0.006604893
0001e0 59 4a cf bd 44 03 19 be 5e 10 86 bb 0f 2d 5a 3d
       -0.101216026 -0.14942652 -0.0040913066 0.053265627
0001f0 6d 82 6c bd d0 95 f1 be 48 a4 05 3d e1 80 cb bd
       -0.05774157 -0.4718461 0.032627374 -0.09936691
000200 25 97 cf 3d 29 a6 7a 3e e6 87 84 be 21 40 11 be
       0.101362504 0.24477448 -0.25884932 -0.1418462
000210 d1 0f 63 3e 3b 58 b5 3d c8 de a9 bc 2b eb 5f 3e
       0.22174002 0.08854719 -0.020736113 0.21867053
000220 89 5c 39 3e 6a 44 6a 3e 8f 81 bc 3e 7e 3a 88 3d
       0.18101706 0.2287766 0.36817595 0.066517815
000230 15 ab e5 3d d1 13 25 3e 8d 07 71 3e c3 20 d9 3e
       0.11214272 0.1612084 0.23538037 0.42407808
000240 21 8f 06 bf 30 27 7d bd 35 35 9e 3e f1 63 61 3e
       -0.5256215 -0.06180495 0.3089997 0.22010781
000250 ba 15 af 3c fc fe d0 3d 13 55 1e 3e ba 3f 29 3e
       0.021372665 0.102048844 0.1546214 0.16528216
000260 de 10 b2 3b af 10 ad be 6a db 2b be 6f 0c c4 bd
       0.0054341396 -0.3380179 -0.16782919 -0.09572684
000270 bb a5 6a be 99 f4 af be 0f 34 bf be ca 30 bb be
       -0.22914784 -0.343663 -0.37344405 -0.3656066
000280 56 17 1a bf 4c a5 64 bf 9f 3b b2 ba 92 dd 4b bb
       -0.6019186 -0.89314723 -0.0013598091 -0.0031107408
000290 3e bb 73 bb 98 6c db bb 3a b7 08 bc 77 a8 11 bc
       -0.0037190462 -0.006696295 -0.008344466 -0.008890263
0002a0 dc 8c 05 bb 50 29 f9 ba f6 c8 4d bb ac e9 c9 bb
       -0.0020378148 -0.0019009504 -0.00314003 -0.006161889
0002b0 6f e7 da bb 8c 4c e8 bb 22 d9 9f bb 50 29 e7 bb
       -0.006680421 -0.007089203 -0.004878179 -0.0070544854
0002c0 4a 9e ba bb 69 c4 01 bc 64 c2 ee bb e8 50 f8 bb
       -0.005695139 -0.007920363 -0.0072863568 -0.007578004
0002d0 fb 90 4b bb 46 47 81 bb 12 64 a6 ba 1d 6f 84 39
       -0.0031061757 -0.003945264 -0.0012694618 0.00025259788
0002e0 29 65 9d 39 bb 3f 1a ba 4c cd 1b bb fa fd 21 bb
       0.00030020744 -0.00058841304 -0.002377349 -0.0024718032
0002f0 4e 85 63 b9 9f a7 90 bb 96 b2 6a bb 18 7d 97 bb
       -0.00021698067 -0.0044145132 -0.0035812012 -0.0046230666
000300 57 43 19 bb 61 64 12 bb b9 dc b1 bb 7c f6 f1 ba
       -0.0023386085 -0.0022337663 -0.0054279235 -0.0018460299
000310 a7 60 65 bb fa 2d 57 bb 01 5b 73 ba 97 95 04 ba
       -0.0035000236 -0.00328338 -0.0009283275 -0.0005057691
000320 b4 32 20 bb a2 ef f8 bb cc 93 03 bc 37 dc 0f bc
       -0.0024444284 -0.007596926 -0.008030843 -0.008780531
000330 c4 16 72 bb e6 a3 27 bb 4c 8d 2f bb 7c 64 8c 39
       -0.003693984 -0.0025579869 -0.00267871 0.00026777748
000340 08 a4 b9 ba c0 27 ec ba 48 9f 47 b9 e1 e8 e8 39
       -0.0014163265 -0.0018017218 -0.00019037456 0.00044423997
000350 26 b8 36 bb bc 41 3f ba fa 02 2b bb 56 69 52 38
       -0.0027880757 -0.0007295867 -0.0026094303 5.0166003e-05
000360 a8 32 84 3e f0 2a 3b 3e c8 30 c9 3e a1 a7 0a 3e
       0.25819898 0.18278098 0.3929503 0.13540508
000370 9a 37 c0 be bd 9c e0 be d8 eb 3f be f3 df 4e 3d
       -0.3754242 -0.43869582 -0.18742311 0.050506543
000380 e2 46 38 be 2e 0e 20 be 15 68 e9 3e a3 23 18 be
       -0.1799579 -0.15630409 0.4558722 -0.14857344
000390 7f 48 c9 bc e7 4d bc be fe 05 46 be 05 b3 48 3e
       -0.024570702 -0.36778185 -0.19338223 0.1959954
0003a0 22 59 3d bc 56 65 c2 3e ec d3 e7 3c 0b 09 1d bf
       -0.011556895 0.37967938 0.028299294 -0.61341923
0003b0 b4 c0 cb be b4 23 18 bc 6e ac 4e 3f 4e b2 3e 3f
       -0.39795458 -0.009285856 0.80731857 0.7449082
0003c0 35 71 2d bd 5e da 72 be f3 d8 f7 be 04 40 a9 bd
       -0.04234429 -0.23716113 -0.48407707 -0.08264163
0003d0 dd 1d 9d 3d d1 c6 82 3c 57 b1 0f 3e f5 32 cf be
       0.076717116 0.015963944 0.14032494 -0.40468565
0003e0 00 95 85 3d ac ae ee 3d 9f 5d a1 be 08 1a c6 3d
       0.0652256 0.1165441 -0.3151674 0.09672934
0003f0 a9 8a 61 bf d1 10 c4 be 2d fa 1d bf 2a 28 fc 3d
       -0.88102204 -0.3829408 -0.6170986 0.12312348

conv2.bias f4 [12]
000000 2c 30 7d 3f 77 b6 ef 3e c9 21 9f 3e 74 c0 56 bb
       0.9890163 0.46818897 0.31080464 -0.003276852
000010 6f 58 4a be aa 64 80 3f e8 33 56 3f fe a9 9c 3e
       -0.19760297 1.003072 0.8367295 0.30598444
000020 89 61 37 3e 94 47 a0 3f 05 a6 e2 3f eb c2 e2 bf
       0.179083 1.2521844 1.7706915 -1.7715734

fc1.weight f4 [10, 432]
000000 84 2d d0 bd ae f7 0a be bd d8 d0 bd ba 97 c7 bd
       -0.101649314 -0.13571045 -0.101975895 -0.097457364
000010 08 4c 80 bd 1d 17 d7 bd 12 4d 6c bd 5e c2 b6 bd
       -0.06264502 -0.105024554 -0.057690687 -0.08923791
000020 04 0d 9f bd 4f ab b6 bd 10 bb 4d bd 13 cf 86 bc
       -0.077661544 -0.08919393 -0.050227225 -0.016456163
000030 fc dd a9 bc d1 8a c9 bd b5 70 8a bd 64 e0 a0 bd
       -0.020735733 -0.0984093 -0.067597784 -0.07855299
000040 c3 54 81 bd fe 4d 51 bd 99 ff ca 3c 5f b7 42 bd
       -0.06314995 -0.05109977 0.024780082 -0.047538158
000050 55 fc 4a bd 75 e2 5c bd 4a e1 26 bd dd 1f 42 bd
       -0.04955705 -0.053926904 -0.040742196 -0.04739367
000060 a5 41 5e 3d ca ec ee 3b 6b 35 99 3b eb 64 38 3b
       0.054261822 0.007291411 0.0046755574 0.0028136324
000070 4c de dd 3c 85 7f 11 bd 1d 46 c1 3c 88 c1 eb bc
       0.027083538 -0.035522003 0.023593003 -0.028778806
000080 b0 8a 95 3c 2a 8f 33 3d 50 c5 0a 3d 0d b2 75 bd
       0.018254608 0.043837704 0.033879578 -0.059984256
000090 ea fc 6b 3d 5d 90 a2 3d 27 e1 86 3d 86 62 83 bc
       0.057614245 0.07937691 0.06585913 -0.01603819
0000a0 fa d3 23 bd f1 f9 5c 3d ff 21 ba 3c 97 85 38 3d
       -0.03999708 0.0539493 0.022721289 0.045049276
0000b0 71 c5 8f 3b da d7 09 bd b5 41 b3 bb b6 69 df 3b
       0.0043875505 -0.033653118 -0.0054704794 0.0068180216
0000c0 4b 7e 7e bc 44 51 32 bc f5 77 28 bd 8e 36 65 bd
       -0.01553304 -0.010883633 -0.041130025 -0.05596023
0000d0 94 4f b8 bd 7b 46 0d bd ad cc 45 bd 25 5f 63 bb
       -0.08999553 -0.034491044 -0.048290897 -0.0034694162
0000e0 2e 22 85 bb a4 d4 c9 bc 87 c3 1c bd ae 74 a6 bc
       -0.0040629124 -0.024637528 -0.038272407 -0.02031931
0000f0 25 0b 86 bc 6f 6c 33 3c cb c0 b2 3c 02 a7 b1 3b
       -0.016362736 0.010951146 0.021820446 0.00542152
000100 17 37 89 bc 7f a6 d5 bc 80 4a 9a bb 3f f7 29 3d
       -0.016749902 -0.026080368 -0.004708588 0.041495558
000110 22 ba 7b 3d 7e fb da 3c cd 34 1b bc 3c 48 b9 3b
       0.061456807 0.026731249 -0.009473038 0.005654363
000120 aa 9b 13 3e 1a 66 3b 3e 11 4e fa 3d 66 80 d4 3c
       0.1441485 0.18300667 0.12221921 0.025940131
000130 89 e6 10 bc a4 c3 50 be 5d c9 2f 3e 2d c5 f3 3d
       -0.008844026 -0.20387131 0.17166658 0.11902843
000140 8f 44 7e 3d 52 d8 01 3d a3 0a 8e 3b 01 bf e4 bd
       0.0620771 0.03170044 0.004334764 -0.111692436
000150 f3 69 09 3e a5 08 63 3d f8 a1 2f 3d 0c 70 f7 3c
       0.13419323 0.055428166 0.042879075 0.030204795
000160 ae 39 cd ba c2 64 88 bd f6 2c a2 3d de da 9f 3b
       -0.0015657449 -0.06659843 0.07918732 0.004878386
000170 32 67 36 3c 3a a1 2f 3d 9d 74 13 3d e9 7c 45 3d
       0.011133002 0.042878367 0.035999883 0.048214827
000180 e3 aa 70 3a fb cd 2b bd fd f1 a9 3c 7b c4 2b 3d
       0.00091807375 -0.041944485 0.020745272 0.041935425
000190 54 19 53 3d 33 e2 e2 3d 0d 51 b8 bd 8a 3c b8 bd
       0.051537827 0.110783 -0.08999834 -0.08995922
0001a0 7c c4 ae 3c 56 6b b8 3d 90 95 10 3e a4 42 6c 3e
       0.021333925 0.09004848 0.14119554 0.23072296
0001b0 11 bf e7 3a df 41 92 3a c5 92 24 3b 70 a0 38 3a
       0.0017680844 0.0011158547 0.0025111896 0.000704295
0001c0 67 e2 c3 3a e2 4d bc 3a 08 1c cb 3a 01 c2 17 3b
       0.0014944792 0.0014366473 0.0015496025 0.0023156407
0001d0 5a 8b 91 3a a2 ff 01 3b 1c 7e 19 3b da 13 57 3b
       0.0011104152 0.0019836207 0.0023421114 0.003281823
0001e0 9f 6b 18 3b 58 de 05 3b 25 1b 03 3b 6d a7 70 3b
       0.0023257507 0.0020426717 0.0020005193 0.0036720887
0001f0 7f 1f d7 3a 54 0d 17 3b 60 bf 35 3b c6 9d 76 3b
       0.0016412585 0.0023048716 0.0027732477 0.0037630661
000200 e0 c2 87 3b be dc 82 3b b6 ea 6a 3b b1 12 3a 3b
       0.004143104 0.0039935997 0.0035845465 0.0028392489
000210 bd be a9 3a 6d cb 08 3b c0 1f f4 3a 81 cd dd 3a
       0.0012950521 0.0020873204 0.0018625185 0.0016922207
000220 09 bc c4 3a 47 ad 56 3a a4 ce 9b 3a af 96 ca 3a
       0.0015009652 0.00081892725 0.0011887145 0.0015456284
000230 7a 1c b3 3a ad c0 cd 39 24 57 a1 3a ad ec fc b8
       0.0013665103 0.00039244202 0.0012309295 -0.00012060381
000240 94 91 c4 bc b3 b4 a5 3b 49 33 fc ba bb e0 ae bb
       -0.023995198 0.0050569414 -0.0019241358 -0.0053368486
000250 26 2a 7e 3b c0 d3 d4 3a 8c 06 2f 3d bb d4 f3 3c
       0.0038782447 0.0016237423 0.042730853 0.029764524
000260 ad d8 d5 38 a9 8c 51 bc ee 1f d5 3c cf f2 b2 3d
       0.000101969905 -0.012789884 0.026016202 0.08737718
000270 80 79 bb 3d 0f f2 36 3d 75 d7 03 3c bd 1c aa 3b
       0.09154034 0.04466444 0.008046974 0.005191414
000280 4d 85 70 3d 9f ca 08 3e 5b 45 02 3e 28 62 af 3d
       0.058720876 0.13358544 0.1272177 0.08563644
000290 9e be 53 3d e9 d6 38 3d 14 cc c1 3d 2e 0a 28 3e
       0.05169546 0.04512683 0.09462753 0.16410133
0002a0 03 0b e3 3d b2 61 d4 3d eb ee 84 3d 63 ad 62 3d
       0.11086085 0.103701964 0.064908825 0.055341136
0002b0 84 f1 d1 3d 2b 27 0f 3e 1c a1 5d 3d 55 15 85 3d
       0.102511436 0.13979785 0.054108724 0.064982094
0002c0 6e 78 45 3d dc 43 1d 3d 4f ef 98 3d 55 b2 70 3d
       0.048210554 0.038394794 0.074675195 0.05876382
0002d0 c6 c6 d0 bd 8b ec f3 3c 6a 1e 65 3d 38 96 c0 3d
       -0.10194163 0.029775878 0.05593721 0.09403652
0002e0 2b a4 1b 3e 81 16 68 3e 3c 20 dc bd 55 31 9a bc
       0.15199344 0.22664835 -0.10748336 -0.018822351
0002f0 6e 43 a4 3c a8 cb ae 3d d5 c9 e2 3d 82 f4 5b 3e
       0.020051684 0.08534938 0.11073653 0.21479991
000300 26 25 33 bd 7c ca 91 bc a4 39 e8 3c d9 65 95 3d
       -0.0437366 -0.017796747 0.028347798 0.072948165
000310 6e df ba 3d 0f 90 40 3e 59 66 a7 3d bd 62 71 3d
       0.09124647 0.18804954 0.08173818 0.058932055
000320 e6 60 a5 3d 85 02 c0 3d b4 11 4a 3d 67 76 c4 3d
       0.080751225 0.093754806 0.04933329 0.09592896
000330 56 a5 23 3e 31 83 c0 3d 98 e7 c5 3d 0d 39 74 3d
       0.1598104 0.09400023 0.096633136 0.05962472
000340 f3 d5 06 3c a2 f2 83 bb b0 ec 6c 3e 87 46 61 3e
       0.00822972 -0.004026727 0.23137164 0.2199956
000350 dc fa 10 3e 87 75 78 3d ed 63 5b bd b7 e8 53 be
       0.14158195 0.060658958 -0.053562094 -0.20694242
000360 32 2d a2 bd c5 8e c7 bd b8 08 bb bd 21 2c a7 bc
       -0.079187766 -0.09744028 -0.09132522 -0.020406784
000370 8b 52 38 bd 7d e2 a7 bd 50 e8 4e 3d 60 3a 4e 3d
       -0.045000594 -0.08197496 0.05051452 0.05034864
000380 0b c0 ce 3c 2a 01 57 3d b9 c8 77 3d fe 7b 08 3e
       0.025238058 0.052491345 0.06049416 0.1332855
000390 ba 47 79 3d 4a dd ec 3d cf be 0f 3e c8 56 e4 3d
       0.06085942 0.11565645 0.14037631 0.11149365
0003a0 6a 14 16 3e cd 90 4d 3e 09 57 16 3d fd be ca 3d
       0.14656225 0.20074768 0.036704097 0.098997094
0003b0 58 65 37 3e 35 03 3c 3e 54 e9 2a 3e 99 59 18 3e
       0.17909753 0.18360598 0.1669057 0.14877929
0003c0 bd 00 db bb 0d 00 98 3d f5 28 f4 3d ce 9f 11 3e
       -0.0066834376 0.07421885 0.119218744 0.14221117
0003d0 a8 aa f6 3d f0 c4 a7 3d d8 8c 56 3d 3d bc e7 3d
       0.12044269 0.0819186 0.052380413 0.113152005
0003e0 76 b6 e3 3d 95 42 c2 3d 9d 5e cb 3d 30 0b 0e 3e
       0.11118786 0.09485356 0.099301554 0.13871455
0003f0 0f d7 35 bd c2 46 00 bd 6d 2f 53 bd eb 5c 6f bd
       -0.04439455 -0.03131748 -0.0515589 -0.058438223

fc1.bias f4 [10]
000000 a1 50 05 c0 23 81 8d bf 86 58 97 bf 6d 79 f0 3f
       -2.0830462 -1.1055034 -1.182389 1.8787056
000010 50 8c 8f 3f a6 12 36 3f 96 d4 92 3e 5c 41 84 bf
       1.1214695 0.71122205 0.28677815 -1.0332446
000020 cb e9 95 3e 34 8a 8e 3f
       0.29279932 1.1135926
